…
I0312 00:20:51.664549 11137 net.cpp:322] The NetState phase (0) differed from the phase (1) specified by a rule in layer loss3/top-5
I0312 00:20:51.665684 11137 net.cpp:49] Initializing net from parameters: 
name: "GoogleNet"
state {
  phase: TRAIN
}
layer {
  name: "data"
  type: "Data"
  top: "data"
  top: "label"
  include {
    phase: TRAIN
  }
  transform_param {
    mirror: true
    crop_size: 224
    mean_value: 104
    mean_value: 117
    mean_value: 123
  }
  data_param {
    source: "/data/ilsvrc12_train_lmdb"
    batch_size: 24
    backend: LMDB
  }
}
layer {
  name: "conv1/7x7_s2"
  type: "Convolution"
  bottom: "data"
  top: "conv1/7x7_s2"
  param {
    lr_mult: 1
    decay_mult: 1
  }
  param {
    lr_mult: 2
    decay_mult: 0
  }
  convolution_param {
    num_output: 64
    pad: 3
    kernel_size: 7
    stride: 2
    weight_filler {
      type: "xavier"
    }
    bias_filler {
      type: "constant"
      value: 0.2
    }
  }
}
layer {
  name: "conv1/relu_7x7"
  type: "ReLU"
  bottom: "conv1/7x7_s2"
  top: "conv1/7x7_s2"
}
layer {
  name: "pool1/3x3_s2"
  type: "Pooling"
  bottom: "conv1/7x7_s2"
  top: "pool1/3x3_s2"
  pooling_param {
    pool: MAX
    kernel_size: 3
    stride: 2
  }
}
layer {
  name: "pool1/norm1"
  type: "LRN"
  bottom: "pool1/3x3_s2"
  top: "pool1/norm1"
  lrn_param {
    local_size: 5
    alpha: 0.0001
    beta: 0.75
  }
}
layer {
  name: "conv2/3x3_reduce"
  type: "Convolution"
  bottom: "pool1/norm1"
  top: "conv2/3x3_reduce"
  param {
    lr_mult: 1
    decay_mult: 1
  }
  param {
    lr_mult: 2
    decay_mult: 0
  }
  convolution_param {
    num_output: 64
    kernel_size: 1
    weight_filler {
      type: "xavier"
    }
    bias_filler {
      type: "constant"
      value: 0.2
    }
  }
}
layer {
  name: "conv2/relu_3x3_reduce"
  type: "ReLU"
  bottom: "conv2/3x3_reduce"
  top: "conv2/3x3_reduce"
}
layer {
  name: "conv2/3x3"
  type: "Convolution"
  bottom: "conv2/3x3_reduce"
  top: "conv2/3x3"
  param {
    lr_mult: 1
    decay_mult: 1
  }
  param {
    lr_mult: 2
    decay_mult: 0
  }
  convolution_param {
    num_output: 192
    pad: 1
    kernel_size: 3
    weight_filler {
      type: "xavier"
    }
    bias_filler {
      type: "constant"
      value: 0.2
    }
  }
}
layer {
  name: "conv2/relu_3x3"
  type: "ReLU"
  bottom: "conv2/3x3"
  top: "conv2/3x3"
}
layer {
  name: "conv2/norm2"
  type: "LRN"
  bottom: "conv2/3x3"
  top: "conv2/norm2"
  lrn_param {
    local_size: 5
    alpha: 0.0001
    beta: 0.75
  }
}
layer {
  name: "pool2/3x3_s2"
  type: "Pooling"
  bottom: "conv2/norm2"
  top: "pool2/3x3_s2"
  pooling_param {
    pool: MAX
    kernel_size: 3
    stride: 2
  }
}
layer {
  name: "inception_3a/1x1"
  type: "Convolution"
  bottom: "pool2/3x3_s2"
  top: "inception_3a/1x1"
  param {
    lr_mult: 1
    decay_mult: 1
  }
  param {
    lr_mult: 2
    decay_mult: 0
  }
  convolution_param {
    num_output: 64
    kernel_size: 1
    weight_filler {
      type: "xavier"
    }
    bias_filler {
      type: "constant"
      value: 0.2
    }
  }
}
layer {
  name: "inception_3a/relu_1x1"
  type: "ReLU"
  bottom: "inception_3a/1x1"
  top: "inception_3a/1x1"
}
layer {
  name: "inception_3a/3x3_reduce"
  type: "Convolution"
  bottom: "pool2/3x3_s2"
  top: "inception_3a/3x3_reduce"
  param {
    lr_mult: 1
    decay_mult: 1
  }
  param {
    lr_mult: 2
    decay_mult: 0
  }
  convolution_param {
    num_output: 96
    kernel_size: 1
    weight_filler {
      type: "xavier"
    }
    bias_filler {
      type: "constant"
      value: 0.2
    }
  }
}
layer {
  name: "inception_3a/relu_3x3_reduce"
  type: "ReLU"
  bottom: "inception_3a/3x3_reduce"
  top: "inception_3a/3x3_reduce"
}
layer {
  name: "inception_3a/3x3"
  type: "Convolution"
  bottom: "inception_3a/3x3_reduce"
  top: "inception_3a/3x3"
  param {
    lr_mult: 1
    decay_mult: 1
  }
  param {
    lr_mult: 2
    decay_mult: 0
  }
  convolution_param {
    num_output: 128
    pad: 1
    kernel_size: 3
    weight_filler {
      type: "xavier"
    }
    bias_filler {
      type: "constant"
      value: 0.2
    }
  }
}
layer {
  name: "inception_3a/relu_3x3"
  type: "ReLU"
  bottom: "inception_3a/3x3"
  top: "inception_3a/3x3"
}
layer {
  name: "inception_3a/5x5_reduce"
  type: "Convolution"
  bottom: "pool2/3x3_s2"
  top: "inception_3a/5x5_reduce"
  param {
    lr_mult: 1
    decay_mult: 1
  }
  param {
    lr_mult: 2
    decay_mult: 0
  }
  convolution_param {
    num_output: 16
    kernel_size: 1
    weight_filler {
      type: "xavier"
    }
    bias_filler {
      type: "constant"
      value: 0.2
    }
  }
}
layer {
  name: "inception_3a/relu_5x5_reduce"
  type: "ReLU"
  bottom: "inception_3a/5x5_reduce"
  top: "inception_3a/5x5_reduce"
}
layer {
  name: "inception_3a/5x5"
  type: "Convolution"
  bottom: "inception_3a/5x5_reduce"
  top: "inception_3a/5x5"
  param {
    lr_mult: 1
    decay_mult: 1
  }
  param {
    lr_mult: 2
    decay_mult: 0
  }
  convolution_param {
    num_output: 32
    pad: 2
    kernel_size: 5
    weight_filler {
      type: "xavier"
    }
    bias_filler {
      type: "constant"
      value: 0.2
    }
  }
}
layer {
  name: "inception_3a/relu_5x5"
  type: "ReLU"
  bottom: "inception_3a/5x5"
  top: "inception_3a/5x5"
}
layer {
  name: "inception_3a/pool"
  type: "Pooling"
  bottom: "pool2/3x3_s2"
  top: "inception_3a/pool"
  pooling_param {
    pool: MAX
    kernel_size: 3
    stride: 1
    pad: 1
  }
}
layer {
  name: "inception_3a/pool_proj"
  type: "Convolution"
  bottom: "inception_3a/pool"
  top: "inception_3a/pool_proj"
  param {
    lr_mult: 1
    decay_mult: 1
  }
  param {
    lr_mult: 2
    decay_mult: 0
  }
  convolution_param {
    num_output: 32
    kernel_size: 1
    weight_filler {
      type: "xavier"
    }
    bias_filler {
      type: "constant"
      value: 0.2
    }
  }
}
layer {
  name: "inception_3a/relu_pool_proj"
  type: "ReLU"
  bottom: "inception_3a/pool_proj"
  top: "inception_3a/pool_proj"
}
layer {
  name: "inception_3a/output"
  type: "Concat"
  bottom: "inception_3a/1x1"
  bottom: "inception_3a/3x3"
  bottom: "inception_3a/5x5"
  bottom: "inception_3a/pool_proj"
  top: "inception_3a/output"
}
layer {
  name: "inception_3b/1x1"
  type: "Convolution"
  bottom: "inception_3a/output"
  top: "inception_3b/1x1"
  param {
    lr_mult: 1
    decay_mult: 1
  }
  param {
    lr_mult: 2
    decay_mult: 0
  }
  convolution_param {
    num_output: 128
    kernel_size: 1
    weight_filler {
      type: "xavier"
    }
    bias_filler {
      type: "constant"
      value: 0.2
    }
  }
}
layer {
  name: "inception_3b/relu_1x1"
  type: "ReLU"
  bottom: "inception_3b/1x1"
  top: "inception_3b/1x1"
}
layer {
  name: "inception_3b/3x3_reduce"
  type: "Convolution"
  bottom: "inception_3a/output"
  top: "inception_3b/3x3_reduce"
  param {
    lr_mult: 1
    decay_mult: 1
  }
  param {
    lr_mult: 2
    decay_mult: 0
  }
  convolution_param {
    num_output: 128
    kernel_size: 1
    weight_filler {
      type: "xavier"
    }
    bias_filler {
      type: "constant"
      value: 0.2
    }
  }
}
layer {
  name: "inception_3b/relu_3x3_reduce"
  type: "ReLU"
  bottom: "inception_3b/3x3_reduce"
  top: "inception_3b/3x3_reduce"
}
layer {
  name: "inception_3b/3x3"
  type: "Convolution"
  bottom: "inception_3b/3x3_reduce"
  top: "inception_3b/3x3"
  param {
    lr_mult: 1
    decay_mult: 1
  }
  param {
    lr_mult: 2
    decay_mult: 0
  }
  convolution_param {
    num_output: 192
    pad: 1
    kernel_size: 3
    weight_filler {
      type: "xavier"
    }
    bias_filler {
      type: "constant"
      value: 0.2
    }
  }
}
layer {
  name: "inception_3b/relu_3x3"
  type: "ReLU"
  bottom: "inception_3b/3x3"
  top: "inception_3b/3x3"
}
layer {
  name: "inception_3b/5x5_reduce"
  type: "Convolution"
  bottom: "inception_3a/output"
  top: "inception_3b/5x5_reduce"
  param {
    lr_mult: 1
    decay_mult: 1
  }
  param {
    lr_mult: 2
    decay_mult: 0
  }
  convolution_param {
    num_output: 32
    kernel_size: 1
    weight_filler {
      type: "xavier"
    }
    bias_filler {
      type: "constant"
      value: 0.2
    }
  }
}
layer {
  name: "inception_3b/relu_5x5_reduce"
  type: "ReLU"
  bottom: "inception_3b/5x5_reduce"
  top: "inception_3b/5x5_reduce"
}
layer {
  name: "inception_3b/5x5"
  type: "Convolution"
  bottom: "inception_3b/5x5_reduce"
  top: "inception_3b/5x5"
  param {
    lr_mult: 1
    decay_mult: 1
  }
  param {
    lr_mult: 2
    decay_mult: 0
  }
  convolution_param {
    num_output: 96
    pad: 2
    kernel_size: 5
    weight_filler {
      type: "xavier"
    }
    bias_filler {
      type: "constant"
      value: 0.2
    }
  }
}
layer {
  name: "inception_3b/relu_5x5"
  type: "ReLU"
  bottom: "inception_3b/5x5"
  top: "inception_3b/5x5"
}
layer {
  name: "inception_3b/pool"
  type: "Pooling"
  bottom: "inception_3a/output"
  top: "inception_3b/pool"
  pooling_param {
    pool: MAX
    kernel_size: 3
    stride: 1
    pad: 1
  }
}
layer {
  name: "inception_3b/pool_proj"
  type: "Convolution"
  bottom: "inception_3b/pool"
  top: "inception_3b/pool_proj"
  param {
    lr_mult: 1
    decay_mult: 1
  }
  param {
    lr_mult: 2
    decay_mult: 0
  }
  convolution_param {
    num_output: 64
    kernel_size: 1
    weight_filler {
      type: "xavier"
    }
    bias_filler {
      type: "constant"
      value: 0.2
    }
  }
}
layer {
  name: "inception_3b/relu_pool_proj"
  type: "ReLU"
  bottom: "inception_3b/pool_proj"
  top: "inception_3b/pool_proj"
}
layer {
  name: "inception_3b/output"
  type: "Concat"
  bottom: "inception_3b/1x1"
  bottom: "inception_3b/3x3"
  bottom: "inception_3b/5x5"
  bottom: "inception_3b/pool_proj"
  top: "inception_3b/output"
}
layer {
  name: "pool3/3x3_s2"
  type: "Pooling"
  bottom: "inception_3b/output"
  top: "pool3/3x3_s2"
  pooling_param {
    pool: MAX
    kernel_size: 3
    stride: 2
  }
}
layer {
  name: "inception_4a/1x1"
  type: "Convolution"
  bottom: "pool3/3x3_s2"
  top: "inception_4a/1x1"
  param {
    lr_mult: 1
    decay_mult: 1
  }
  param {
    lr_mult: 2
    decay_mult: 0
  }
  convolution_param {
    num_output: 192
    kernel_size: 1
    weight_filler {
      type: "xavier"
    }
    bias_filler {
      type: "constant"
      value: 0.2
    }
  }
}
layer {
  name: "inception_4a/relu_1x1"
  type: "ReLU"
  bottom: "inception_4a/1x1"
  top: "inception_4a/1x1"
}
layer {
  name: "inception_4a/3x3_reduce"
  type: "Convolution"
  bottom: "pool3/3x3_s2"
  top: "inception_4a/3x3_reduce"
  param {
    lr_mult: 1
    decay_mult: 1
  }
  param {
    lr_mult: 2
    decay_mult: 0
  }
  convolution_param {
    num_output: 96
    kernel_size: 1
    weight_filler {
      type: "xavier"
    }
    bias_filler {
      type: "constant"
      value: 0.2
    }
  }
}
layer {
  name: "inception_4a/relu_3x3_reduce"
  type: "ReLU"
  bottom: "inception_4a/3x3_reduce"
  top: "inception_4a/3x3_reduce"
}
layer {
  name: "inception_4a/3x3"
  type: "Convolution"
  bottom: "inception_4a/3x3_reduce"
  top: "inception_4a/3x3"
  param {
    lr_mult: 1
    decay_mult: 1
  }
  param {
    lr_mult: 2
    decay_mult: 0
  }
  convolution_param {
    num_output: 208
    pad: 1
    kernel_size: 3
    weight_filler {
      type: "xavier"
    }
    bias_filler {
      type: "constant"
      value: 0.2
    }
  }
}
layer {
  name: "inception_4a/relu_3x3"
  type: "ReLU"
  bottom: "inception_4a/3x3"
  top: "inception_4a/3x3"
}
layer {
  name: "inception_4a/5x5_reduce"
  type: "Convolution"
  bottom: "pool3/3x3_s2"
  top: "inception_4a/5x5_reduce"
  param {
    lr_mult: 1
    decay_mult: 1
  }
  param {
    lr_mult: 2
    decay_mult: 0
  }
  convolution_param {
    num_output: 16
    kernel_size: 1
    weight_filler {
      type: "xavier"
    }
    bias_filler {
      type: "constant"
      value: 0.2
    }
  }
}
layer {
  name: "inception_4a/relu_5x5_reduce"
  type: "ReLU"
  bottom: "inception_4a/5x5_reduce"
  top: "inception_4a/5x5_reduce"
}
layer {
  name: "inception_4a/5x5"
  type: "Convolution"
  bottom: "inception_4a/5x5_reduce"
  top: "inception_4a/5x5"
  param {
    lr_mult: 1
    decay_mult: 1
  }
  param {
    lr_mult: 2
    decay_mult: 0
  }
  convolution_param {
    num_output: 48
    pad: 2
    kernel_size: 5
    weight_filler {
      type: "xavier"
    }
    bias_filler {
      type: "constant"
      value: 0.2
    }
  }
}
layer {
  name: "inception_4a/relu_5x5"
  type: "ReLU"
  bottom: "inception_4a/5x5"
  top: "inception_4a/5x5"
}
layer {
  name: "inception_4a/pool"
  type: "Pooling"
  bottom: "pool3/3x3_s2"
  top: "inception_4a/pool"
  pooling_param {
    pool: MAX
    kernel_size: 3
    stride: 1
    pad: 1
  }
}
layer {
  name: "inception_4a/pool_proj"
  type: "Convolution"
  bottom: "inception_4a/pool"
  top: "inception_4a/pool_proj"
  param {
    lr_mult: 1
    decay_mult: 1
  }
  param {
    lr_mult: 2
    decay_mult: 0
  }
  convolution_param {
    num_output: 64
    kernel_size: 1
    weight_filler {
      type: "xavier"
    }
    bias_filler {
      type: "constant"
      value: 0.2
    }
  }
}
layer {
  name: "inception_4a/relu_pool_proj"
  type: "ReLU"
  bottom: "inception_4a/pool_proj"
  top: "inception_4a/pool_proj"
}
layer {
  name: "inception_4a/output"
  type: "Concat"
  bottom: "inception_4a/1x1"
  bottom: "inception_4a/3x3"
  bottom: "inception_4a/5x5"
  bottom: "inception_4a/pool_proj"
  top: "inception_4a/output"
}
layer {
  name: "loss1/ave_pool"
  type: "Pooling"
  bottom: "inception_4a/output"
  top: "loss1/ave_pool"
  pooling_param {
    pool: AVE
    kernel_size: 5
    stride: 3
  }
}
layer {
  name: "loss1/conv"
  type: "Convolution"
  bottom: "loss1/ave_pool"
  top: "loss1/conv"
  param {
    lr_mult: 1
    decay_mult: 1
  }
  param {
    lr_mult: 2
    decay_mult: 0
  }
  convolution_param {
    num_output: 128
    kernel_size: 1
    weight_filler {
      type: "xavier"
    }
    bias_filler {
      type: "constant"
      value: 0.2
    }
  }
}
layer {
  name: "loss1/relu_conv"
  type: "ReLU"
  bottom: "loss1/conv"
  top: "loss1/conv"
}
layer {
  name: "loss1/fc"
  type: "InnerProduct"
  bottom: "loss1/conv"
  top: "loss1/fc"
  param {
    lr_mult: 1
    decay_mult: 1
  }
  param {
    lr_mult: 2
    decay_mult: 0
  }
  inner_product_param {
    num_output: 1024
    weight_filler {
      type: "xavier"
    }
    bias_filler {
      type: "constant"
      value: 0.2
    }
  }
}
layer {
  name: "loss1/relu_fc"
  type: "ReLU"
  bottom: "loss1/fc"
  top: "loss1/fc"
}
layer {
  name: "loss1/drop_fc"
  type: "Dropout"
  bottom: "loss1/fc"
  top: "loss1/fc"
  dropout_param {
    dropout_ratio: 0.7
  }
}
layer {
  name: "myloss1/classifier"
  type: "InnerProduct"
  bottom: "loss1/fc"
  top: "myloss1/classifier"
  param {
    lr_mult: 10
    decay_mult: 1
  }
  param {
    lr_mult: 10
    decay_mult: 0
  }
  inner_product_param {
    num_output: 200
    weight_filler {
      type: "xavier"
    }
    bias_filler {
      type: "constant"
      value: 0
    }
  }
}
layer {
  name: "loss1/loss"
  type: "SoftmaxWithLoss"
  bottom: "myloss1/classifier"
  bottom: "label"
  top: "loss1/loss1"
  loss_weight: 0.3
}
layer {
  name: "inception_4b/1x1"
  type: "Convolution"
  bottom: "inception_4a/output"
  top: "inception_4b/1x1"
  param {
    lr_mult: 1
    decay_mult: 1
  }
  param {
    lr_mult: 2
    decay_mult: 0
  }
  convolution_param {
    num_output: 160
    kernel_size: 1
    weight_filler {
      type: "xavier"
    }
    bias_filler {
      type: "constant"
      value: 0.2
    }
  }
}
layer {
  name: "inception_4b/relu_1x1"
  type: "ReLU"
  bottom: "inception_4b/1x1"
  top: "inception_4b/1x1"
}
layer {
  name: "inception_4b/3x3_reduce"
  type: "Convolution"
  bottom: "inception_4a/output"
  top: "inception_4b/3x3_reduce"
  param {
    lr_mult: 1
    decay_mult: 1
  }
  param {
    lr_mult: 2
    decay_mult: 0
  }
  convolution_param {
    num_output: 112
    kernel_size: 1
    weight_filler {
      type: "xavier"
    }
    bias_filler {
      type: "constant"
      value: 0.2
    }
  }
}
layer {
  name: "inception_4b/relu_3x3_reduce"
  type: "ReLU"
  bottom: "inception_4b/3x3_reduce"
  top: "inception_4b/3x3_reduce"
}
layer {
  name: "inception_4b/3x3"
  type: "Convolution"
  bottom: "inception_4b/3x3_reduce"
  top: "inception_4b/3x3"
  param {
    lr_mult: 1
    decay_mult: 1
  }
  param {
    lr_mult: 2
    decay_mult: 0
  }
  convolution_param {
    num_output: 224
    pad: 1
    kernel_size: 3
    weight_filler {
      type: "xavier"
    }
    bias_filler {
      type: "constant"
      value: 0.2
    }
  }
}
layer {
  name: "inception_4b/relu_3x3"
  type: "ReLU"
  bottom: "inception_4b/3x3"
  top: "inception_4b/3x3"
}
layer {
  name: "inception_4b/5x5_reduce"
  type: "Convolution"
  bottom: "inception_4a/output"
  top: "inception_4b/5x5_reduce"
  param {
    lr_mult: 1
    decay_mult: 1
  }
  param {
    lr_mult: 2
    decay_mult: 0
  }
  convolution_param {
    num_output: 24
    kernel_size: 1
    weight_filler {
      type: "xavier"
    }
    bias_filler {
      type: "constant"
      value: 0.2
    }
  }
}
layer {
  name: "inception_4b/relu_5x5_reduce"
  type: "ReLU"
  bottom: "inception_4b/5x5_reduce"
  top: "inception_4b/5x5_reduce"
}
layer {
  name: "inception_4b/5x5"
  type: "Convolution"
  bottom: "inception_4b/5x5_reduce"
  top: "inception_4b/5x5"
  param {
    lr_mult: 1
    decay_mult: 1
  }
  param {
    lr_mult: 2
    decay_mult: 0
  }
  convolution_param {
    num_output: 64
    pad: 2
    kernel_size: 5
    weight_filler {
      type: "xavier"
    }
    bias_filler {
      type: "constant"
      value: 0.2
    }
  }
}
layer {
  name: "inception_4b/relu_5x5"
  type: "ReLU"
  bottom: "inception_4b/5x5"
  top: "inception_4b/5x5"
}
layer {
  name: "inception_4b/pool"
  type: "Pooling"
  bottom: "inception_4a/output"
  top: "inception_4b/pool"
  pooling_param {
    pool: MAX
    kernel_size: 3
    stride: 1
    pad: 1
  }
}
layer {
  name: "inception_4b/pool_proj"
  type: "Convolution"
  bottom: "inception_4b/pool"
  top: "inception_4b/pool_proj"
  param {
    lr_mult: 1
    decay_mult: 1
  }
  param {
    lr_mult: 2
    decay_mult: 0
  }
  convolution_param {
    num_output: 64
    kernel_size: 1
    weight_filler {
      type: "xavier"
    }
    bias_filler {
      type: "constant"
      value: 0.2
    }
  }
}
layer {
  name: "inception_4b/relu_pool_proj"
  type: "ReLU"
  bottom: "inception_4b/pool_proj"
  top: "inception_4b/pool_proj"
}
layer {
  name: "inception_4b/output"
  type: "Concat"
  bottom: "inception_4b/1x1"
  bottom: "inception_4b/3x3"
  bottom: "inception_4b/5x5"
  bottom: "inception_4b/pool_proj"
  top: "inception_4b/output"
}
layer {
  name: "inception_4c/1x1"
  type: "Convolution"
  bottom: "inception_4b/output"
  top: "inception_4c/1x1"
  param {
    lr_mult: 1
    decay_mult: 1
  }
  param {
    lr_mult: 2
    decay_mult: 0
  }
  convolution_param {
    num_output: 128
    kernel_size: 1
    weight_filler {
      type: "xavier"
    }
    bias_filler {
      type: "constant"
      value: 0.2
    }
  }
}
layer {
  name: "inception_4c/relu_1x1"
  type: "ReLU"
  bottom: "inception_4c/1x1"
  top: "inception_4c/1x1"
}
layer {
  name: "inception_4c/3x3_reduce"
  type: "Convolution"
  bottom: "inception_4b/output"
  top: "inception_4c/3x3_reduce"
  param {
    lr_mult: 1
    decay_mult: 1
  }
  param {
    lr_mult: 2
    decay_mult: 0
  }
  convolution_param {
    num_output: 128
    kernel_size: 1
    weight_filler {
      type: "xavier"
    }
    bias_filler {
      type: "constant"
      value: 0.2
    }
  }
}
layer {
  name: "inception_4c/relu_3x3_reduce"
  type: "ReLU"
  bottom: "inception_4c/3x3_reduce"
  top: "inception_4c/3x3_reduce"
}
layer {
  name: "inception_4c/3x3"
  type: "Convolution"
  bottom: "inception_4c/3x3_reduce"
  top: "inception_4c/3x3"
  param {
    lr_mult: 1
    decay_mult: 1
  }
  param {
    lr_mult: 2
    decay_mult: 0
  }
  convolution_param {
    num_output: 256
    pad: 1
    kernel_size: 3
    weight_filler {
      type: "xavier"
    }
    bias_filler {
      type: "constant"
      value: 0.2
    }
  }
}
layer {
  name: "inception_4c/relu_3x3"
  type: "ReLU"
  bottom: "inception_4c/3x3"
  top: "inception_4c/3x3"
}
layer {
  name: "inception_4c/5x5_reduce"
  type: "Convolution"
  bottom: "inception_4b/output"
  top: "inception_4c/5x5_reduce"
  param {
    lr_mult: 1
    decay_mult: 1
  }
  param {
    lr_mult: 2
    decay_mult: 0
  }
  convolution_param {
    num_output: 24
    kernel_size: 1
    weight_filler {
      type: "xavier"
    }
    bias_filler {
      type: "constant"
      value: 0.2
    }
  }
}
layer {
  name: "inception_4c/relu_5x5_reduce"
  type: "ReLU"
  bottom: "inception_4c/5x5_reduce"
  top: "inception_4c/5x5_reduce"
}
layer {
  name: "inception_4c/5x5"
  type: "Convolution"
  bottom: "inception_4c/5x5_reduce"
  top: "inception_4c/5x5"
  param {
    lr_mult: 1
    decay_mult: 1
  }
  param {
    lr_mult: 2
    decay_mult: 0
  }
  convolution_param {
    num_output: 64
    pad: 2
    kernel_size: 5
    weight_filler {
      type: "xavier"
    }
    bias_filler {
      type: "constant"
      value: 0.2
    }
  }
}
layer {
  name: "inception_4c/relu_5x5"
  type: "ReLU"
  bottom: "inception_4c/5x5"
  top: "inception_4c/5x5"
}
layer {
  name: "inception_4c/pool"
  type: "Pooling"
  bottom: "inception_4b/output"
  top: "inception_4c/pool"
  pooling_param {
    pool: MAX
    kernel_size: 3
    stride: 1
    pad: 1
  }
}
layer {
  name: "inception_4c/pool_proj"
  type: "Convolution"
  bottom: "inception_4c/pool"
  top: "inception_4c/pool_proj"
  param {
    lr_mult: 1
    decay_mult: 1
  }
  param {
    lr_mult: 2
    decay_mult: 0
  }
  convolution_param {
    num_output: 64
    kernel_size: 1
    weight_filler {
      type: "xavier"
    }
    bias_filler {
      type: "constant"
      value: 0.2
    }
  }
}
layer {
  name: "inception_4c/relu_pool_proj"
  type: "ReLU"
  bottom: "inception_4c/pool_proj"
  top: "inception_4c/pool_proj"
}
layer {
  name: "inception_4c/output"
  type: "Concat"
  bottom: "inception_4c/1x1"
  bottom: "inception_4c/3x3"
  bottom: "inception_4c/5x5"
  bottom: "inception_4c/pool_proj"
  top: "inception_4c/output"
}
layer {
  name: "inception_4d/1x1"
  type: "Convolution"
  bottom: "inception_4c/output"
  top: "inception_4d/1x1"
  param {
    lr_mult: 1
    decay_mult: 1
  }
  param {
    lr_mult: 2
    decay_mult: 0
  }
  convolution_param {
    num_output: 112
    kernel_size: 1
    weight_filler {
      type: "xavier"
    }
    bias_filler {
      type: "constant"
      value: 0.2
    }
  }
}
layer {
  name: "inception_4d/relu_1x1"
  type: "ReLU"
  bottom: "inception_4d/1x1"
  top: "inception_4d/1x1"
}
layer {
  name: "inception_4d/3x3_reduce"
  type: "Convolution"
  bottom: "inception_4c/output"
  top: "inception_4d/3x3_reduce"
  param {
    lr_mult: 1
    decay_mult: 1
  }
  param {
    lr_mult: 2
    decay_mult: 0
  }
  convolution_param {
    num_output: 144
    kernel_size: 1
    weight_filler {
      type: "xavier"
    }
    bias_filler {
      type: "constant"
      value: 0.2
    }
  }
}
layer {
  name: "inception_4d/relu_3x3_reduce"
  type: "ReLU"
  bottom: "inception_4d/3x3_reduce"
  top: "inception_4d/3x3_reduce"
}
layer {
  name: "inception_4d/3x3"
  type: "Convolution"
  bottom: "inception_4d/3x3_reduce"
  top: "inception_4d/3x3"
  param {
    lr_mult: 1
    decay_mult: 1
  }
  param {
    lr_mult: 2
    decay_mult: 0
  }
  convolution_param {
    num_output: 288
    pad: 1
    kernel_size: 3
    weight_filler {
      type: "xavier"
    }
    bias_filler {
      type: "constant"
      value: 0.2
    }
  }
}
layer {
  name: "inception_4d/relu_3x3"
  type: "ReLU"
  bottom: "inception_4d/3x3"
  top: "inception_4d/3x3"
}
layer {
  name: "inception_4d/5x5_reduce"
  type: "Convolution"
  bottom: "inception_4c/output"
  top: "inception_4d/5x5_reduce"
  param {
    lr_mult: 1
    decay_mult: 1
  }
  param {
    lr_mult: 2
    decay_mult: 0
  }
  convolution_param {
    num_output: 32
    kernel_size: 1
    weight_filler {
      type: "xavier"
    }
    bias_filler {
      type: "constant"
      value: 0.2
    }
  }
}
layer {
  name: "inception_4d/relu_5x5_reduce"
  type: "ReLU"
  bottom: "inception_4d/5x5_reduce"
  top: "inception_4d/5x5_reduce"
}
layer {
  name: "inception_4d/5x5"
  type: "Convolution"
  bottom: "inception_4d/5x5_reduce"
  top: "inception_4d/5x5"
  param {
    lr_mult: 1
    decay_mult: 1
  }
  param {
    lr_mult: 2
    decay_mult: 0
  }
  convolution_param {
    num_output: 64
    pad: 2
    kernel_size: 5
    weight_filler {
      type: "xavier"
    }
    bias_filler {
      type: "constant"
      value: 0.2
    }
  }
}
layer {
  name: "inception_4d/relu_5x5"
  type: "ReLU"
  bottom: "inception_4d/5x5"
  top: "inception_4d/5x5"
}
layer {
  name: "inception_4d/pool"
  type: "Pooling"
  bottom: "inception_4c/output"
  top: "inception_4d/pool"
  pooling_param {
    pool: MAX
    kernel_size: 3
    stride: 1
    pad: 1
  }
}
layer {
  name: "inception_4d/pool_proj"
  type: "Convolution"
  bottom: "inception_4d/pool"
  top: "inception_4d/pool_proj"
  param {
    lr_mult: 1
    decay_mult: 1
  }
  param {
    lr_mult: 2
    decay_mult: 0
  }
  convolution_param {
    num_output: 64
    kernel_size: 1
    weight_filler {
      type: "xavier"
    }
    bias_filler {
      type: "constant"
      value: 0.2
    }
  }
}
layer {
  name: "inception_4d/relu_pool_proj"
  type: "ReLU"
  bottom: "inception_4d/pool_proj"
  top: "inception_4d/pool_proj"
}
layer {
  name: "inception_4d/output"
  type: "Concat"
  bottom: "inception_4d/1x1"
  bottom: "inception_4d/3x3"
  bottom: "inception_4d/5x5"
  bottom: "inception_4d/pool_proj"
  top: "inception_4d/output"
}
layer {
  name: "loss2/ave_pool"
  type: "Pooling"
  bottom: "inception_4d/output"
  top: "loss2/ave_pool"
  pooling_param {
    pool: AVE
    kernel_size: 5
    stride: 3
  }
}
layer {
  name: "loss2/conv"
  type: "Convolution"
  bottom: "loss2/ave_pool"
  top: "loss2/conv"
  param {
    lr_mult: 1
    decay_mult: 1
  }
  param {
    lr_mult: 2
    decay_mult: 0
  }
  convolution_param {
    num_output: 128
    kernel_size: 1
    weight_filler {
      type: "xavier"
    }
    bias_filler {
      type: "constant"
      value: 0.2
    }
  }
}
layer {
  name: "loss2/relu_conv"
  type: "ReLU"
  bottom: "loss2/conv"
  top: "loss2/conv"
}
layer {
  name: "loss2/fc"
  type: "InnerProduct"
  bottom: "loss2/conv"
  top: "loss2/fc"
  param {
    lr_mult: 1
    decay_mult: 1
  }
  param {
    lr_mult: 2
    decay_mult: 0
  }
  inner_product_param {
    num_output: 1024
    weight_filler {
      type: "xavier"
    }
    bias_filler {
      type: "constant"
      value: 0.2
    }
  }
}
layer {
  name: "loss2/relu_fc"
  type: "ReLU"
  bottom: "loss2/fc"
  top: "loss2/fc"
}
layer {
  name: "loss2/drop_fc"
  type: "Dropout"
  bottom: "loss2/fc"
  top: "loss2/fc"
  dropout_param {
    dropout_ratio: 0.7
  }
}
layer {
  name: "myloss2/classifier"
  type: "InnerProduct"
  bottom: "loss2/fc"
  top: "myloss2/classifier"
  param {
    lr_mult: 10
    decay_mult: 1
  }
  param {
    lr_mult: 10
    decay_mult: 0
  }
  inner_product_param {
    num_output: 200
    weight_filler {
      type: "xavier"
    }
    bias_filler {
      type: "constant"
      value: 0
    }
  }
}
layer {
  name: "loss2/loss"
  type: "SoftmaxWithLoss"
  bottom: "myloss2/classifier"
  bottom: "label"
  top: "loss2/loss1"
  loss_weight: 0.3
}
layer {
  name: "inception_4e/1x1"
  type: "Convolution"
  bottom: "inception_4d/output"
  top: "inception_4e/1x1"
  param {
    lr_mult: 1
    decay_mult: 1
  }
  param {
    lr_mult: 2
    decay_mult: 0
  }
  convolution_param {
    num_output: 256
    kernel_size: 1
    weight_filler {
      type: "xavier"
    }
    bias_filler {
      type: "constant"
      value: 0.2
    }
  }
}
layer {
  name: "inception_4e/relu_1x1"
  type: "ReLU"
  bottom: "inception_4e/1x1"
  top: "inception_4e/1x1"
}
layer {
  name: "inception_4e/3x3_reduce"
  type: "Convolution"
  bottom: "inception_4d/output"
  top: "inception_4e/3x3_reduce"
  param {
    lr_mult: 1
    decay_mult: 1
  }
  param {
    lr_mult: 2
    decay_mult: 0
  }
  convolution_param {
    num_output: 160
    kernel_size: 1
    weight_filler {
      type: "xavier"
    }
    bias_filler {
      type: "constant"
      value: 0.2
    }
  }
}
layer {
  name: "inception_4e/relu_3x3_reduce"
  type: "ReLU"
  bottom: "inception_4e/3x3_reduce"
  top: "inception_4e/3x3_reduce"
}
layer {
  name: "inception_4e/3x3"
  type: "Convolution"
  bottom: "inception_4e/3x3_reduce"
  top: "inception_4e/3x3"
  param {
    lr_mult: 1
    decay_mult: 1
  }
  param {
    lr_mult: 2
    decay_mult: 0
  }
  convolution_param {
    num_output: 320
    pad: 1
    kernel_size: 3
    weight_filler {
      type: "xavier"
    }
    bias_filler {
      type: "constant"
      value: 0.2
    }
  }
}
layer {
  name: "inception_4e/relu_3x3"
  type: "ReLU"
  bottom: "inception_4e/3x3"
  top: "inception_4e/3x3"
}
layer {
  name: "inception_4e/5x5_reduce"
  type: "Convolution"
  bottom: "inception_4d/output"
  top: "inception_4e/5x5_reduce"
  param {
    lr_mult: 1
    decay_mult: 1
  }
  param {
    lr_mult: 2
    decay_mult: 0
  }
  convolution_param {
    num_output: 32
    kernel_size: 1
    weight_filler {
      type: "xavier"
    }
    bias_filler {
      type: "constant"
      value: 0.2
    }
  }
}
layer {
  name: "inception_4e/relu_5x5_reduce"
  type: "ReLU"
  bottom: "inception_4e/5x5_reduce"
  top: "inception_4e/5x5_reduce"
}
layer {
  name: "inception_4e/5x5"
  type: "Convolution"
  bottom: "inception_4e/5x5_reduce"
  top: "inception_4e/5x5"
  param {
    lr_mult: 1
    decay_mult: 1
  }
  param {
    lr_mult: 2
    decay_mult: 0
  }
  convolution_param {
    num_output: 128
    pad: 2
    kernel_size: 5
    weight_filler {
      type: "xavier"
    }
    bias_filler {
      type: "constant"
      value: 0.2
    }
  }
}
layer {
  name: "inception_4e/relu_5x5"
  type: "ReLU"
  bottom: "inception_4e/5x5"
  top: "inception_4e/5x5"
}
layer {
  name: "inception_4e/pool"
  type: "Pooling"
  bottom: "inception_4d/output"
  top: "inception_4e/pool"
  pooling_param {
    pool: MAX
    kernel_size: 3
    stride: 
I0312 00:20:51.666610 11137 layer_factory.hpp:77] Creating layer data
I0312 00:20:51.667513 11137 net.cpp:106] Creating Layer data
I0312 00:20:51.667563 11137 net.cpp:411] data -> data
I0312 00:20:51.667610 11137 net.cpp:411] data -> label
I0312 00:20:51.668249 11143 db_lmdb.cpp:38] Opened lmdb /data/ilsvrc12_train_lmdb
I0312 00:20:51.680634 11137 data_layer.cpp:41] output data size: 24,3,224,224
I0312 00:20:51.709440 11137 net.cpp:150] Setting up data
I0312 00:20:51.709499 11137 net.cpp:157] Top shape: 24 3 224 224 (3612672)
I0312 00:20:51.709511 11137 net.cpp:157] Top shape: 24 (24)
I0312 00:20:51.709517 11137 net.cpp:165] Memory required for data: 14450784
I0312 00:20:51.709533 11137 layer_factory.hpp:77] Creating layer label_data_1_split
I0312 00:20:51.709552 11137 net.cpp:106] Creating Layer label_data_1_split
I0312 00:20:51.709563 11137 net.cpp:454] label_data_1_split <- label
I0312 00:20:51.709585 11137 net.cpp:411] label_data_1_split -> label_data_1_split_0
I0312 00:20:51.709612 11137 net.cpp:411] label_data_1_split -> label_data_1_split_1
I0312 00:20:51.709625 11137 net.cpp:411] label_data_1_split -> label_data_1_split_2
I0312 00:20:51.709699 11137 net.cpp:150] Setting up label_data_1_split
I0312 00:20:51.709724 11137 net.cpp:157] Top shape: 24 (24)
I0312 00:20:51.709733 11137 net.cpp:157] Top shape: 24 (24)
I0312 00:20:51.709750 11137 net.cpp:157] Top shape: 24 (24)
I0312 00:20:51.709756 11137 net.cpp:165] Memory required for data: 14451072
I0312 00:20:51.709764 11137 layer_factory.hpp:77] Creating layer conv1/7x7_s2
I0312 00:20:51.709791 11137 net.cpp:106] Creating Layer conv1/7x7_s2
I0312 00:20:51.709800 11137 net.cpp:454] conv1/7x7_s2 <- data
I0312 00:20:51.709812 11137 net.cpp:411] conv1/7x7_s2 -> conv1/7x7_s2
I0312 00:20:51.840293 11137 net.cpp:150] Setting up conv1/7x7_s2
I0312 00:20:51.840342 11137 net.cpp:157] Top shape: 24 64 112 112 (19267584)
I0312 00:20:51.840350 11137 net.cpp:165] Memory required for data: 91521408
I0312 00:20:51.840384 11137 layer_factory.hpp:77] Creating layer conv1/relu_7x7
I0312 00:20:51.840404 11137 net.cpp:106] Creating Layer conv1/relu_7x7
I0312 00:20:51.840412 11137 net.cpp:454] conv1/relu_7x7 <- conv1/7x7_s2
I0312 00:20:51.840423 11137 net.cpp:397] conv1/relu_7x7 -> conv1/7x7_s2 (in-place)
I0312 00:20:51.840590 11137 net.cpp:150] Setting up conv1/relu_7x7
I0312 00:20:51.840605 11137 net.cpp:157] Top shape: 24 64 112 112 (19267584)
I0312 00:20:51.840611 11137 net.cpp:165] Memory required for data: 168591744
I0312 00:20:51.840618 11137 layer_factory.hpp:77] Creating layer pool1/3x3_s2
I0312 00:20:51.840641 11137 net.cpp:106] Creating Layer pool1/3x3_s2
I0312 00:20:51.840647 11137 net.cpp:454] pool1/3x3_s2 <- conv1/7x7_s2
I0312 00:20:51.840657 11137 net.cpp:411] pool1/3x3_s2 -> pool1/3x3_s2
I0312 00:20:51.840723 11137 net.cpp:150] Setting up pool1/3x3_s2
I0312 00:20:51.840735 11137 net.cpp:157] Top shape: 24 64 56 56 (4816896)
I0312 00:20:51.840741 11137 net.cpp:165] Memory required for data: 187859328
I0312 00:20:51.840749 11137 layer_factory.hpp:77] Creating layer pool1/norm1
I0312 00:20:51.840770 11137 net.cpp:106] Creating Layer pool1/norm1
I0312 00:20:51.840777 11137 net.cpp:454] pool1/norm1 <- pool1/3x3_s2
I0312 00:20:51.840785 11137 net.cpp:411] pool1/norm1 -> pool1/norm1
I0312 00:20:51.841069 11137 net.cpp:150] Setting up pool1/norm1
I0312 00:20:51.841086 11137 net.cpp:157] Top shape: 24 64 56 56 (4816896)
I0312 00:20:51.841094 11137 net.cpp:165] Memory required for data: 207126912
I0312 00:20:51.841100 11137 layer_factory.hpp:77] Creating layer conv2/3x3_reduce
I0312 00:20:51.841120 11137 net.cpp:106] Creating Layer conv2/3x3_reduce
I0312 00:20:51.841127 11137 net.cpp:454] conv2/3x3_reduce <- pool1/norm1
I0312 00:20:51.841140 11137 net.cpp:411] conv2/3x3_reduce -> conv2/3x3_reduce
I0312 00:20:51.842617 11137 net.cpp:150] Setting up conv2/3x3_reduce
I0312 00:20:51.842638 11137 net.cpp:157] Top shape: 24 64 56 56 (4816896)
I0312 00:20:51.842644 11137 net.cpp:165] Memory required for data: 226394496
I0312 00:20:51.842658 11137 layer_factory.hpp:77] Creating layer conv2/relu_3x3_reduce
I0312 00:20:51.842669 11137 net.cpp:106] Creating Layer conv2/relu_3x3_reduce
I0312 00:20:51.842676 11137 net.cpp:454] conv2/relu_3x3_reduce <- conv2/3x3_reduce
I0312 00:20:51.842685 11137 net.cpp:397] conv2/relu_3x3_reduce -> conv2/3x3_reduce (in-place)
I0312 00:20:51.842860 11137 net.cpp:150] Setting up conv2/relu_3x3_reduce
I0312 00:20:51.842878 11137 net.cpp:157] Top shape: 24 64 56 56 (4816896)
I0312 00:20:51.842885 11137 net.cpp:165] Memory required for data: 245662080
I0312 00:20:51.842892 11137 layer_factory.hpp:77] Creating layer conv2/3x3
I0312 00:20:51.842912 11137 net.cpp:106] Creating Layer conv2/3x3
I0312 00:20:51.842921 11137 net.cpp:454] conv2/3x3 <- conv2/3x3_reduce
I0312 00:20:51.842931 11137 net.cpp:411] conv2/3x3 -> conv2/3x3
I0312 00:20:51.845259 11137 net.cpp:150] Setting up conv2/3x3
I0312 00:20:51.845286 11137 net.cpp:157] Top shape: 24 192 56 56 (14450688)
I0312 00:20:51.845293 11137 net.cpp:165] Memory required for data: 303464832
I0312 00:20:51.845309 11137 layer_factory.hpp:77] Creating layer conv2/relu_3x3
I0312 00:20:51.845320 11137 net.cpp:106] Creating Layer conv2/relu_3x3
I0312 00:20:51.845327 11137 net.cpp:454] conv2/relu_3x3 <- conv2/3x3
I0312 00:20:51.845351 11137 net.cpp:397] conv2/relu_3x3 -> conv2/3x3 (in-place)
I0312 00:20:51.845520 11137 net.cpp:150] Setting up conv2/relu_3x3
I0312 00:20:51.845546 11137 net.cpp:157] Top shape: 24 192 56 56 (14450688)
I0312 00:20:51.845553 11137 net.cpp:165] Memory required for data: 361267584
I0312 00:20:51.845561 11137 layer_factory.hpp:77] Creating layer conv2/norm2
I0312 00:20:51.845573 11137 net.cpp:106] Creating Layer conv2/norm2
I0312 00:20:51.845582 11137 net.cpp:454] conv2/norm2 <- conv2/3x3
I0312 00:20:51.845592 11137 net.cpp:411] conv2/norm2 -> conv2/norm2
I0312 00:20:51.845875 11137 net.cpp:150] Setting up conv2/norm2
I0312 00:20:51.845890 11137 net.cpp:157] Top shape: 24 192 56 56 (14450688)
I0312 00:20:51.845897 11137 net.cpp:165] Memory required for data: 419070336
I0312 00:20:51.845904 11137 layer_factory.hpp:77] Creating layer pool2/3x3_s2
I0312 00:20:51.845914 11137 net.cpp:106] Creating Layer pool2/3x3_s2
I0312 00:20:51.845921 11137 net.cpp:454] pool2/3x3_s2 <- conv2/norm2
I0312 00:20:51.845931 11137 net.cpp:411] pool2/3x3_s2 -> pool2/3x3_s2
I0312 00:20:51.845976 11137 net.cpp:150] Setting up pool2/3x3_s2
I0312 00:20:51.845988 11137 net.cpp:157] Top shape: 24 192 28 28 (3612672)
I0312 00:20:51.845994 11137 net.cpp:165] Memory required for data: 433521024
I0312 00:20:51.846000 11137 layer_factory.hpp:77] Creating layer pool2/3x3_s2_pool2/3x3_s2_0_split
I0312 00:20:51.846014 11137 net.cpp:106] Creating Layer pool2/3x3_s2_pool2/3x3_s2_0_split
I0312 00:20:51.846021 11137 net.cpp:454] pool2/3x3_s2_pool2/3x3_s2_0_split <- pool2/3x3_s2
I0312 00:20:51.846030 11137 net.cpp:411] pool2/3x3_s2_pool2/3x3_s2_0_split -> pool2/3x3_s2_pool2/3x3_s2_0_split_0
I0312 00:20:51.846040 11137 net.cpp:411] pool2/3x3_s2_pool2/3x3_s2_0_split -> pool2/3x3_s2_pool2/3x3_s2_0_split_1
I0312 00:20:51.846050 11137 net.cpp:411] pool2/3x3_s2_pool2/3x3_s2_0_split -> pool2/3x3_s2_pool2/3x3_s2_0_split_2
I0312 00:20:51.846061 11137 net.cpp:411] pool2/3x3_s2_pool2/3x3_s2_0_split -> pool2/3x3_s2_pool2/3x3_s2_0_split_3
I0312 00:20:51.846123 11137 net.cpp:150] Setting up pool2/3x3_s2_pool2/3x3_s2_0_split
I0312 00:20:51.846134 11137 net.cpp:157] Top shape: 24 192 28 28 (3612672)
I0312 00:20:51.846143 11137 net.cpp:157] Top shape: 24 192 28 28 (3612672)
I0312 00:20:51.846149 11137 net.cpp:157] Top shape: 24 192 28 28 (3612672)
I0312 00:20:51.846156 11137 net.cpp:157] Top shape: 24 192 28 28 (3612672)
I0312 00:20:51.846163 11137 net.cpp:165] Memory required for data: 491323776
I0312 00:20:51.846169 11137 layer_factory.hpp:77] Creating layer inception_3a/1x1
I0312 00:20:51.846185 11137 net.cpp:106] Creating Layer inception_3a/1x1
I0312 00:20:51.846192 11137 net.cpp:454] inception_3a/1x1 <- pool2/3x3_s2_pool2/3x3_s2_0_split_0
I0312 00:20:51.846204 11137 net.cpp:411] inception_3a/1x1 -> inception_3a/1x1
I0312 00:20:51.847923 11137 net.cpp:150] Setting up inception_3a/1x1
I0312 00:20:51.847944 11137 net.cpp:157] Top shape: 24 64 28 28 (1204224)
I0312 00:20:51.847951 11137 net.cpp:165] Memory required for data: 496140672
I0312 00:20:51.847964 11137 layer_factory.hpp:77] Creating layer inception_3a/relu_1x1
I0312 00:20:51.847973 11137 net.cpp:106] Creating Layer inception_3a/relu_1x1
I0312 00:20:51.847980 11137 net.cpp:454] inception_3a/relu_1x1 <- inception_3a/1x1
I0312 00:20:51.847990 11137 net.cpp:397] inception_3a/relu_1x1 -> inception_3a/1x1 (in-place)
I0312 00:20:51.848156 11137 net.cpp:150] Setting up inception_3a/relu_1x1
I0312 00:20:51.848175 11137 net.cpp:157] Top shape: 24 64 28 28 (1204224)
I0312 00:20:51.848181 11137 net.cpp:165] Memory required for data: 500957568
I0312 00:20:51.848187 11137 layer_factory.hpp:77] Creating layer inception_3a/3x3_reduce
I0312 00:20:51.848203 11137 net.cpp:106] Creating Layer inception_3a/3x3_reduce
I0312 00:20:51.848212 11137 net.cpp:454] inception_3a/3x3_reduce <- pool2/3x3_s2_pool2/3x3_s2_0_split_1
I0312 00:20:51.848222 11137 net.cpp:411] inception_3a/3x3_reduce -> inception_3a/3x3_reduce
I0312 00:20:51.849778 11137 net.cpp:150] Setting up inception_3a/3x3_reduce
I0312 00:20:51.849797 11137 net.cpp:157] Top shape: 24 96 28 28 (1806336)
I0312 00:20:51.849812 11137 net.cpp:165] Memory required for data: 508182912
I0312 00:20:51.849834 11137 layer_factory.hpp:77] Creating layer inception_3a/relu_3x3_reduce
I0312 00:20:51.849853 11137 net.cpp:106] Creating Layer inception_3a/relu_3x3_reduce
I0312 00:20:51.849861 11137 net.cpp:454] inception_3a/relu_3x3_reduce <- inception_3a/3x3_reduce
I0312 00:20:51.849869 11137 net.cpp:397] inception_3a/relu_3x3_reduce -> inception_3a/3x3_reduce (in-place)
I0312 00:20:51.850124 11137 net.cpp:150] Setting up inception_3a/relu_3x3_reduce
I0312 00:20:51.850141 11137 net.cpp:157] Top shape: 24 96 28 28 (1806336)
I0312 00:20:51.850147 11137 net.cpp:165] Memory required for data: 515408256
I0312 00:20:51.850154 11137 layer_factory.hpp:77] Creating layer inception_3a/3x3
I0312 00:20:51.850169 11137 net.cpp:106] Creating Layer inception_3a/3x3
I0312 00:20:51.850178 11137 net.cpp:454] inception_3a/3x3 <- inception_3a/3x3_reduce
I0312 00:20:51.850189 11137 net.cpp:411] inception_3a/3x3 -> inception_3a/3x3
I0312 00:20:51.851795 11137 net.cpp:150] Setting up inception_3a/3x3
I0312 00:20:51.851815 11137 net.cpp:157] Top shape: 24 128 28 28 (2408448)
I0312 00:20:51.851821 11137 net.cpp:165] Memory required for data: 525042048
I0312 00:20:51.851832 11137 layer_factory.hpp:77] Creating layer inception_3a/relu_3x3
I0312 00:20:51.851845 11137 net.cpp:106] Creating Layer inception_3a/relu_3x3
I0312 00:20:51.851852 11137 net.cpp:454] inception_3a/relu_3x3 <- inception_3a/3x3
I0312 00:20:51.851861 11137 net.cpp:397] inception_3a/relu_3x3 -> inception_3a/3x3 (in-place)
I0312 00:20:51.852115 11137 net.cpp:150] Setting up inception_3a/relu_3x3
I0312 00:20:51.852133 11137 net.cpp:157] Top shape: 24 128 28 28 (2408448)
I0312 00:20:51.852139 11137 net.cpp:165] Memory required for data: 534675840
I0312 00:20:51.852145 11137 layer_factory.hpp:77] Creating layer inception_3a/5x5_reduce
I0312 00:20:51.852161 11137 net.cpp:106] Creating Layer inception_3a/5x5_reduce
I0312 00:20:51.852169 11137 net.cpp:454] inception_3a/5x5_reduce <- pool2/3x3_s2_pool2/3x3_s2_0_split_2
I0312 00:20:51.852183 11137 net.cpp:411] inception_3a/5x5_reduce -> inception_3a/5x5_reduce
I0312 00:20:51.853138 11137 net.cpp:150] Setting up inception_3a/5x5_reduce
I0312 00:20:51.853157 11137 net.cpp:157] Top shape: 24 16 28 28 (301056)
I0312 00:20:51.853163 11137 net.cpp:165] Memory required for data: 535880064
I0312 00:20:51.853173 11137 layer_factory.hpp:77] Creating layer inception_3a/relu_5x5_reduce
I0312 00:20:51.853183 11137 net.cpp:106] Creating Layer inception_3a/relu_5x5_reduce
I0312 00:20:51.853190 11137 net.cpp:454] inception_3a/relu_5x5_reduce <- inception_3a/5x5_reduce
I0312 00:20:51.853204 11137 net.cpp:397] inception_3a/relu_5x5_reduce -> inception_3a/5x5_reduce (in-place)
I0312 00:20:51.853445 11137 net.cpp:150] Setting up inception_3a/relu_5x5_reduce
I0312 00:20:51.853461 11137 net.cpp:157] Top shape: 24 16 28 28 (301056)
I0312 00:20:51.853467 11137 net.cpp:165] Memory required for data: 537084288
I0312 00:20:51.853474 11137 layer_factory.hpp:77] Creating layer inception_3a/5x5
I0312 00:20:51.853492 11137 net.cpp:106] Creating Layer inception_3a/5x5
I0312 00:20:51.853499 11137 net.cpp:454] inception_3a/5x5 <- inception_3a/5x5_reduce
I0312 00:20:51.853509 11137 net.cpp:411] inception_3a/5x5 -> inception_3a/5x5
I0312 00:20:51.854603 11137 net.cpp:150] Setting up inception_3a/5x5
I0312 00:20:51.854620 11137 net.cpp:157] Top shape: 24 32 28 28 (602112)
I0312 00:20:51.854626 11137 net.cpp:165] Memory required for data: 539492736
I0312 00:20:51.854638 11137 layer_factory.hpp:77] Creating layer inception_3a/relu_5x5
I0312 00:20:51.854648 11137 net.cpp:106] Creating Layer inception_3a/relu_5x5
I0312 00:20:51.854655 11137 net.cpp:454] inception_3a/relu_5x5 <- inception_3a/5x5
I0312 00:20:51.854666 11137 net.cpp:397] inception_3a/relu_5x5 -> inception_3a/5x5 (in-place)
I0312 00:20:51.854939 11137 net.cpp:150] Setting up inception_3a/relu_5x5
I0312 00:20:51.854959 11137 net.cpp:157] Top shape: 24 32 28 28 (602112)
I0312 00:20:51.854965 11137 net.cpp:165] Memory required for data: 541901184
I0312 00:20:51.854980 11137 layer_factory.hpp:77] Creating layer inception_3a/pool
I0312 00:20:51.855000 11137 net.cpp:106] Creating Layer inception_3a/pool
I0312 00:20:51.855007 11137 net.cpp:454] inception_3a/pool <- pool2/3x3_s2_pool2/3x3_s2_0_split_3
I0312 00:20:51.855017 11137 net.cpp:411] inception_3a/pool -> inception_3a/pool
I0312 00:20:51.855072 11137 net.cpp:150] Setting up inception_3a/pool
I0312 00:20:51.855084 11137 net.cpp:157] Top shape: 24 192 28 28 (3612672)
I0312 00:20:51.855090 11137 net.cpp:165] Memory required for data: 556351872
I0312 00:20:51.855096 11137 layer_factory.hpp:77] Creating layer inception_3a/pool_proj
I0312 00:20:51.855114 11137 net.cpp:106] Creating Layer inception_3a/pool_proj
I0312 00:20:51.855123 11137 net.cpp:454] inception_3a/pool_proj <- inception_3a/pool
I0312 00:20:51.855134 11137 net.cpp:411] inception_3a/pool_proj -> inception_3a/pool_proj
I0312 00:20:51.855991 11137 net.cpp:150] Setting up inception_3a/pool_proj
I0312 00:20:51.856008 11137 net.cpp:157] Top shape: 24 32 28 28 (602112)
I0312 00:20:51.856014 11137 net.cpp:165] Memory required for data: 558760320
I0312 00:20:51.856030 11137 layer_factory.hpp:77] Creating layer inception_3a/relu_pool_proj
I0312 00:20:51.856043 11137 net.cpp:106] Creating Layer inception_3a/relu_pool_proj
I0312 00:20:51.856051 11137 net.cpp:454] inception_3a/relu_pool_proj <- inception_3a/pool_proj
I0312 00:20:51.856060 11137 net.cpp:397] inception_3a/relu_pool_proj -> inception_3a/pool_proj (in-place)
I0312 00:20:51.856314 11137 net.cpp:150] Setting up inception_3a/relu_pool_proj
I0312 00:20:51.856331 11137 net.cpp:157] Top shape: 24 32 28 28 (602112)
I0312 00:20:51.856338 11137 net.cpp:165] Memory required for data: 561168768
I0312 00:20:51.856344 11137 layer_factory.hpp:77] Creating layer inception_3a/output
I0312 00:20:51.856360 11137 net.cpp:106] Creating Layer inception_3a/output
I0312 00:20:51.856367 11137 net.cpp:454] inception_3a/output <- inception_3a/1x1
I0312 00:20:51.856375 11137 net.cpp:454] inception_3a/output <- inception_3a/3x3
I0312 00:20:51.856382 11137 net.cpp:454] inception_3a/output <- inception_3a/5x5
I0312 00:20:51.856389 11137 net.cpp:454] inception_3a/output <- inception_3a/pool_proj
I0312 00:20:51.856400 11137 net.cpp:411] inception_3a/output -> inception_3a/output
I0312 00:20:51.856441 11137 net.cpp:150] Setting up inception_3a/output
I0312 00:20:51.856452 11137 net.cpp:157] Top shape: 24 256 28 28 (4816896)
I0312 00:20:51.856458 11137 net.cpp:165] Memory required for data: 580436352
I0312 00:20:51.856464 11137 layer_factory.hpp:77] Creating layer inception_3a/output_inception_3a/output_0_split
I0312 00:20:51.856478 11137 net.cpp:106] Creating Layer inception_3a/output_inception_3a/output_0_split
I0312 00:20:51.856485 11137 net.cpp:454] inception_3a/output_inception_3a/output_0_split <- inception_3a/output
I0312 00:20:51.856494 11137 net.cpp:411] inception_3a/output_inception_3a/output_0_split -> inception_3a/output_inception_3a/output_0_split_0
I0312 00:20:51.856508 11137 net.cpp:411] inception_3a/output_inception_3a/output_0_split -> inception_3a/output_inception_3a/output_0_split_1
I0312 00:20:51.856518 11137 net.cpp:411] inception_3a/output_inception_3a/output_0_split -> inception_3a/output_inception_3a/output_0_split_2
I0312 00:20:51.856528 11137 net.cpp:411] inception_3a/output_inception_3a/output_0_split -> inception_3a/output_inception_3a/output_0_split_3
I0312 00:20:51.856595 11137 net.cpp:150] Setting up inception_3a/output_inception_3a/output_0_split
I0312 00:20:51.856607 11137 net.cpp:157] Top shape: 24 256 28 28 (4816896)
I0312 00:20:51.856616 11137 net.cpp:157] Top shape: 24 256 28 28 (4816896)
I0312 00:20:51.856622 11137 net.cpp:157] Top shape: 24 256 28 28 (4816896)
I0312 00:20:51.856629 11137 net.cpp:157] Top shape: 24 256 28 28 (4816896)
I0312 00:20:51.856636 11137 net.cpp:165] Memory required for data: 657506688
I0312 00:20:51.856642 11137 layer_factory.hpp:77] Creating layer inception_3b/1x1
I0312 00:20:51.856657 11137 net.cpp:106] Creating Layer inception_3b/1x1
I0312 00:20:51.856670 11137 net.cpp:454] inception_3b/1x1 <- inception_3a/output_inception_3a/output_0_split_0
I0312 00:20:51.856690 11137 net.cpp:411] inception_3b/1x1 -> inception_3b/1x1
I0312 00:20:51.857899 11137 net.cpp:150] Setting up inception_3b/1x1
I0312 00:20:51.857918 11137 net.cpp:157] Top shape: 24 128 28 28 (2408448)
I0312 00:20:51.857924 11137 net.cpp:165] Memory required for data: 667140480
I0312 00:20:51.857935 11137 layer_factory.hpp:77] Creating layer inception_3b/relu_1x1
I0312 00:20:51.857949 11137 net.cpp:106] Creating Layer inception_3b/relu_1x1
I0312 00:20:51.857964 11137 net.cpp:454] inception_3b/relu_1x1 <- inception_3b/1x1
I0312 00:20:51.857980 11137 net.cpp:397] inception_3b/relu_1x1 -> inception_3b/1x1 (in-place)
I0312 00:20:51.858142 11137 net.cpp:150] Setting up inception_3b/relu_1x1
I0312 00:20:51.858157 11137 net.cpp:157] Top shape: 24 128 28 28 (2408448)
I0312 00:20:51.858165 11137 net.cpp:165] Memory required for data: 676774272
I0312 00:20:51.858171 11137 layer_factory.hpp:77] Creating layer inception_3b/3x3_reduce
I0312 00:20:51.858189 11137 net.cpp:106] Creating Layer inception_3b/3x3_reduce
I0312 00:20:51.858197 11137 net.cpp:454] inception_3b/3x3_reduce <- inception_3a/output_inception_3a/output_0_split_1
I0312 00:20:51.858208 11137 net.cpp:411] inception_3b/3x3_reduce -> inception_3b/3x3_reduce
I0312 00:20:51.859377 11137 net.cpp:150] Setting up inception_3b/3x3_reduce
I0312 00:20:51.859398 11137 net.cpp:157] Top shape: 24 128 28 28 (2408448)
I0312 00:20:51.859405 11137 net.cpp:165] Memory required for data: 686408064
I0312 00:20:51.859416 11137 layer_factory.hpp:77] Creating layer inception_3b/relu_3x3_reduce
I0312 00:20:51.859432 11137 net.cpp:106] Creating Layer inception_3b/relu_3x3_reduce
I0312 00:20:51.859439 11137 net.cpp:454] inception_3b/relu_3x3_reduce <- inception_3b/3x3_reduce
I0312 00:20:51.859448 11137 net.cpp:397] inception_3b/relu_3x3_reduce -> inception_3b/3x3_reduce (in-place)
I0312 00:20:51.859700 11137 net.cpp:150] Setting up inception_3b/relu_3x3_reduce
I0312 00:20:51.859717 11137 net.cpp:157] Top shape: 24 128 28 28 (2408448)
I0312 00:20:51.859724 11137 net.cpp:165] Memory required for data: 696041856
I0312 00:20:51.859730 11137 layer_factory.hpp:77] Creating layer inception_3b/3x3
I0312 00:20:51.859755 11137 net.cpp:106] Creating Layer inception_3b/3x3
I0312 00:20:51.859762 11137 net.cpp:454] inception_3b/3x3 <- inception_3b/3x3_reduce
I0312 00:20:51.859773 11137 net.cpp:411] inception_3b/3x3 -> inception_3b/3x3
I0312 00:20:51.862706 11137 net.cpp:150] Setting up inception_3b/3x3
I0312 00:20:51.862727 11137 net.cpp:157] Top shape: 24 192 28 28 (3612672)
I0312 00:20:51.862735 11137 net.cpp:165] Memory required for data: 710492544
I0312 00:20:51.862761 11137 layer_factory.hpp:77] Creating layer inception_3b/relu_3x3
I0312 00:20:51.862776 11137 net.cpp:106] Creating Layer inception_3b/relu_3x3
I0312 00:20:51.862783 11137 net.cpp:454] inception_3b/relu_3x3 <- inception_3b/3x3
I0312 00:20:51.862792 11137 net.cpp:397] inception_3b/relu_3x3 -> inception_3b/3x3 (in-place)
I0312 00:20:51.863049 11137 net.cpp:150] Setting up inception_3b/relu_3x3
I0312 00:20:51.863065 11137 net.cpp:157] Top shape: 24 192 28 28 (3612672)
I0312 00:20:51.863072 11137 net.cpp:165] Memory required for data: 724943232
I0312 00:20:51.863083 11137 layer_factory.hpp:77] Creating layer inception_3b/5x5_reduce
I0312 00:20:51.863114 11137 net.cpp:106] Creating Layer inception_3b/5x5_reduce
I0312 00:20:51.863126 11137 net.cpp:454] inception_3b/5x5_reduce <- inception_3a/output_inception_3a/output_0_split_2
I0312 00:20:51.863138 11137 net.cpp:411] inception_3b/5x5_reduce -> inception_3b/5x5_reduce
I0312 00:20:51.864127 11137 net.cpp:150] Setting up inception_3b/5x5_reduce
I0312 00:20:51.864145 11137 net.cpp:157] Top shape: 24 32 28 28 (602112)
I0312 00:20:51.864151 11137 net.cpp:165] Memory required for data: 727351680
I0312 00:20:51.864162 11137 layer_factory.hpp:77] Creating layer inception_3b/relu_5x5_reduce
I0312 00:20:51.864181 11137 net.cpp:106] Creating Layer inception_3b/relu_5x5_reduce
I0312 00:20:51.864197 11137 net.cpp:454] inception_3b/relu_5x5_reduce <- inception_3b/5x5_reduce
I0312 00:20:51.864222 11137 net.cpp:397] inception_3b/relu_5x5_reduce -> inception_3b/5x5_reduce (in-place)
I0312 00:20:51.864382 11137 net.cpp:150] Setting up inception_3b/relu_5x5_reduce
I0312 00:20:51.864397 11137 net.cpp:157] Top shape: 24 32 28 28 (602112)
I0312 00:20:51.864403 11137 net.cpp:165] Memory required for data: 729760128
I0312 00:20:51.864409 11137 layer_factory.hpp:77] Creating layer inception_3b/5x5
I0312 00:20:51.864425 11137 net.cpp:106] Creating Layer inception_3b/5x5
I0312 00:20:51.864433 11137 net.cpp:454] inception_3b/5x5 <- inception_3b/5x5_reduce
I0312 00:20:51.864445 11137 net.cpp:411] inception_3b/5x5 -> inception_3b/5x5
I0312 00:20:51.866475 11137 net.cpp:150] Setting up inception_3b/5x5
I0312 00:20:51.866497 11137 net.cpp:157] Top shape: 24 96 28 28 (1806336)
I0312 00:20:51.866503 11137 net.cpp:165] Memory required for data: 736985472
I0312 00:20:51.866514 11137 layer_factory.hpp:77] Creating layer inception_3b/relu_5x5
I0312 00:20:51.866524 11137 net.cpp:106] Creating Layer inception_3b/relu_5x5
I0312 00:20:51.866531 11137 net.cpp:454] inception_3b/relu_5x5 <- inception_3b/5x5
I0312 00:20:51.866540 11137 net.cpp:397] inception_3b/relu_5x5 -> inception_3b/5x5 (in-place)
I0312 00:20:51.866842 11137 net.cpp:150] Setting up inception_3b/relu_5x5
I0312 00:20:51.866860 11137 net.cpp:157] Top shape: 24 96 28 28 (1806336)
I0312 00:20:51.866868 11137 net.cpp:165] Memory required for data: 744210816
I0312 00:20:51.866874 11137 layer_factory.hpp:77] Creating layer inception_3b/pool
I0312 00:20:51.866885 11137 net.cpp:106] Creating Layer inception_3b/pool
I0312 00:20:51.866893 11137 net.cpp:454] inception_3b/pool <- inception_3a/output_inception_3a/output_0_split_3
I0312 00:20:51.866901 11137 net.cpp:411] inception_3b/pool -> inception_3b/pool
I0312 00:20:51.866956 11137 net.cpp:150] Setting up inception_3b/pool
I0312 00:20:51.866968 11137 net.cpp:157] Top shape: 24 256 28 28 (4816896)
I0312 00:20:51.866974 11137 net.cpp:165] Memory required for data: 763478400
I0312 00:20:51.866981 11137 layer_factory.hpp:77] Creating layer inception_3b/pool_proj
I0312 00:20:51.866997 11137 net.cpp:106] Creating Layer inception_3b/pool_proj
I0312 00:20:51.867003 11137 net.cpp:454] inception_3b/pool_proj <- inception_3b/pool
I0312 00:20:51.867013 11137 net.cpp:411] inception_3b/pool_proj -> inception_3b/pool_proj
I0312 00:20:51.867982 11137 net.cpp:150] Setting up inception_3b/pool_proj
I0312 00:20:51.868000 11137 net.cpp:157] Top shape: 24 64 28 28 (1204224)
I0312 00:20:51.868006 11137 net.cpp:165] Memory required for data: 768295296
I0312 00:20:51.868017 11137 layer_factory.hpp:77] Creating layer inception_3b/relu_pool_proj
I0312 00:20:51.868027 11137 net.cpp:106] Creating Layer inception_3b/relu_pool_proj
I0312 00:20:51.868034 11137 net.cpp:454] inception_3b/relu_pool_proj <- inception_3b/pool_proj
I0312 00:20:51.868046 11137 net.cpp:397] inception_3b/relu_pool_proj -> inception_3b/pool_proj (in-place)
I0312 00:20:51.868404 11137 net.cpp:150] Setting up inception_3b/relu_pool_proj
I0312 00:20:51.868425 11137 net.cpp:157] Top shape: 24 64 28 28 (1204224)
I0312 00:20:51.868432 11137 net.cpp:165] Memory required for data: 773112192
I0312 00:20:51.868439 11137 layer_factory.hpp:77] Creating layer inception_3b/output
I0312 00:20:51.868455 11137 net.cpp:106] Creating Layer inception_3b/output
I0312 00:20:51.868463 11137 net.cpp:454] inception_3b/output <- inception_3b/1x1
I0312 00:20:51.868473 11137 net.cpp:454] inception_3b/output <- inception_3b/3x3
I0312 00:20:51.868479 11137 net.cpp:454] inception_3b/output <- inception_3b/5x5
I0312 00:20:51.868486 11137 net.cpp:454] inception_3b/output <- inception_3b/pool_proj
I0312 00:20:51.868494 11137 net.cpp:411] inception_3b/output -> inception_3b/output
I0312 00:20:51.868536 11137 net.cpp:150] Setting up inception_3b/output
I0312 00:20:51.868548 11137 net.cpp:157] Top shape: 24 480 28 28 (9031680)
I0312 00:20:51.868554 11137 net.cpp:165] Memory required for data: 809238912
I0312 00:20:51.868567 11137 layer_factory.hpp:77] Creating layer pool3/3x3_s2
I0312 00:20:51.868577 11137 net.cpp:106] Creating Layer pool3/3x3_s2
I0312 00:20:51.868592 11137 net.cpp:454] pool3/3x3_s2 <- inception_3b/output
I0312 00:20:51.868605 11137 net.cpp:411] pool3/3x3_s2 -> pool3/3x3_s2
I0312 00:20:51.868655 11137 net.cpp:150] Setting up pool3/3x3_s2
I0312 00:20:51.868667 11137 net.cpp:157] Top shape: 24 480 14 14 (2257920)
I0312 00:20:51.868674 11137 net.cpp:165] Memory required for data: 818270592
I0312 00:20:51.868680 11137 layer_factory.hpp:77] Creating layer pool3/3x3_s2_pool3/3x3_s2_0_split
I0312 00:20:51.868692 11137 net.cpp:106] Creating Layer pool3/3x3_s2_pool3/3x3_s2_0_split
I0312 00:20:51.868700 11137 net.cpp:454] pool3/3x3_s2_pool3/3x3_s2_0_split <- pool3/3x3_s2
I0312 00:20:51.868710 11137 net.cpp:411] pool3/3x3_s2_pool3/3x3_s2_0_split -> pool3/3x3_s2_pool3/3x3_s2_0_split_0
I0312 00:20:51.868721 11137 net.cpp:411] pool3/3x3_s2_pool3/3x3_s2_0_split -> pool3/3x3_s2_pool3/3x3_s2_0_split_1
I0312 00:20:51.868731 11137 net.cpp:411] pool3/3x3_s2_pool3/3x3_s2_0_split -> pool3/3x3_s2_pool3/3x3_s2_0_split_2
I0312 00:20:51.868741 11137 net.cpp:411] pool3/3x3_s2_pool3/3x3_s2_0_split -> pool3/3x3_s2_pool3/3x3_s2_0_split_3
I0312 00:20:51.868816 11137 net.cpp:150] Setting up pool3/3x3_s2_pool3/3x3_s2_0_split
I0312 00:20:51.868829 11137 net.cpp:157] Top shape: 24 480 14 14 (2257920)
I0312 00:20:51.868839 11137 net.cpp:157] Top shape: 24 480 14 14 (2257920)
I0312 00:20:51.868850 11137 net.cpp:157] Top shape: 24 480 14 14 (2257920)
I0312 00:20:51.868859 11137 net.cpp:157] Top shape: 24 480 14 14 (2257920)
I0312 00:20:51.868863 11137 net.cpp:165] Memory required for data: 854397312
I0312 00:20:51.868870 11137 layer_factory.hpp:77] Creating layer inception_4a/1x1
I0312 00:20:51.868885 11137 net.cpp:106] Creating Layer inception_4a/1x1
I0312 00:20:51.868891 11137 net.cpp:454] inception_4a/1x1 <- pool3/3x3_s2_pool3/3x3_s2_0_split_0
I0312 00:20:51.868904 11137 net.cpp:411] inception_4a/1x1 -> inception_4a/1x1
I0312 00:20:51.870546 11137 net.cpp:150] Setting up inception_4a/1x1
I0312 00:20:51.870563 11137 net.cpp:157] Top shape: 24 192 14 14 (903168)
I0312 00:20:51.870570 11137 net.cpp:165] Memory required for data: 858009984
I0312 00:20:51.870581 11137 layer_factory.hpp:77] Creating layer inception_4a/relu_1x1
I0312 00:20:51.870591 11137 net.cpp:106] Creating Layer inception_4a/relu_1x1
I0312 00:20:51.870599 11137 net.cpp:454] inception_4a/relu_1x1 <- inception_4a/1x1
I0312 00:20:51.870610 11137 net.cpp:397] inception_4a/relu_1x1 -> inception_4a/1x1 (in-place)
I0312 00:20:51.870790 11137 net.cpp:150] Setting up inception_4a/relu_1x1
I0312 00:20:51.870808 11137 net.cpp:157] Top shape: 24 192 14 14 (903168)
I0312 00:20:51.870815 11137 net.cpp:165] Memory required for data: 861622656
I0312 00:20:51.870822 11137 layer_factory.hpp:77] Creating layer inception_4a/3x3_reduce
I0312 00:20:51.870837 11137 net.cpp:106] Creating Layer inception_4a/3x3_reduce
I0312 00:20:51.870846 11137 net.cpp:454] inception_4a/3x3_reduce <- pool3/3x3_s2_pool3/3x3_s2_0_split_1
I0312 00:20:51.870856 11137 net.cpp:411] inception_4a/3x3_reduce -> inception_4a/3x3_reduce
I0312 00:20:51.872154 11137 net.cpp:150] Setting up inception_4a/3x3_reduce
I0312 00:20:51.872171 11137 net.cpp:157] Top shape: 24 96 14 14 (451584)
I0312 00:20:51.872179 11137 net.cpp:165] Memory required for data: 863428992
I0312 00:20:51.872200 11137 layer_factory.hpp:77] Creating layer inception_4a/relu_3x3_reduce
I0312 00:20:51.872210 11137 net.cpp:106] Creating Layer inception_4a/relu_3x3_reduce
I0312 00:20:51.872218 11137 net.cpp:454] inception_4a/relu_3x3_reduce <- inception_4a/3x3_reduce
I0312 00:20:51.872230 11137 net.cpp:397] inception_4a/relu_3x3_reduce -> inception_4a/3x3_reduce (in-place)
I0312 00:20:51.872481 11137 net.cpp:150] Setting up inception_4a/relu_3x3_reduce
I0312 00:20:51.872499 11137 net.cpp:157] Top shape: 24 96 14 14 (451584)
I0312 00:20:51.872506 11137 net.cpp:165] Memory required for data: 865235328
I0312 00:20:51.872514 11137 layer_factory.hpp:77] Creating layer inception_4a/3x3
I0312 00:20:51.872539 11137 net.cpp:106] Creating Layer inception_4a/3x3
I0312 00:20:51.872547 11137 net.cpp:454] inception_4a/3x3 <- inception_4a/3x3_reduce
I0312 00:20:51.872565 11137 net.cpp:411] inception_4a/3x3 -> inception_4a/3x3
I0312 00:20:51.875355 11137 net.cpp:150] Setting up inception_4a/3x3
I0312 00:20:51.875375 11137 net.cpp:157] Top shape: 24 208 14 14 (978432)
I0312 00:20:51.875381 11137 net.cpp:165] Memory required for data: 869149056
I0312 00:20:51.875392 11137 layer_factory.hpp:77] Creating layer inception_4a/relu_3x3
I0312 00:20:51.875404 11137 net.cpp:106] Creating Layer inception_4a/relu_3x3
I0312 00:20:51.875412 11137 net.cpp:454] inception_4a/relu_3x3 <- inception_4a/3x3
I0312 00:20:51.875422 11137 net.cpp:397] inception_4a/relu_3x3 -> inception_4a/3x3 (in-place)
I0312 00:20:51.875681 11137 net.cpp:150] Setting up inception_4a/relu_3x3
I0312 00:20:51.875699 11137 net.cpp:157] Top shape: 24 208 14 14 (978432)
I0312 00:20:51.875705 11137 net.cpp:165] Memory required for data: 873062784
I0312 00:20:51.875711 11137 layer_factory.hpp:77] Creating layer inception_4a/5x5_reduce
I0312 00:20:51.875728 11137 net.cpp:106] Creating Layer inception_4a/5x5_reduce
I0312 00:20:51.875736 11137 net.cpp:454] inception_4a/5x5_reduce <- pool3/3x3_s2_pool3/3x3_s2_0_split_2
I0312 00:20:51.875749 11137 net.cpp:411] inception_4a/5x5_reduce -> inception_4a/5x5_reduce
I0312 00:20:51.876772 11137 net.cpp:150] Setting up inception_4a/5x5_reduce
I0312 00:20:51.876803 11137 net.cpp:157] Top shape: 24 16 14 14 (75264)
I0312 00:20:51.876814 11137 net.cpp:165] Memory required for data: 873363840
I0312 00:20:51.876830 11137 layer_factory.hpp:77] Creating layer inception_4a/relu_5x5_reduce
I0312 00:20:51.876857 11137 net.cpp:106] Creating Layer inception_4a/relu_5x5_reduce
I0312 00:20:51.876873 11137 net.cpp:454] inception_4a/relu_5x5_reduce <- inception_4a/5x5_reduce
I0312 00:20:51.876893 11137 net.cpp:397] inception_4a/relu_5x5_reduce -> inception_4a/5x5_reduce (in-place)
I0312 00:20:51.877121 11137 net.cpp:150] Setting up inception_4a/relu_5x5_reduce
I0312 00:20:51.877143 11137 net.cpp:157] Top shape: 24 16 14 14 (75264)
I0312 00:20:51.877152 11137 net.cpp:165] Memory required for data: 873664896
I0312 00:20:51.877166 11137 layer_factory.hpp:77] Creating layer inception_4a/5x5
I0312 00:20:51.877192 11137 net.cpp:106] Creating Layer inception_4a/5x5
I0312 00:20:51.877202 11137 net.cpp:454] inception_4a/5x5 <- inception_4a/5x5_reduce
I0312 00:20:51.877218 11137 net.cpp:411] inception_4a/5x5 -> inception_4a/5x5
I0312 00:20:51.878597 11137 net.cpp:150] Setting up inception_4a/5x5
I0312 00:20:51.878617 11137 net.cpp:157] Top shape: 24 48 14 14 (225792)
I0312 00:20:51.878623 11137 net.cpp:165] Memory required for data: 874568064
I0312 00:20:51.878634 11137 layer_factory.hpp:77] Creating layer inception_4a/relu_5x5
I0312 00:20:51.878648 11137 net.cpp:106] Creating Layer inception_4a/relu_5x5
I0312 00:20:51.878655 11137 net.cpp:454] inception_4a/relu_5x5 <- inception_4a/5x5
I0312 00:20:51.878664 11137 net.cpp:397] inception_4a/relu_5x5 -> inception_4a/5x5 (in-place)
I0312 00:20:51.878947 11137 net.cpp:150] Setting up inception_4a/relu_5x5
I0312 00:20:51.878964 11137 net.cpp:157] Top shape: 24 48 14 14 (225792)
I0312 00:20:51.878971 11137 net.cpp:165] Memory required for data: 875471232
I0312 00:20:51.878978 11137 layer_factory.hpp:77] Creating layer inception_4a/pool
I0312 00:20:51.878989 11137 net.cpp:106] Creating Layer inception_4a/pool
I0312 00:20:51.878998 11137 net.cpp:454] inception_4a/pool <- pool3/3x3_s2_pool3/3x3_s2_0_split_3
I0312 00:20:51.879010 11137 net.cpp:411] inception_4a/pool -> inception_4a/pool
I0312 00:20:51.879070 11137 net.cpp:150] Setting up inception_4a/pool
I0312 00:20:51.879081 11137 net.cpp:157] Top shape: 24 480 14 14 (2257920)
I0312 00:20:51.879088 11137 net.cpp:165] Memory required for data: 884502912
I0312 00:20:51.879094 11137 layer_factory.hpp:77] Creating layer inception_4a/pool_proj
I0312 00:20:51.879114 11137 net.cpp:106] Creating Layer inception_4a/pool_proj
I0312 00:20:51.879122 11137 net.cpp:454] inception_4a/pool_proj <- inception_4a/pool
I0312 00:20:51.879142 11137 net.cpp:411] inception_4a/pool_proj -> inception_4a/pool_proj
I0312 00:20:51.880242 11137 net.cpp:150] Setting up inception_4a/pool_proj
I0312 00:20:51.880259 11137 net.cpp:157] Top shape: 24 64 14 14 (301056)
I0312 00:20:51.880266 11137 net.cpp:165] Memory required for data: 885707136
I0312 00:20:51.880277 11137 layer_factory.hpp:77] Creating layer inception_4a/relu_pool_proj
I0312 00:20:51.880290 11137 net.cpp:106] Creating Layer inception_4a/relu_pool_proj
I0312 00:20:51.880298 11137 net.cpp:454] inception_4a/relu_pool_proj <- inception_4a/pool_proj
I0312 00:20:51.880307 11137 net.cpp:397] inception_4a/relu_pool_proj -> inception_4a/pool_proj (in-place)
I0312 00:20:51.880571 11137 net.cpp:150] Setting up inception_4a/relu_pool_proj
I0312 00:20:51.880589 11137 net.cpp:157] Top shape: 24 64 14 14 (301056)
I0312 00:20:51.880594 11137 net.cpp:165] Memory required for data: 886911360
I0312 00:20:51.880601 11137 layer_factory.hpp:77] Creating layer inception_4a/output
I0312 00:20:51.880614 11137 net.cpp:106] Creating Layer inception_4a/output
I0312 00:20:51.880622 11137 net.cpp:454] inception_4a/output <- inception_4a/1x1
I0312 00:20:51.880630 11137 net.cpp:454] inception_4a/output <- inception_4a/3x3
I0312 00:20:51.880638 11137 net.cpp:454] inception_4a/output <- inception_4a/5x5
I0312 00:20:51.880645 11137 net.cpp:454] inception_4a/output <- inception_4a/pool_proj
I0312 00:20:51.880653 11137 net.cpp:411] inception_4a/output -> inception_4a/output
I0312 00:20:51.880692 11137 net.cpp:150] Setting up inception_4a/output
I0312 00:20:51.880703 11137 net.cpp:157] Top shape: 24 512 14 14 (2408448)
I0312 00:20:51.880710 11137 net.cpp:165] Memory required for data: 896545152
I0312 00:20:51.880717 11137 layer_factory.hpp:77] Creating layer inception_4a/output_inception_4a/output_0_split
I0312 00:20:51.880730 11137 net.cpp:106] Creating Layer inception_4a/output_inception_4a/output_0_split
I0312 00:20:51.880738 11137 net.cpp:454] inception_4a/output_inception_4a/output_0_split <- inception_4a/output
I0312 00:20:51.880749 11137 net.cpp:411] inception_4a/output_inception_4a/output_0_split -> inception_4a/output_inception_4a/output_0_split_0
I0312 00:20:51.880760 11137 net.cpp:411] inception_4a/output_inception_4a/output_0_split -> inception_4a/output_inception_4a/output_0_split_1
I0312 00:20:51.880771 11137 net.cpp:411] inception_4a/output_inception_4a/output_0_split -> inception_4a/output_inception_4a/output_0_split_2
I0312 00:20:51.880781 11137 net.cpp:411] inception_4a/output_inception_4a/output_0_split -> inception_4a/output_inception_4a/output_0_split_3
I0312 00:20:51.880790 11137 net.cpp:411] inception_4a/output_inception_4a/output_0_split -> inception_4a/output_inception_4a/output_0_split_4
I0312 00:20:51.880877 11137 net.cpp:150] Setting up inception_4a/output_inception_4a/output_0_split
I0312 00:20:51.880890 11137 net.cpp:157] Top shape: 24 512 14 14 (2408448)
I0312 00:20:51.880897 11137 net.cpp:157] Top shape: 24 512 14 14 (2408448)
I0312 00:20:51.880905 11137 net.cpp:157] Top shape: 24 512 14 14 (2408448)
I0312 00:20:51.880913 11137 net.cpp:157] Top shape: 24 512 14 14 (2408448)
I0312 00:20:51.880919 11137 net.cpp:157] Top shape: 24 512 14 14 (2408448)
I0312 00:20:51.880925 11137 net.cpp:165] Memory required for data: 944714112
I0312 00:20:51.880931 11137 layer_factory.hpp:77] Creating layer loss1/ave_pool
I0312 00:20:51.880944 11137 net.cpp:106] Creating Layer loss1/ave_pool
I0312 00:20:51.880950 11137 net.cpp:454] loss1/ave_pool <- inception_4a/output_inception_4a/output_0_split_0
I0312 00:20:51.880959 11137 net.cpp:411] loss1/ave_pool -> loss1/ave_pool
I0312 00:20:51.881263 11137 net.cpp:150] Setting up loss1/ave_pool
I0312 00:20:51.881279 11137 net.cpp:157] Top shape: 24 512 4 4 (196608)
I0312 00:20:51.881286 11137 net.cpp:165] Memory required for data: 945500544
I0312 00:20:51.881294 11137 layer_factory.hpp:77] Creating layer loss1/conv
I0312 00:20:51.881309 11137 net.cpp:106] Creating Layer loss1/conv
I0312 00:20:51.881319 11137 net.cpp:454] loss1/conv <- loss1/ave_pool
I0312 00:20:51.881335 11137 net.cpp:411] loss1/conv -> loss1/conv
I0312 00:20:51.882735 11137 net.cpp:150] Setting up loss1/conv
I0312 00:20:51.882768 11137 net.cpp:157] Top shape: 24 128 4 4 (49152)
I0312 00:20:51.882776 11137 net.cpp:165] Memory required for data: 945697152
I0312 00:20:51.882787 11137 layer_factory.hpp:77] Creating layer loss1/relu_conv
I0312 00:20:51.882800 11137 net.cpp:106] Creating Layer loss1/relu_conv
I0312 00:20:51.882808 11137 net.cpp:454] loss1/relu_conv <- loss1/conv
I0312 00:20:51.882817 11137 net.cpp:397] loss1/relu_conv -> loss1/conv (in-place)
I0312 00:20:51.883090 11137 net.cpp:150] Setting up loss1/relu_conv
I0312 00:20:51.883106 11137 net.cpp:157] Top shape: 24 128 4 4 (49152)
I0312 00:20:51.883112 11137 net.cpp:165] Memory required for data: 945893760
I0312 00:20:51.883119 11137 layer_factory.hpp:77] Creating layer loss1/fc
I0312 00:20:51.883136 11137 net.cpp:106] Creating Layer loss1/fc
I0312 00:20:51.883144 11137 net.cpp:454] loss1/fc <- loss1/conv
I0312 00:20:51.883158 11137 net.cpp:411] loss1/fc -> loss1/fc
I0312 00:20:51.902624 11137 net.cpp:150] Setting up loss1/fc
I0312 00:20:51.902675 11137 net.cpp:157] Top shape: 24 1024 (24576)
I0312 00:20:51.902684 11137 net.cpp:165] Memory required for data: 945992064
I0312 00:20:51.902699 11137 layer_factory.hpp:77] Creating layer loss1/relu_fc
I0312 00:20:51.902719 11137 net.cpp:106] Creating Layer loss1/relu_fc
I0312 00:20:51.902730 11137 net.cpp:454] loss1/relu_fc <- loss1/fc
I0312 00:20:51.902756 11137 net.cpp:397] loss1/relu_fc -> loss1/fc (in-place)
I0312 00:20:51.903000 11137 net.cpp:150] Setting up loss1/relu_fc
I0312 00:20:51.903017 11137 net.cpp:157] Top shape: 24 1024 (24576)
I0312 00:20:51.903023 11137 net.cpp:165] Memory required for data: 946090368
I0312 00:20:51.903030 11137 layer_factory.hpp:77] Creating layer loss1/drop_fc
I0312 00:20:51.903066 11137 net.cpp:106] Creating Layer loss1/drop_fc
I0312 00:20:51.903075 11137 net.cpp:454] loss1/drop_fc <- loss1/fc
I0312 00:20:51.903085 11137 net.cpp:397] loss1/drop_fc -> loss1/fc (in-place)
I0312 00:20:51.903139 11137 net.cpp:150] Setting up loss1/drop_fc
I0312 00:20:51.903151 11137 net.cpp:157] Top shape: 24 1024 (24576)
I0312 00:20:51.903157 11137 net.cpp:165] Memory required for data: 946188672
I0312 00:20:51.903165 11137 layer_factory.hpp:77] Creating layer myloss1/classifier
I0312 00:20:51.903180 11137 net.cpp:106] Creating Layer myloss1/classifier
I0312 00:20:51.903188 11137 net.cpp:454] myloss1/classifier <- loss1/fc
I0312 00:20:51.903199 11137 net.cpp:411] myloss1/classifier -> myloss1/classifier
I0312 00:20:51.905522 11137 net.cpp:150] Setting up myloss1/classifier
I0312 00:20:51.905541 11137 net.cpp:157] Top shape: 24 200 (4800)
I0312 00:20:51.905549 11137 net.cpp:165] Memory required for data: 946207872
I0312 00:20:51.905560 11137 layer_factory.hpp:77] Creating layer loss1/loss
I0312 00:20:51.905577 11137 net.cpp:106] Creating Layer loss1/loss
I0312 00:20:51.905586 11137 net.cpp:454] loss1/loss <- myloss1/classifier
I0312 00:20:51.905597 11137 net.cpp:454] loss1/loss <- label_data_1_split_0
I0312 00:20:51.905608 11137 net.cpp:411] loss1/loss -> loss1/loss1
I0312 00:20:51.905630 11137 layer_factory.hpp:77] Creating layer loss1/loss
I0312 00:20:51.906050 11137 net.cpp:150] Setting up loss1/loss
I0312 00:20:51.906067 11137 net.cpp:157] Top shape: (1)
I0312 00:20:51.906075 11137 net.cpp:160]     with loss weight 0.3
I0312 00:20:51.906110 11137 net.cpp:165] Memory required for data: 946207876
I0312 00:20:51.906116 11137 layer_factory.hpp:77] Creating layer inception_4b/1x1
I0312 00:20:51.906136 11137 net.cpp:106] Creating Layer inception_4b/1x1
I0312 00:20:51.906147 11137 net.cpp:454] inception_4b/1x1 <- inception_4a/output_inception_4a/output_0_split_1
I0312 00:20:51.906158 11137 net.cpp:411] inception_4b/1x1 -> inception_4b/1x1
I0312 00:20:51.907897 11137 net.cpp:150] Setting up inception_4b/1x1
I0312 00:20:51.907918 11137 net.cpp:157] Top shape: 24 160 14 14 (752640)
I0312 00:20:51.907925 11137 net.cpp:165] Memory required for data: 949218436
I0312 00:20:51.907951 11137 layer_factory.hpp:77] Creating layer inception_4b/relu_1x1
I0312 00:20:51.907974 11137 net.cpp:106] Creating Layer inception_4b/relu_1x1
I0312 00:20:51.907982 11137 net.cpp:454] inception_4b/relu_1x1 <- inception_4b/1x1
I0312 00:20:51.907992 11137 net.cpp:397] inception_4b/relu_1x1 -> inception_4b/1x1 (in-place)
I0312 00:20:51.908162 11137 net.cpp:150] Setting up inception_4b/relu_1x1
I0312 00:20:51.908176 11137 net.cpp:157] Top shape: 24 160 14 14 (752640)
I0312 00:20:51.908184 11137 net.cpp:165] Memory required for data: 952228996
I0312 00:20:51.908190 11137 layer_factory.hpp:77] Creating layer inception_4b/3x3_reduce
I0312 00:20:51.908208 11137 net.cpp:106] Creating Layer inception_4b/3x3_reduce
I0312 00:20:51.908216 11137 net.cpp:454] inception_4b/3x3_reduce <- inception_4a/output_inception_4a/output_0_split_2
I0312 00:20:51.908227 11137 net.cpp:411] inception_4b/3x3_reduce -> inception_4b/3x3_reduce
I0312 00:20:51.910184 11137 net.cpp:150] Setting up inception_4b/3x3_reduce
I0312 00:20:51.910207 11137 net.cpp:157] Top shape: 24 112 14 14 (526848)
I0312 00:20:51.910213 11137 net.cpp:165] Memory required for data: 954336388
I0312 00:20:51.910224 11137 layer_factory.hpp:77] Creating layer inception_4b/relu_3x3_reduce
I0312 00:20:51.910238 11137 net.cpp:106] Creating Layer inception_4b/relu_3x3_reduce
I0312 00:20:51.910246 11137 net.cpp:454] inception_4b/relu_3x3_reduce <- inception_4b/3x3_reduce
I0312 00:20:51.910257 11137 net.cpp:397] inception_4b/relu_3x3_reduce -> inception_4b/3x3_reduce (in-place)
I0312 00:20:51.910524 11137 net.cpp:150] Setting up inception_4b/relu_3x3_reduce
I0312 00:20:51.910540 11137 net.cpp:157] Top shape: 24 112 14 14 (526848)
I0312 00:20:51.910547 11137 net.cpp:165] Memory required for data: 956443780
I0312 00:20:51.910554 11137 layer_factory.hpp:77] Creating layer inception_4b/3x3
I0312 00:20:51.910572 11137 net.cpp:106] Creating Layer inception_4b/3x3
I0312 00:20:51.910579 11137 net.cpp:454] inception_4b/3x3 <- inception_4b/3x3_reduce
I0312 00:20:51.910593 11137 net.cpp:411] inception_4b/3x3 -> inception_4b/3x3
I0312 00:20:51.913614 11137 net.cpp:150] Setting up inception_4b/3x3
I0312 00:20:51.913640 11137 net.cpp:157] Top shape: 24 224 14 14 (1053696)
I0312 00:20:51.913646 11137 net.cpp:165] Memory required for data: 960658564
I0312 00:20:51.913662 11137 layer_factory.hpp:77] Creating layer inception_4b/relu_3x3
I0312 00:20:51.913676 11137 net.cpp:106] Creating Layer inception_4b/relu_3x3
I0312 00:20:51.913686 11137 net.cpp:454] inception_4b/relu_3x3 <- inception_4b/3x3
I0312 00:20:51.913694 11137 net.cpp:397] inception_4b/relu_3x3 -> inception_4b/3x3 (in-place)
I0312 00:20:51.913957 11137 net.cpp:150] Setting up inception_4b/relu_3x3
I0312 00:20:51.913975 11137 net.cpp:157] Top shape: 24 224 14 14 (1053696)
I0312 00:20:51.913983 11137 net.cpp:165] Memory required for data: 964873348
I0312 00:20:51.913990 11137 layer_factory.hpp:77] Creating layer inception_4b/5x5_reduce
I0312 00:20:51.914007 11137 net.cpp:106] Creating Layer inception_4b/5x5_reduce
I0312 00:20:51.914016 11137 net.cpp:454] inception_4b/5x5_reduce <- inception_4a/output_inception_4a/output_0_split_3
I0312 00:20:51.914031 11137 net.cpp:411] inception_4b/5x5_reduce -> inception_4b/5x5_reduce
I0312 00:20:51.915222 11137 net.cpp:150] Setting up inception_4b/5x5_reduce
I0312 00:20:51.915241 11137 net.cpp:157] Top shape: 24 24 14 14 (112896)
I0312 00:20:51.915248 11137 net.cpp:165] Memory required for data: 965324932
I0312 00:20:51.915258 11137 layer_factory.hpp:77] Creating layer inception_4b/relu_5x5_reduce
I0312 00:20:51.915271 11137 net.cpp:106] Creating Layer inception_4b/relu_5x5_reduce
I0312 00:20:51.915279 11137 net.cpp:454] inception_4b/relu_5x5_reduce <- inception_4b/5x5_reduce
I0312 00:20:51.915288 11137 net.cpp:397] inception_4b/relu_5x5_reduce -> inception_4b/5x5_reduce (in-place)
I0312 00:20:51.915453 11137 net.cpp:150] Setting up inception_4b/relu_5x5_reduce
I0312 00:20:51.915468 11137 net.cpp:157] Top shape: 24 24 14 14 (112896)
I0312 00:20:51.915474 11137 net.cpp:165] Memory required for data: 965776516
I0312 00:20:51.915493 11137 layer_factory.hpp:77] Creating layer inception_4b/5x5
I0312 00:20:51.915521 11137 net.cpp:106] Creating Layer inception_4b/5x5
I0312 00:20:51.915529 11137 net.cpp:454] inception_4b/5x5 <- inception_4b/5x5_reduce
I0312 00:20:51.915541 11137 net.cpp:411] inception_4b/5x5 -> inception_4b/5x5
I0312 00:20:51.916798 11137 net.cpp:150] Setting up inception_4b/5x5
I0312 00:20:51.916821 11137 net.cpp:157] Top shape: 24 64 14 14 (301056)
I0312 00:20:51.916828 11137 net.cpp:165] Memory required for data: 966980740
I0312 00:20:51.916839 11137 layer_factory.hpp:77] Creating layer inception_4b/relu_5x5
I0312 00:20:51.916848 11137 net.cpp:106] Creating Layer inception_4b/relu_5x5
I0312 00:20:51.916859 11137 net.cpp:454] inception_4b/relu_5x5 <- inception_4b/5x5
I0312 00:20:51.916868 11137 net.cpp:397] inception_4b/relu_5x5 -> inception_4b/5x5 (in-place)
I0312 00:20:51.917145 11137 net.cpp:150] Setting up inception_4b/relu_5x5
I0312 00:20:51.917161 11137 net.cpp:157] Top shape: 24 64 14 14 (301056)
I0312 00:20:51.917168 11137 net.cpp:165] Memory required for data: 968184964
I0312 00:20:51.917176 11137 layer_factory.hpp:77] Creating layer inception_4b/pool
I0312 00:20:51.917186 11137 net.cpp:106] Creating Layer inception_4b/pool
I0312 00:20:51.917193 11137 net.cpp:454] inception_4b/pool <- inception_4a/output_inception_4a/output_0_split_4
I0312 00:20:51.917203 11137 net.cpp:411] inception_4b/pool -> inception_4b/pool
I0312 00:20:51.917279 11137 net.cpp:150] Setting up inception_4b/pool
I0312 00:20:51.917292 11137 net.cpp:157] Top shape: 24 512 14 14 (2408448)
I0312 00:20:51.917299 11137 net.cpp:165] Memory required for data: 977818756
I0312 00:20:51.917305 11137 layer_factory.hpp:77] Creating layer inception_4b/pool_proj
I0312 00:20:51.917320 11137 net.cpp:106] Creating Layer inception_4b/pool_proj
I0312 00:20:51.917328 11137 net.cpp:454] inception_4b/pool_proj <- inception_4b/pool
I0312 00:20:51.917340 11137 net.cpp:411] inception_4b/pool_proj -> inception_4b/pool_proj
I0312 00:20:51.918467 11137 net.cpp:150] Setting up inception_4b/pool_proj
I0312 00:20:51.918484 11137 net.cpp:157] Top shape: 24 64 14 14 (301056)
I0312 00:20:51.918491 11137 net.cpp:165] Memory required for data: 979022980
I0312 00:20:51.918501 11137 layer_factory.hpp:77] Creating layer inception_4b/relu_pool_proj
I0312 00:20:51.918511 11137 net.cpp:106] Creating Layer inception_4b/relu_pool_proj
I0312 00:20:51.918519 11137 net.cpp:454] inception_4b/relu_pool_proj <- inception_4b/pool_proj
I0312 00:20:51.918530 11137 net.cpp:397] inception_4b/relu_pool_proj -> inception_4b/pool_proj (in-place)
I0312 00:20:51.918851 11137 net.cpp:150] Setting up inception_4b/relu_pool_proj
I0312 00:20:51.918869 11137 net.cpp:157] Top shape: 24 64 14 14 (301056)
I0312 00:20:51.918876 11137 net.cpp:165] Memory required for data: 980227204
I0312 00:20:51.918884 11137 layer_factory.hpp:77] Creating layer inception_4b/output
I0312 00:20:51.918894 11137 net.cpp:106] Creating Layer inception_4b/output
I0312 00:20:51.918900 11137 net.cpp:454] inception_4b/output <- inception_4b/1x1
I0312 00:20:51.918910 11137 net.cpp:454] inception_4b/output <- inception_4b/3x3
I0312 00:20:51.918920 11137 net.cpp:454] inception_4b/output <- inception_4b/5x5
I0312 00:20:51.918929 11137 net.cpp:454] inception_4b/output <- inception_4b/pool_proj
I0312 00:20:51.918937 11137 net.cpp:411] inception_4b/output -> inception_4b/output
I0312 00:20:51.918979 11137 net.cpp:150] Setting up inception_4b/output
I0312 00:20:51.918992 11137 net.cpp:157] Top shape: 24 512 14 14 (2408448)
I0312 00:20:51.918998 11137 net.cpp:165] Memory required for data: 989860996
I0312 00:20:51.919005 11137 layer_factory.hpp:77] Creating layer inception_4b/output_inception_4b/output_0_split
I0312 00:20:51.919018 11137 net.cpp:106] Creating Layer inception_4b/output_inception_4b/output_0_split
I0312 00:20:51.919024 11137 net.cpp:454] inception_4b/output_inception_4b/output_0_split <- inception_4b/output
I0312 00:20:51.919034 11137 net.cpp:411] inception_4b/output_inception_4b/output_0_split -> inception_4b/output_inception_4b/output_0_split_0
I0312 00:20:51.919051 11137 net.cpp:411] inception_4b/output_inception_4b/output_0_split -> inception_4b/output_inception_4b/output_0_split_1
I0312 00:20:51.919070 11137 net.cpp:411] inception_4b/output_inception_4b/output_0_split -> inception_4b/output_inception_4b/output_0_split_2
I0312 00:20:51.919081 11137 net.cpp:411] inception_4b/output_inception_4b/output_0_split -> inception_4b/output_inception_4b/output_0_split_3
I0312 00:20:51.919157 11137 net.cpp:150] Setting up inception_4b/output_inception_4b/output_0_split
I0312 00:20:51.919170 11137 net.cpp:157] Top shape: 24 512 14 14 (2408448)
I0312 00:20:51.919179 11137 net.cpp:157] Top shape: 24 512 14 14 (2408448)
I0312 00:20:51.919186 11137 net.cpp:157] Top shape: 24 512 14 14 (2408448)
I0312 00:20:51.919193 11137 net.cpp:157] Top shape: 24 512 14 14 (2408448)
I0312 00:20:51.919199 11137 net.cpp:165] Memory required for data: 1028396164
I0312 00:20:51.919206 11137 layer_factory.hpp:77] Creating layer inception_4c/1x1
I0312 00:20:51.919221 11137 net.cpp:106] Creating Layer inception_4c/1x1
I0312 00:20:51.919229 11137 net.cpp:454] inception_4c/1x1 <- inception_4b/output_inception_4b/output_0_split_0
I0312 00:20:51.919241 11137 net.cpp:411] inception_4c/1x1 -> inception_4c/1x1
I0312 00:20:51.920789 11137 net.cpp:150] Setting up inception_4c/1x1
I0312 00:20:51.920809 11137 net.cpp:157] Top shape: 24 128 14 14 (602112)
I0312 00:20:51.920816 11137 net.cpp:165] Memory required for data: 1030804612
I0312 00:20:51.920827 11137 layer_factory.hpp:77] Creating layer inception_4c/relu_1x1
I0312 00:20:51.920840 11137 net.cpp:106] Creating Layer inception_4c/relu_1x1
I0312 00:20:51.920848 11137 net.cpp:454] inception_4c/relu_1x1 <- inception_4c/1x1
I0312 00:20:51.920857 11137 net.cpp:397] inception_4c/relu_1x1 -> inception_4c/1x1 (in-place)
I0312 00:20:51.921030 11137 net.cpp:150] Setting up inception_4c/relu_1x1
I0312 00:20:51.921044 11137 net.cpp:157] Top shape: 24 128 14 14 (602112)
I0312 00:20:51.921051 11137 net.cpp:165] Memory required for data: 1033213060
I0312 00:20:51.921058 11137 layer_factory.hpp:77] Creating layer inception_4c/3x3_reduce
I0312 00:20:51.921074 11137 net.cpp:106] Creating Layer inception_4c/3x3_reduce
I0312 00:20:51.921082 11137 net.cpp:454] inception_4c/3x3_reduce <- inception_4b/output_inception_4b/output_0_split_1
I0312 00:20:51.921092 11137 net.cpp:411] inception_4c/3x3_reduce -> inception_4c/3x3_reduce
I0312 00:20:51.922605 11137 net.cpp:150] Setting up inception_4c/3x3_reduce
I0312 00:20:51.922626 11137 net.cpp:157] Top shape: 24 128 14 14 (602112)
I0312 00:20:51.922632 11137 net.cpp:165] Memory required for data: 1035621508
I0312 00:20:51.922643 11137 layer_factory.hpp:77] Creating layer inception_4c/relu_3x3_reduce
I0312 00:20:51.922653 11137 net.cpp:106] Creating Layer inception_4c/relu_3x3_reduce
I0312 00:20:51.922662 11137 net.cpp:454] inception_4c/relu_3x3_reduce <- inception_4c/3x3_reduce
I0312 00:20:51.922670 11137 net.cpp:397] inception_4c/relu_3x3_reduce -> inception_4c/3x3_reduce (in-place)
I0312 00:20:51.922957 11137 net.cpp:150] Setting up inception_4c/relu_3x3_reduce
I0312 00:20:51.922976 11137 net.cpp:157] Top shape: 24 128 14 14 (602112)
I0312 00:20:51.922982 11137 net.cpp:165] Memory required for data: 1038029956
I0312 00:20:51.922989 11137 layer_factory.hpp:77] Creating layer inception_4c/3x3
I0312 00:20:51.923005 11137 net.cpp:106] Creating Layer inception_4c/3x3
I0312 00:20:51.923013 11137 net.cpp:454] inception_4c/3x3 <- inception_4c/3x3_reduce
I0312 00:20:51.923025 11137 net.cpp:411] inception_4c/3x3 -> inception_4c/3x3
I0312 00:20:51.926709 11137 net.cpp:150] Setting up inception_4c/3x3
I0312 00:20:51.926730 11137 net.cpp:157] Top shape: 24 256 14 14 (1204224)
I0312 00:20:51.926738 11137 net.cpp:165] Memory required for data: 1042846852
I0312 00:20:51.926784 11137 layer_factory.hpp:77] Creating layer inception_4c/relu_3x3
I0312 00:20:51.926796 11137 net.cpp:106] Creating Layer inception_4c/relu_3x3
I0312 00:20:51.926805 11137 net.cpp:454] inception_4c/relu_3x3 <- inception_4c/3x3
I0312 00:20:51.926823 11137 net.cpp:397] inception_4c/relu_3x3 -> inception_4c/3x3 (in-place)
I0312 00:20:51.927103 11137 net.cpp:150] Setting up inception_4c/relu_3x3
I0312 00:20:51.927119 11137 net.cpp:157] Top shape: 24 256 14 14 (1204224)
I0312 00:20:51.927125 11137 net.cpp:165] Memory required for data: 1047663748
I0312 00:20:51.927132 11137 layer_factory.hpp:77] Creating layer inception_4c/5x5_reduce
I0312 00:20:51.927148 11137 net.cpp:106] Creating Layer inception_4c/5x5_reduce
I0312 00:20:51.927158 11137 net.cpp:454] inception_4c/5x5_reduce <- inception_4b/output_inception_4b/output_0_split_2
I0312 00:20:51.927170 11137 net.cpp:411] inception_4c/5x5_reduce -> inception_4c/5x5_reduce
I0312 00:20:51.928287 11137 net.cpp:150] Setting up inception_4c/5x5_reduce
I0312 00:20:51.928304 11137 net.cpp:157] Top shape: 24 24 14 14 (112896)
I0312 00:20:51.928310 11137 net.cpp:165] Memory required for data: 1048115332
I0312 00:20:51.928321 11137 layer_factory.hpp:77] Creating layer inception_4c/relu_5x5_reduce
I0312 00:20:51.928333 11137 net.cpp:106] Creating Layer inception_4c/relu_5x5_reduce
I0312 00:20:51.928341 11137 net.cpp:454] inception_4c/relu_5x5_reduce <- inception_4c/5x5_reduce
I0312 00:20:51.928350 11137 net.cpp:397] inception_4c/relu_5x5_reduce -> inception_4c/5x5_reduce (in-place)
I0312 00:20:51.928527 11137 net.cpp:150] Setting up inception_4c/relu_5x5_reduce
I0312 00:20:51.928541 11137 net.cpp:157] Top shape: 24 24 14 14 (112896)
I0312 00:20:51.928549 11137 net.cpp:165] Memory required for data: 1048566916
I0312 00:20:51.928555 11137 layer_factory.hpp:77] Creating layer inception_4c/5x5
I0312 00:20:51.928571 11137 net.cpp:106] Creating Layer inception_4c/5x5
I0312 00:20:51.928578 11137 net.cpp:454] inception_4c/5x5 <- inception_4c/5x5_reduce
I0312 00:20:51.928591 11137 net.cpp:411] inception_4c/5x5 -> inception_4c/5x5
I0312 00:20:51.930441 11137 net.cpp:150] Setting up inception_4c/5x5
I0312 00:20:51.930459 11137 net.cpp:157] Top shape: 24 64 14 14 (301056)
I0312 00:20:51.930466 11137 net.cpp:165] Memory required for data: 1049771140
I0312 00:20:51.930477 11137 layer_factory.hpp:77] Creating layer inception_4c/relu_5x5
I0312 00:20:51.930490 11137 net.cpp:106] Creating Layer inception_4c/relu_5x5
I0312 00:20:51.930502 11137 net.cpp:454] inception_4c/relu_5x5 <- inception_4c/5x5
I0312 00:20:51.930512 11137 net.cpp:397] inception_4c/relu_5x5 -> inception_4c/5x5 (in-place)
I0312 00:20:51.930799 11137 net.cpp:150] Setting up inception_4c/relu_5x5
I0312 00:20:51.930819 11137 net.cpp:157] Top shape: 24 64 14 14 (301056)
I0312 00:20:51.930826 11137 net.cpp:165] Memory required for data: 1050975364
I0312 00:20:51.930833 11137 layer_factory.hpp:77] Creating layer inception_4c/pool
I0312 00:20:51.930845 11137 net.cpp:106] Creating Layer inception_4c/pool
I0312 00:20:51.930852 11137 net.cpp:454] inception_4c/pool <- inception_4b/output_inception_4b/output_0_split_3
I0312 00:20:51.930866 11137 net.cpp:411] inception_4c/pool -> inception_4c/pool
I0312 00:20:51.930934 11137 net.cpp:150] Setting up inception_4c/pool
I0312 00:20:51.930949 11137 net.cpp:157] Top shape: 24 512 14 14 (2408448)
I0312 00:20:51.930955 11137 net.cpp:165] Memory required for data: 1060609156
I0312 00:20:51.930963 11137 layer_factory.hpp:77] Creating layer inception_4c/pool_proj
I0312 00:20:51.930977 11137 net.cpp:106] Creating Layer inception_4c/pool_proj
I0312 00:20:51.930985 11137 net.cpp:454] inception_4c/pool_proj <- inception_4c/pool
I0312 00:20:51.930995 11137 net.cpp:411] inception_4c/pool_proj -> inception_4c/pool_proj
I0312 00:20:51.932165 11137 net.cpp:150] Setting up inception_4c/pool_proj
I0312 00:20:51.932184 11137 net.cpp:157] Top shape: 24 64 14 14 (301056)
I0312 00:20:51.932191 11137 net.cpp:165] Memory required for data: 1061813380
I0312 00:20:51.932202 11137 layer_factory.hpp:77] Creating layer inception_4c/relu_pool_proj
I0312 00:20:51.932212 11137 net.cpp:106] Creating Layer inception_4c/relu_pool_proj
I0312 00:20:51.932219 11137 net.cpp:454] inception_4c/relu_pool_proj <- inception_4c/pool_proj
I0312 00:20:51.932229 11137 net.cpp:397] inception_4c/relu_pool_proj -> inception_4c/pool_proj (in-place)
I0312 00:20:51.932509 11137 net.cpp:150] Setting up inception_4c/relu_pool_proj
I0312 00:20:51.932538 11137 net.cpp:157] Top shape: 24 64 14 14 (301056)
I0312 00:20:51.932544 11137 net.cpp:165] Memory required for data: 1063017604
I0312 00:20:51.932551 11137 layer_factory.hpp:77] Creating layer inception_4c/output
I0312 00:20:51.932561 11137 net.cpp:106] Creating Layer inception_4c/output
I0312 00:20:51.932569 11137 net.cpp:454] inception_4c/output <- inception_4c/1x1
I0312 00:20:51.932579 11137 net.cpp:454] inception_4c/output <- inception_4c/3x3
I0312 00:20:51.932588 11137 net.cpp:454] inception_4c/output <- inception_4c/5x5
I0312 00:20:51.932595 11137 net.cpp:454] inception_4c/output <- inception_4c/pool_proj
I0312 00:20:51.932608 11137 net.cpp:411] inception_4c/output -> inception_4c/output
I0312 00:20:51.932654 11137 net.cpp:150] Setting up inception_4c/output
I0312 00:20:51.932667 11137 net.cpp:157] Top shape: 24 512 14 14 (2408448)
I0312 00:20:51.932672 11137 net.cpp:165] Memory required for data: 1072651396
I0312 00:20:51.932679 11137 layer_factory.hpp:77] Creating layer inception_4c/output_inception_4c/output_0_split
I0312 00:20:51.932690 11137 net.cpp:106] Creating Layer inception_4c/output_inception_4c/output_0_split
I0312 00:20:51.932698 11137 net.cpp:454] inception_4c/output_inception_4c/output_0_split <- inception_4c/output
I0312 00:20:51.932708 11137 net.cpp:411] inception_4c/output_inception_4c/output_0_split -> inception_4c/output_inception_4c/output_0_split_0
I0312 00:20:51.932720 11137 net.cpp:411] inception_4c/output_inception_4c/output_0_split -> inception_4c/output_inception_4c/output_0_split_1
I0312 00:20:51.932731 11137 net.cpp:411] inception_4c/output_inception_4c/output_0_split -> inception_4c/output_inception_4c/output_0_split_2
I0312 00:20:51.932741 11137 net.cpp:411] inception_4c/output_inception_4c/output_0_split -> inception_4c/output_inception_4c/output_0_split_3
I0312 00:20:51.932826 11137 net.cpp:150] Setting up inception_4c/output_inception_4c/output_0_split
I0312 00:20:51.932837 11137 net.cpp:157] Top shape: 24 512 14 14 (2408448)
I0312 00:20:51.932845 11137 net.cpp:157] Top shape: 24 512 14 14 (2408448)
I0312 00:20:51.932852 11137 net.cpp:157] Top shape: 24 512 14 14 (2408448)
I0312 00:20:51.932859 11137 net.cpp:157] Top shape: 24 512 14 14 (2408448)
I0312 00:20:51.932867 11137 net.cpp:165] Memory required for data: 1111186564
I0312 00:20:51.932873 11137 layer_factory.hpp:77] Creating layer inception_4d/1x1
I0312 00:20:51.932889 11137 net.cpp:106] Creating Layer inception_4d/1x1
I0312 00:20:51.932898 11137 net.cpp:454] inception_4d/1x1 <- inception_4c/output_inception_4c/output_0_split_0
I0312 00:20:51.932909 11137 net.cpp:411] inception_4d/1x1 -> inception_4d/1x1
I0312 00:20:51.934389 11137 net.cpp:150] Setting up inception_4d/1x1
I0312 00:20:51.934406 11137 net.cpp:157] Top shape: 24 112 14 14 (526848)
I0312 00:20:51.934413 11137 net.cpp:165] Memory required for data: 1113293956
I0312 00:20:51.934425 11137 layer_factory.hpp:77] Creating layer inception_4d/relu_1x1
I0312 00:20:51.934434 11137 net.cpp:106] Creating Layer inception_4d/relu_1x1
I0312 00:20:51.934442 11137 net.cpp:454] inception_4d/relu_1x1 <- inception_4d/1x1
I0312 00:20:51.934454 11137 net.cpp:397] inception_4d/relu_1x1 -> inception_4d/1x1 (in-place)
I0312 00:20:51.934631 11137 net.cpp:150] Setting up inception_4d/relu_1x1
I0312 00:20:51.934653 11137 net.cpp:157] Top shape: 24 112 14 14 (526848)
I0312 00:20:51.934664 11137 net.cpp:165] Memory required for data: 1115401348
I0312 00:20:51.934675 11137 layer_factory.hpp:77] Creating layer inception_4d/3x3_reduce
I0312 00:20:51.934692 11137 net.cpp:106] Creating Layer inception_4d/3x3_reduce
I0312 00:20:51.934700 11137 net.cpp:454] inception_4d/3x3_reduce <- inception_4c/output_inception_4c/output_0_split_1
I0312 00:20:51.934731 11137 net.cpp:411] inception_4d/3x3_reduce -> inception_4d/3x3_reduce
I0312 00:20:51.936391 11137 net.cpp:150] Setting up inception_4d/3x3_reduce
I0312 00:20:51.936409 11137 net.cpp:157] Top shape: 24 144 14 14 (677376)
I0312 00:20:51.936424 11137 net.cpp:165] Memory required for data: 1118110852
I0312 00:20:51.936444 11137 layer_factory.hpp:77] Creating layer inception_4d/relu_3x3_reduce
I0312 00:20:51.936457 11137 net.cpp:106] Creating Layer inception_4d/relu_3x3_reduce
I0312 00:20:51.936465 11137 net.cpp:454] inception_4d/relu_3x3_reduce <- inception_4d/3x3_reduce
I0312 00:20:51.936475 11137 net.cpp:397] inception_4d/relu_3x3_reduce -> inception_4d/3x3_reduce (in-place)
I0312 00:20:51.936746 11137 net.cpp:150] Setting up inception_4d/relu_3x3_reduce
I0312 00:20:51.936763 11137 net.cpp:157] Top shape: 24 144 14 14 (677376)
I0312 00:20:51.936769 11137 net.cpp:165] Memory required for data: 1120820356
I0312 00:20:51.936776 11137 layer_factory.hpp:77] Creating layer inception_4d/3x3
I0312 00:20:51.936792 11137 net.cpp:106] Creating Layer inception_4d/3x3
I0312 00:20:51.936800 11137 net.cpp:454] inception_4d/3x3 <- inception_4d/3x3_reduce
I0312 00:20:51.936816 11137 net.cpp:411] inception_4d/3x3 -> inception_4d/3x3
I0312 00:20:51.941330 11137 net.cpp:150] Setting up inception_4d/3x3
I0312 00:20:51.941352 11137 net.cpp:157] Top shape: 24 288 14 14 (1354752)
I0312 00:20:51.941359 11137 net.cpp:165] Memory required for data: 1126239364
I0312 00:20:51.941370 11137 layer_factory.hpp:77] Creating layer inception_4d/relu_3x3
I0312 00:20:51.941380 11137 net.cpp:106] Creating Layer inception_4d/relu_3x3
I0312 00:20:51.941387 11137 net.cpp:454] inception_4d/relu_3x3 <- inception_4d/3x3
I0312 00:20:51.941403 11137 net.cpp:397] inception_4d/relu_3x3 -> inception_4d/3x3 (in-place)
I0312 00:20:51.941679 11137 net.cpp:150] Setting up inception_4d/relu_3x3
I0312 00:20:51.941694 11137 net.cpp:157] Top shape: 24 288 14 14 (1354752)
I0312 00:20:51.941701 11137 net.cpp:165] Memory required for data: 1131658372
I0312 00:20:51.941709 11137 layer_factory.hpp:77] Creating layer inception_4d/5x5_reduce
I0312 00:20:51.941725 11137 net.cpp:106] Creating Layer inception_4d/5x5_reduce
I0312 00:20:51.941735 11137 net.cpp:454] inception_4d/5x5_reduce <- inception_4c/output_inception_4c/output_0_split_2
I0312 00:20:51.941745 11137 net.cpp:411] inception_4d/5x5_reduce -> inception_4d/5x5_reduce
I0312 00:20:51.942972 11137 net.cpp:150] Setting up inception_4d/5x5_reduce
I0312 00:20:51.942991 11137 net.cpp:157] Top shape: 24 32 14 14 (150528)
I0312 00:20:51.942997 11137 net.cpp:165] Memory required for data: 1132260484
I0312 00:20:51.943007 11137 layer_factory.hpp:77] Creating layer inception_4d/relu_5x5_reduce
I0312 00:20:51.943020 11137 net.cpp:106] Creating Layer inception_4d/relu_5x5_reduce
I0312 00:20:51.943028 11137 net.cpp:454] inception_4d/relu_5x5_reduce <- inception_4d/5x5_reduce
I0312 00:20:51.943037 11137 net.cpp:397] inception_4d/relu_5x5_reduce -> inception_4d/5x5_reduce (in-place)
I0312 00:20:51.943213 11137 net.cpp:150] Setting up inception_4d/relu_5x5_reduce
I0312 00:20:51.943228 11137 net.cpp:157] Top shape: 24 32 14 14 (150528)
I0312 00:20:51.943235 11137 net.cpp:165] Memory required for data: 1132862596
I0312 00:20:51.943243 11137 layer_factory.hpp:77] Creating layer inception_4d/5x5
I0312 00:20:51.943260 11137 net.cpp:106] Creating Layer inception_4d/5x5
I0312 00:20:51.943269 11137 net.cpp:454] inception_4d/5x5 <- inception_4d/5x5_reduce
I0312 00:20:51.943279 11137 net.cpp:411] inception_4d/5x5 -> inception_4d/5x5
I0312 00:20:51.944888 11137 net.cpp:150] Setting up inception_4d/5x5
I0312 00:20:51.944906 11137 net.cpp:157] Top shape: 24 64 14 14 (301056)
I0312 00:20:51.944913 11137 net.cpp:165] Memory required for data: 1134066820
I0312 00:20:51.944924 11137 layer_factory.hpp:77] Creating layer inception_4d/relu_5x5
I0312 00:20:51.944936 11137 net.cpp:106] Creating Layer inception_4d/relu_5x5
I0312 00:20:51.944946 11137 net.cpp:454] inception_4d/relu_5x5 <- inception_4d/5x5
I0312 00:20:51.944954 11137 net.cpp:397] inception_4d/relu_5x5 -> inception_4d/5x5 (in-place)
I0312 00:20:51.945248 11137 net.cpp:150] Setting up inception_4d/relu_5x5
I0312 00:20:51.945266 11137 net.cpp:157] Top shape: 24 64 14 14 (301056)
I0312 00:20:51.945281 11137 net.cpp:165] Memory required for data: 1135271044
I0312 00:20:51.945288 11137 layer_factory.hpp:77] Creating layer inception_4d/pool
I0312 00:20:51.945312 11137 net.cpp:106] Creating Layer inception_4d/pool
I0312 00:20:51.945319 11137 net.cpp:454] inception_4d/pool <- inception_4c/output_inception_4c/output_0_split_3
I0312 00:20:51.945329 11137 net.cpp:411] inception_4d/pool -> inception_4d/pool
I0312 00:20:51.945399 11137 net.cpp:150] Setting up inception_4d/pool
I0312 00:20:51.945411 11137 net.cpp:157] Top shape: 24 512 14 14 (2408448)
I0312 00:20:51.945417 11137 net.cpp:165] Memory required for data: 1144904836
I0312 00:20:51.945425 11137 layer_factory.hpp:77] Creating layer inception_4d/pool_proj
I0312 00:20:51.945439 11137 net.cpp:106] Creating Layer inception_4d/pool_proj
I0312 00:20:51.945447 11137 net.cpp:454] inception_4d/pool_proj <- inception_4d/pool
I0312 00:20:51.945459 11137 net.cpp:411] inception_4d/pool_proj -> inception_4d/pool_proj
I0312 00:20:51.946668 11137 net.cpp:150] Setting up inception_4d/pool_proj
I0312 00:20:51.946686 11137 net.cpp:157] Top shape: 24 64 14 14 (301056)
I0312 00:20:51.946692 11137 net.cpp:165] Memory required for data: 1146109060
I0312 00:20:51.946703 11137 layer_factory.hpp:77] Creating layer inception_4d/relu_pool_proj
I0312 00:20:51.946713 11137 net.cpp:106] Creating Layer inception_4d/relu_pool_proj
I0312 00:20:51.946722 11137 net.cpp:454] inception_4d/relu_pool_proj <- inception_4d/pool_proj
I0312 00:20:51.946733 11137 net.cpp:397] inception_4d/relu_pool_proj -> inception_4d/pool_proj (in-place)
I0312 00:20:51.947023 11137 net.cpp:150] Setting up inception_4d/relu_pool_proj
I0312 00:20:51.947041 11137 net.cpp:157] Top shape: 24 64 14 14 (301056)
I0312 00:20:51.947047 11137 net.cpp:165] Memory required for data: 1147313284
I0312 00:20:51.947054 11137 layer_factory.hpp:77] Creating layer inception_4d/output
I0312 00:20:51.947067 11137 net.cpp:106] Creating Layer inception_4d/output
I0312 00:20:51.947075 11137 net.cpp:454] inception_4d/output <- inception_4d/1x1
I0312 00:20:51.947083 11137 net.cpp:454] inception_4d/output <- inception_4d/3x3
I0312 00:20:51.947091 11137 net.cpp:454] inception_4d/output <- inception_4d/5x5
I0312 00:20:51.947098 11137 net.cpp:454] inception_4d/output <- inception_4d/pool_proj
I0312 00:20:51.947106 11137 net.cpp:411] inception_4d/output -> inception_4d/output
I0312 00:20:51.947154 11137 net.cpp:150] Setting up inception_4d/output
I0312 00:20:51.947167 11137 net.cpp:157] Top shape: 24 528 14 14 (2483712)
I0312 00:20:51.947173 11137 net.cpp:165] Memory required for data: 1157248132
I0312 00:20:51.947180 11137 layer_factory.hpp:77] Creating layer inception_4d/output_inception_4d/output_0_split
I0312 00:20:51.947190 11137 net.cpp:106] Creating Layer inception_4d/output_inception_4d/output_0_split
I0312 00:20:51.947197 11137 net.cpp:454] inception_4d/output_inception_4d/output_0_split <- inception_4d/output
I0312 00:20:51.947209 11137 net.cpp:411] inception_4d/output_inception_4d/output_0_split -> inception_4d/output_inception_4d/output_0_split_0
I0312 00:20:51.947221 11137 net.cpp:411] inception_4d/output_inception_4d/output_0_split -> inception_4d/output_inception_4d/output_0_split_1
I0312 00:20:51.947232 11137 net.cpp:411] inception_4d/output_inception_4d/output_0_split -> inception_4d/output_inception_4d/output_0_split_2
I0312 00:20:51.947242 11137 net.cpp:411] inception_4d/output_inception_4d/output_0_split -> inception_4d/output_inception_4d/output_0_split_3
I0312 00:20:51.947255 11137 net.cpp:411] inception_4d/output_inception_4d/output_0_split -> inception_4d/output_inception_4d/output_0_split_4
I0312 00:20:51.947366 11137 net.cpp:150] Setting up inception_4d/output_inception_4d/output_0_split
I0312 00:20:51.947379 11137 net.cpp:157] Top shape: 24 528 14 14 (2483712)
I0312 00:20:51.947387 11137 net.cpp:157] Top shape: 24 528 14 14 (2483712)
I0312 00:20:51.947396 11137 net.cpp:157] Top shape: 24 528 14 14 (2483712)
I0312 00:20:51.947402 11137 net.cpp:157] Top shape: 24 528 14 14 (2483712)
I0312 00:20:51.947409 11137 net.cpp:157] Top shape: 24 528 14 14 (2483712)
I0312 00:20:51.947422 11137 net.cpp:165] Memory required for data: 1206922372
I0312 00:20:51.947438 11137 layer_factory.hpp:77] Creating layer loss2/ave_pool
I0312 00:20:51.947448 11137 net.cpp:106] Creating Layer loss2/ave_pool
I0312 00:20:51.947454 11137 net.cpp:454] loss2/ave_pool <- inception_4d/output_inception_4d/output_0_split_0
I0312 00:20:51.947468 11137 net.cpp:411] loss2/ave_pool -> loss2/ave_pool
I0312 00:20:51.947674 11137 net.cpp:150] Setting up loss2/ave_pool
I0312 00:20:51.947690 11137 net.cpp:157] Top shape: 24 528 4 4 (202752)
I0312 00:20:51.947696 11137 net.cpp:165] Memory required for data: 1207733380
I0312 00:20:51.947702 11137 layer_factory.hpp:77] Creating layer loss2/conv
I0312 00:20:51.947718 11137 net.cpp:106] Creating Layer loss2/conv
I0312 00:20:51.947726 11137 net.cpp:454] loss2/conv <- loss2/ave_pool
I0312 00:20:51.947736 11137 net.cpp:411] loss2/conv -> loss2/conv
I0312 00:20:51.949856 11137 net.cpp:150] Setting up loss2/conv
I0312 00:20:51.949877 11137 net.cpp:157] Top shape: 24 128 4 4 (49152)
I0312 00:20:51.949884 11137 net.cpp:165] Memory required for data: 1207929988
I0312 00:20:51.949895 11137 layer_factory.hpp:77] Creating layer loss2/relu_conv
I0312 00:20:51.949910 11137 net.cpp:106] Creating Layer loss2/relu_conv
I0312 00:20:51.949919 11137 net.cpp:454] loss2/relu_conv <- loss2/conv
I0312 00:20:51.949928 11137 net.cpp:397] loss2/relu_conv -> loss2/conv (in-place)
I0312 00:20:51.950206 11137 net.cpp:150] Setting up loss2/relu_conv
I0312 00:20:51.950222 11137 net.cpp:157] Top shape: 24 128 4 4 (49152)
I0312 00:20:51.950229 11137 net.cpp:165] Memory required for data: 1208126596
I0312 00:20:51.950237 11137 layer_factory.hpp:77] Creating layer loss2/fc
I0312 00:20:51.950250 11137 net.cpp:106] Creating Layer loss2/fc
I0312 00:20:51.950263 11137 net.cpp:454] loss2/fc <- loss2/conv
I0312 00:20:51.950279 11137 net.cpp:411] loss2/fc -> loss2/fc
I0312 00:20:51.970098 11137 net.cpp:150] Setting up loss2/fc
I0312 00:20:51.970149 11137 net.cpp:157] Top shape: 24 1024 (24576)
I0312 00:20:51.970156 11137 net.cpp:165] Memory required for data: 1208224900
I0312 00:20:51.970171 11137 layer_factory.hpp:77] Creating layer loss2/relu_fc
I0312 00:20:51.970187 11137 net.cpp:106] Creating Layer loss2/relu_fc
I0312 00:20:51.970197 11137 net.cpp:454] loss2/relu_fc <- loss2/fc
I0312 00:20:51.970211 11137 net.cpp:397] loss2/relu_fc -> loss2/fc (in-place)
I0312 00:20:51.970451 11137 net.cpp:150] Setting up loss2/relu_fc
I0312 00:20:51.970468 11137 net.cpp:157] Top shape: 24 1024 (24576)
I0312 00:20:51.970479 11137 net.cpp:165] Memory required for data: 1208323204
I0312 00:20:51.970486 11137 layer_factory.hpp:77] Creating layer loss2/drop_fc
I0312 00:20:51.970501 11137 net.cpp:106] Creating Layer loss2/drop_fc
I0312 00:20:51.970509 11137 net.cpp:454] loss2/drop_fc <- loss2/fc
I0312 00:20:51.970517 11137 net.cpp:397] loss2/drop_fc -> loss2/fc (in-place)
I0312 00:20:51.970567 11137 net.cpp:150] Setting up loss2/drop_fc
I0312 00:20:51.970579 11137 net.cpp:157] Top shape: 24 1024 (24576)
I0312 00:20:51.970587 11137 net.cpp:165] Memory required for data: 1208421508
I0312 00:20:51.970592 11137 layer_factory.hpp:77] Creating layer myloss2/classifier
I0312 00:20:51.970607 11137 net.cpp:106] Creating Layer myloss2/classifier
I0312 00:20:51.970615 11137 net.cpp:454] myloss2/classifier <- loss2/fc
I0312 00:20:51.970625 11137 net.cpp:411] myloss2/classifier -> myloss2/classifier
I0312 00:20:51.973042 11137 net.cpp:150] Setting up myloss2/classifier
I0312 00:20:51.973062 11137 net.cpp:157] Top shape: 24 200 (4800)
I0312 00:20:51.973068 11137 net.cpp:165] Memory required for data: 1208440708
I0312 00:20:51.973079 11137 layer_factory.hpp:77] Creating layer loss2/loss
I0312 00:20:51.973091 11137 net.cpp:106] Creating Layer loss2/loss
I0312 00:20:51.973099 11137 net.cpp:454] loss2/loss <- myloss2/classifier
I0312 00:20:51.973108 11137 net.cpp:454] loss2/loss <- label_data_1_split_1
I0312 00:20:51.973116 11137 net.cpp:411] loss2/loss -> loss2/loss1
I0312 00:20:51.973130 11137 layer_factory.hpp:77] Creating layer loss2/loss
I0312 00:20:51.973595 11137 net.cpp:150] Setting up loss2/loss
I0312 00:20:51.973623 11137 net.cpp:157] Top shape: (1)
I0312 00:20:51.973634 11137 net.cpp:160]     with loss weight 0.3
I0312 00:20:51.973651 11137 net.cpp:165] Memory required for data: 1208440712
I0312 00:20:51.973659 11137 layer_factory.hpp:77] Creating layer inception_4e/1x1
I0312 00:20:51.973677 11137 net.cpp:106] Creating Layer inception_4e/1x1
I0312 00:20:51.973686 11137 net.cpp:454] inception_4e/1x1 <- inception_4d/output_inception_4d/output_0_split_1
I0312 00:20:51.973700 11137 net.cpp:411] inception_4e/1x1 -> inception_4e/1x1
I0312 00:20:51.975788 11137 net.cpp:150] Setting up inception_4e/1x1
I0312 00:20:51.975808 11137 net.cpp:157] Top shape: 24 256 14 14 (1204224)
I0312 00:20:51.975816 11137 net.cpp:165] Memory required for data: 1213257608
I0312 00:20:51.975826 11137 layer_factory.hpp:77] Creating layer inception_4e/relu_1x1
I0312 00:20:51.975841 11137 net.cpp:106] Creating Layer inception_4e/relu_1x1
I0312 00:20:51.975847 11137 net.cpp:454] inception_4e/relu_1x1 <- inception_4e/1x1
I0312 00:20:51.975857 11137 net.cpp:397] inception_4e/relu_1x1 -> inception_4e/1x1 (in-place)
I0312 00:20:51.976063 11137 net.cpp:150] Setting up inception_4e/relu_1x1
I0312 00:20:51.976078 11137 net.cpp:157] Top shape: 24 256 14 14 (1204224)
I0312 00:20:51.976084 11137 net.cpp:165] Memory required for data: 1218074504
I0312 00:20:51.976092 11137 layer_factory.hpp:77] Creating layer inception_4e/3x3_reduce
I0312 00:20:51.976107 11137 net.cpp:106] Creating Layer inception_4e/3x3_reduce
I0312 00:20:51.976115 11137 net.cpp:454] inception_4e/3x3_reduce <- inception_4d/output_inception_4d/output_0_split_2
I0312 00:20:51.976128 11137 net.cpp:411] inception_4e/3x3_reduce -> inception_4e/3x3_reduce
I0312 00:20:51.978369 11137 net.cpp:150] Setting up inception_4e/3x3_reduce
I0312 00:20:51.978389 11137 net.cpp:157] Top shape: 24 160 14 14 (752640)
I0312 00:20:51.978396 11137 net.cpp:165] Memory required for data: 1221085064
I0312 00:20:51.978407 11137 layer_factory.hpp:77] Creating layer inception_4e/relu_3x3_reduce
I0312 00:20:51.978417 11137 net.cpp:106] Creating Layer inception_4e/relu_3x3_reduce
I0312 00:20:51.978425 11137 net.cpp:454] inception_4e/relu_3x3_reduce <- inception_4e/3x3_reduce
I0312 00:20:51.978435 11137 net.cpp:397] inception_4e/relu_3x3_reduce -> inception_4e/3x3_reduce (in-place)
I0312 00:20:51.978718 11137 net.cpp:150] Setting up inception_4e/relu_3x3_reduce
I0312 00:20:51.978734 11137 net.cpp:157] Top shape: 24 160 14 14 (752640)
I0312 00:20:51.978754 11137 net.cpp:165] Memory required for data: 1224095624
I0312 00:20:51.978763 11137 layer_factory.hpp:77] Creating layer inception_4e/3x3
I0312 00:20:51.978785 11137 net.cpp:106] Creating Layer inception_4e/3x3
I0312 00:20:51.978792 11137 net.cpp:454] inception_4e/3x3 <- inception_4e/3x3_reduce
I0312 00:20:51.978803 11137 net.cpp:411] inception_4e/3x3 -> inception_4e/3x3
I0312 00:20:51.983922 11137 net.cpp:150] Setting up inception_4e/3x3
I0312 00:20:51.983960 11137 net.cpp:157] Top shape: 24 320 14 14 (1505280)
I0312 00:20:51.983968 11137 net.cpp:165] Memory required for data: 1230116744
I0312 00:20:51.983980 11137 layer_factory.hpp:77] Creating layer inception_4e/relu_3x3
I0312 00:20:51.983995 11137 net.cpp:106] Creating Layer inception_4e/relu_3x3
I0312 00:20:51.984005 11137 net.cpp:454] inception_4e/relu_3x3 <- inception_4e/3x3
I0312 00:20:51.984015 11137 net.cpp:397] inception_4e/relu_3x3 -> inception_4e/3x3 (in-place)
I0312 00:20:51.984302 11137 net.cpp:150] Setting up inception_4e/relu_3x3
I0312 00:20:51.984319 11137 net.cpp:157] Top shape: 24 320 14 14 (1505280)
I0312 00:20:51.984325 11137 net.cpp:165] Memory required for data: 1236137864
I0312 00:20:51.984333 11137 layer_factory.hpp:77] Creating layer inception_4e/5x5_reduce
I0312 00:20:51.984354 11137 net.cpp:106] Creating Layer inception_4e/5x5_reduce
I0312 00:20:51.984362 11137 net.cpp:454] inception_4e/5x5_reduce <- inception_4d/output_inception_4d/output_0_split_3
I0312 00:20:51.984376 11137 net.cpp:411] inception_4e/5x5_reduce -> inception_4e/5x5_reduce
I0312 00:20:51.985632 11137 net.cpp:150] Setting up inception_4e/5x5_reduce
I0312 00:20:51.985662 11137 net.cpp:157] Top shape: 24 32 14 14 (150528)
I0312 00:20:51.985669 11137 net.cpp:165] Memory required for data: 1236739976
I0312 00:20:51.985680 11137 layer_factory.hpp:77] Creating layer inception_4e/relu_5x5_reduce
I0312 00:20:51.985693 11137 net.cpp:106] Creating Layer inception_4e/relu_5x5_reduce
I0312 00:20:51.985702 11137 net.cpp:454] inception_4e/relu_5x5_reduce <- inception_4e/5x5_reduce
I0312 00:20:51.985712 11137 net.cpp:397] inception_4e/relu_5x5_reduce -> inception_4e/5x5_reduce (in-place)
I0312 00:20:51.985891 11137 net.cpp:150] Setting up inception_4e/relu_5x5_reduce
I0312 00:20:51.985906 11137 net.cpp:157] Top shape: 24 32 14 14 (150528)
I0312 00:20:51.985913 11137 net.cpp:165] Memory required for data: 1237342088
I0312 00:20:51.985919 11137 layer_factory.hpp:77] Creating layer inception_4e/5x5
I0312 00:20:51.985956 11137 net.cpp:106] Creating Layer inception_4e/5x5
I0312 00:20:51.985965 11137 net.cpp:454] inception_4e/5x5 <- inception_4e/5x5_reduce
I0312 00:20:51.985977 11137 net.cpp:411] inception_4e/5x5 -> inception_4e/5x5
I0312 00:20:51.988126 11137 net.cpp:150] Setting up inception_4e/5x5
I0312 00:20:51.988149 11137 net.cpp:157] Top shape: 24 128 14 14 (602112)
I0312 00:20:51.988157 11137 net.cpp:165] Memory required for data: 1239750536
I0312 00:20:51.988169 11137 layer_factory.hpp:77] Creating layer inception_4e/relu_5x5
I0312 00:20:51.988180 11137 net.cpp:106] Creating Layer inception_4e/relu_5x5
I0312 00:20:51.988188 11137 net.cpp:454] inception_4e/relu_5x5 <- inception_4e/5x5
I0312 00:20:51.988199 11137 net.cpp:397] inception_4e/relu_5x5 -> inception_4e/5x5 (in-place)
I0312 00:20:51.988484 11137 net.cpp:150] Setting up inception_4e/relu_5x5
I0312 00:20:51.988504 11137 net.cpp:157] Top shape: 24 128 14 14 (602112)
I0312 00:20:51.988510 11137 net.cpp:165] Memory required for data: 1242158984
I0312 00:20:51.988517 11137 layer_factory.hpp:77] Creating layer inception_4e/pool
I0312 00:20:51.988530 11137 net.cpp:106] Creating Layer inception_4e/pool
I0312 00:20:51.988538 11137 net.cpp:454] inception_4e/pool <- inception_4d/output_inception_4d/output_0_split_4
I0312 00:20:51.988548 11137 net.cpp:411] inception_4e/pool -> inception_4e/pool
I0312 00:20:51.988626 11137 net.cpp:150] Setting up inception_4e/pool
I0312 00:20:51.988642 11137 net.cpp:157] Top shape: 24 528 14 14 (2483712)
I0312 00:20:51.988649 11137 net.cpp:165] Memory required for data: 1252093832
I0312 00:20:51.988656 11137 layer_factory.hpp:77] Creating layer inception_4e/pool_proj
I0312 00:20:51.988672 11137 net.cpp:106] Creating Layer inception_4e/pool_proj
I0312 00:20:51.988680 11137 net.cpp:454] inception_4e/pool_proj <- inception_4e/pool
I0312 00:20:51.988692 11137 net.cpp:411] inception_4e/pool_proj -> inception_4e/pool_proj
I0312 00:20:51.990216 11137 net.cpp:150] Setting up inception_4e/pool_proj
I0312 00:20:51.990234 11137 net.cpp:157] Top shape: 24 128 14 14 (602112)
I0312 00:20:51.990242 11137 net.cpp:165] Memory required for data: 1254502280
I0312 00:20:51.990252 11137 layer_factory.hpp:77] Creating layer inception_4e/relu_pool_proj
I0312 00:20:51.990264 11137 net.cpp:106] Creating Layer inception_4e/relu_pool_proj
I0312 00:20:51.990273 11137 net.cpp:454] inception_4e/relu_pool_proj <- inception_4e/pool_proj
I0312 00:20:51.990288 11137 net.cpp:397] inception_4e/relu_pool_proj -> inception_4e/pool_proj (in-place)
I0312 00:20:51.990571 11137 net.cpp:150] Setting up inception_4e/relu_pool_proj
I0312 00:20:51.990587 11137 net.cpp:157] Top shape: 24 128 14 14 (602112)
I0312 00:20:51.990594 11137 net.cpp:165] Memory required for data: 1256910728
I0312 00:20:51.990602 11137 layer_factory.hpp:77] Creating layer inception_4e/output
I0312 00:20:51.990614 11137 net.cpp:106] Creating Layer inception_4e/output
I0312 00:20:51.990622 11137 net.cpp:454] inception_4e/output <- inception_4e/1x1
I0312 00:20:51.990630 11137 net.cpp:454] inception_4e/output <- inception_4e/3x3
I0312 00:20:51.990648 11137 net.cpp:454] inception_4e/output <- inception_4e/5x5
I0312 00:20:51.990655 11137 net.cpp:454] inception_4e/output <- inception_4e/pool_proj
I0312 00:20:51.990674 11137 net.cpp:411] inception_4e/output -> inception_4e/output
I0312 00:20:51.990727 11137 net.cpp:150] Setting up inception_4e/output
I0312 00:20:51.990759 11137 net.cpp:157] Top shape: 24 832 14 14 (3913728)
I0312 00:20:51.990768 11137 net.cpp:165] Memory required for data: 1272565640
I0312 00:20:51.990775 11137 layer_factory.hpp:77] Creating layer pool4/3x3_s2
I0312 00:20:51.990784 11137 net.cpp:106] Creating Layer pool4/3x3_s2
I0312 00:20:51.990792 11137 net.cpp:454] pool4/3x3_s2 <- inception_4e/output
I0312 00:20:51.990804 11137 net.cpp:411] pool4/3x3_s2 -> pool4/3x3_s2
I0312 00:20:51.990869 11137 net.cpp:150] Setting up pool4/3x3_s2
I0312 00:20:51.990883 11137 net.cpp:157] Top shape: 24 832 7 7 (978432)
I0312 00:20:51.990890 11137 net.cpp:165] Memory required for data: 1276479368
I0312 00:20:51.990896 11137 layer_factory.hpp:77] Creating layer pool4/3x3_s2_pool4/3x3_s2_0_split
I0312 00:20:51.990906 11137 net.cpp:106] Creating Layer pool4/3x3_s2_pool4/3x3_s2_0_split
I0312 00:20:51.990913 11137 net.cpp:454] pool4/3x3_s2_pool4/3x3_s2_0_split <- pool4/3x3_s2
I0312 00:20:51.990922 11137 net.cpp:411] pool4/3x3_s2_pool4/3x3_s2_0_split -> pool4/3x3_s2_pool4/3x3_s2_0_split_0
I0312 00:20:51.990932 11137 net.cpp:411] pool4/3x3_s2_pool4/3x3_s2_0_split -> pool4/3x3_s2_pool4/3x3_s2_0_split_1
I0312 00:20:51.990942 11137 net.cpp:411] pool4/3x3_s2_pool4/3x3_s2_0_split -> pool4/3x3_s2_pool4/3x3_s2_0_split_2
I0312 00:20:51.990954 11137 net.cpp:411] pool4/3x3_s2_pool4/3x3_s2_0_split -> pool4/3x3_s2_pool4/3x3_s2_0_split_3
I0312 00:20:51.991049 11137 net.cpp:150] Setting up pool4/3x3_s2_pool4/3x3_s2_0_split
I0312 00:20:51.991060 11137 net.cpp:157] Top shape: 24 832 7 7 (978432)
I0312 00:20:51.991068 11137 net.cpp:157] Top shape: 24 832 7 7 (978432)
I0312 00:20:51.991075 11137 net.cpp:157] Top shape: 24 832 7 7 (978432)
I0312 00:20:51.991082 11137 net.cpp:157] Top shape: 24 832 7 7 (978432)
I0312 00:20:51.991087 11137 net.cpp:165] Memory required for data: 1292134280
I0312 00:20:51.991094 11137 layer_factory.hpp:77] Creating layer inception_5a/1x1
I0312 00:20:51.991111 11137 net.cpp:106] Creating Layer inception_5a/1x1
I0312 00:20:51.991118 11137 net.cpp:454] inception_5a/1x1 <- pool4/3x3_s2_pool4/3x3_s2_0_split_0
I0312 00:20:51.991130 11137 net.cpp:411] inception_5a/1x1 -> inception_5a/1x1
I0312 00:20:51.994325 11137 net.cpp:150] Setting up inception_5a/1x1
I0312 00:20:51.994348 11137 net.cpp:157] Top shape: 24 256 7 7 (301056)
I0312 00:20:51.994354 11137 net.cpp:165] Memory required for data: 1293338504
I0312 00:20:51.994365 11137 layer_factory.hpp:77] Creating layer inception_5a/relu_1x1
I0312 00:20:51.994379 11137 net.cpp:106] Creating Layer inception_5a/relu_1x1
I0312 00:20:51.994387 11137 net.cpp:454] inception_5a/relu_1x1 <- inception_5a/1x1
I0312 00:20:51.994396 11137 net.cpp:397] inception_5a/relu_1x1 -> inception_5a/1x1 (in-place)
I0312 00:20:51.994575 11137 net.cpp:150] Setting up inception_5a/relu_1x1
I0312 00:20:51.994590 11137 net.cpp:157] Top shape: 24 256 7 7 (301056)
I0312 00:20:51.994597 11137 net.cpp:165] Memory required for data: 1294542728
I0312 00:20:51.994604 11137 layer_factory.hpp:77] Creating layer inception_5a/3x3_reduce
I0312 00:20:51.994619 11137 net.cpp:106] Creating Layer inception_5a/3x3_reduce
I0312 00:20:51.994628 11137 net.cpp:454] inception_5a/3x3_reduce <- pool4/3x3_s2_pool4/3x3_s2_0_split_1
I0312 00:20:51.994642 11137 net.cpp:411] inception_5a/3x3_reduce -> inception_5a/3x3_reduce
I0312 00:20:51.997436 11137 net.cpp:150] Setting up inception_5a/3x3_reduce
I0312 00:20:51.997457 11137 net.cpp:157] Top shape: 24 160 7 7 (188160)
I0312 00:20:51.997465 11137 net.cpp:165] Memory required for data: 1295295368
I0312 00:20:51.997476 11137 layer_factory.hpp:77] Creating layer inception_5a/relu_3x3_reduce
I0312 00:20:51.997490 11137 net.cpp:106] Creating Layer inception_5a/relu_3x3_reduce
I0312 00:20:51.997498 11137 net.cpp:454] inception_5a/relu_3x3_reduce <- inception_5a/3x3_reduce
I0312 00:20:51.997519 11137 net.cpp:397] inception_5a/relu_3x3_reduce -> inception_5a/3x3_reduce (in-place)
I0312 00:20:51.997818 11137 net.cpp:150] Setting up inception_5a/relu_3x3_reduce
I0312 00:20:51.997838 11137 net.cpp:157] Top shape: 24 160 7 7 (188160)
I0312 00:20:51.997846 11137 net.cpp:165] Memory required for data: 1296048008
I0312 00:20:51.997853 11137 layer_factory.hpp:77] Creating layer inception_5a/3x3
I0312 00:20:51.997870 11137 net.cpp:106] Creating Layer inception_5a/3x3
I0312 00:20:51.997879 11137 net.cpp:454] inception_5a/3x3 <- inception_5a/3x3_reduce
I0312 00:20:51.997891 11137 net.cpp:411] inception_5a/3x3 -> inception_5a/3x3
I0312 00:20:52.003590 11137 net.cpp:150] Setting up inception_5a/3x3
I0312 00:20:52.003624 11137 net.cpp:157] Top shape: 24 320 7 7 (376320)
I0312 00:20:52.003631 11137 net.cpp:165] Memory required for data: 1297553288
I0312 00:20:52.003646 11137 layer_factory.hpp:77] Creating layer inception_5a/relu_3x3
I0312 00:20:52.003659 11137 net.cpp:106] Creating Layer inception_5a/relu_3x3
I0312 00:20:52.003669 11137 net.cpp:454] inception_5a/relu_3x3 <- inception_5a/3x3
I0312 00:20:52.003679 11137 net.cpp:397] inception_5a/relu_3x3 -> inception_5a/3x3 (in-place)
I0312 00:20:52.003973 11137 net.cpp:150] Setting up inception_5a/relu_3x3
I0312 00:20:52.003988 11137 net.cpp:157] Top shape: 24 320 7 7 (376320)
I0312 00:20:52.003995 11137 net.cpp:165] Memory required for data: 1299058568
I0312 00:20:52.004003 11137 layer_factory.hpp:77] Creating layer inception_5a/5x5_reduce
I0312 00:20:52.004019 11137 net.cpp:106] Creating Layer inception_5a/5x5_reduce
I0312 00:20:52.004029 11137 net.cpp:454] inception_5a/5x5_reduce <- pool4/3x3_s2_pool4/3x3_s2_0_split_2
I0312 00:20:52.004041 11137 net.cpp:411] inception_5a/5x5_reduce -> inception_5a/5x5_reduce
I0312 00:20:52.005429 11137 net.cpp:150] Setting up inception_5a/5x5_reduce
I0312 00:20:52.005455 11137 net.cpp:157] Top shape: 24 32 7 7 (37632)
I0312 00:20:52.005463 11137 net.cpp:165] Memory required for data: 1299209096
I0312 00:20:52.005475 11137 layer_factory.hpp:77] Creating layer inception_5a/relu_5x5_reduce
I0312 00:20:52.005484 11137 net.cpp:106] Creating Layer inception_5a/relu_5x5_reduce
I0312 00:20:52.005492 11137 net.cpp:454] inception_5a/relu_5x5_reduce <- inception_5a/5x5_reduce
I0312 00:20:52.005501 11137 net.cpp:397] inception_5a/relu_5x5_reduce -> inception_5a/5x5_reduce (in-place)
I0312 00:20:52.005684 11137 net.cpp:150] Setting up inception_5a/relu_5x5_reduce
I0312 00:20:52.005699 11137 net.cpp:157] Top shape: 24 32 7 7 (37632)
I0312 00:20:52.005705 11137 net.cpp:165] Memory required for data: 1299359624
I0312 00:20:52.005712 11137 layer_factory.hpp:77] Creating layer inception_5a/5x5
I0312 00:20:52.005728 11137 net.cpp:106] Creating Layer inception_5a/5x5
I0312 00:20:52.005736 11137 net.cpp:454] inception_5a/5x5 <- inception_5a/5x5_reduce
I0312 00:20:52.005748 11137 net.cpp:411] inception_5a/5x5 -> inception_5a/5x5
I0312 00:20:52.007655 11137 net.cpp:150] Setting up inception_5a/5x5
I0312 00:20:52.007678 11137 net.cpp:157] Top shape: 24 128 7 7 (150528)
I0312 00:20:52.007685 11137 net.cpp:165] Memory required for data: 1299961736
I0312 00:20:52.007696 11137 layer_factory.hpp:77] Creating layer inception_5a/relu_5x5
I0312 00:20:52.007707 11137 net.cpp:106] Creating Layer inception_5a/relu_5x5
I0312 00:20:52.007714 11137 net.cpp:454] inception_5a/relu_5x5 <- inception_5a/5x5
I0312 00:20:52.007724 11137 net.cpp:397] inception_5a/relu_5x5 -> inception_5a/5x5 (in-place)
I0312 00:20:52.008052 11137 net.cpp:150] Setting up inception_5a/relu_5x5
I0312 00:20:52.008069 11137 net.cpp:157] Top shape: 24 128 7 7 (150528)
I0312 00:20:52.008076 11137 net.cpp:165] Memory required for data: 1300563848
I0312 00:20:52.008083 11137 layer_factory.hpp:77] Creating layer inception_5a/pool
I0312 00:20:52.008095 11137 net.cpp:106] Creating Layer inception_5a/pool
I0312 00:20:52.008102 11137 net.cpp:454] inception_5a/pool <- pool4/3x3_s2_pool4/3x3_s2_0_split_3
I0312 00:20:52.008115 11137 net.cpp:411] inception_5a/pool -> inception_5a/pool
I0312 00:20:52.008200 11137 net.cpp:150] Setting up inception_5a/pool
I0312 00:20:52.008224 11137 net.cpp:157] Top shape: 24 832 7 7 (978432)
I0312 00:20:52.008231 11137 net.cpp:165] Memory required for data: 1304477576
I0312 00:20:52.008237 11137 layer_factory.hpp:77] Creating layer inception_5a/pool_proj
I0312 00:20:52.008252 11137 net.cpp:106] Creating Layer inception_5a/pool_proj
I0312 00:20:52.008260 11137 net.cpp:454] inception_5a/pool_proj <- inception_5a/pool
I0312 00:20:52.008271 11137 net.cpp:411] inception_5a/pool_proj -> inception_5a/pool_proj
I0312 00:20:52.010689 11137 net.cpp:150] Setting up inception_5a/pool_proj
I0312 00:20:52.010710 11137 net.cpp:157] Top shape: 24 128 7 7 (150528)
I0312 00:20:52.010718 11137 net.cpp:165] Memory required for data: 1305079688
I0312 00:20:52.010730 11137 layer_factory.hpp:77] Creating layer inception_5a/relu_pool_proj
I0312 00:20:52.010753 11137 net.cpp:106] Creating Layer inception_5a/relu_pool_proj
I0312 00:20:52.010766 11137 net.cpp:454] inception_5a/relu_pool_proj <- inception_5a/pool_proj
I0312 00:20:52.010778 11137 net.cpp:397] inception_5a/relu_pool_proj -> inception_5a/pool_proj (in-place)
I0312 00:20:52.011070 11137 net.cpp:150] Setting up inception_5a/relu_pool_proj
I0312 00:20:52.011086 11137 net.cpp:157] Top shape: 24 128 7 7 (150528)
I0312 00:20:52.011093 11137 net.cpp:165] Memory required for data: 1305681800
I0312 00:20:52.011101 11137 layer_factory.hpp:77] Creating layer inception_5a/output
I0312 00:20:52.011111 11137 net.cpp:106] Creating Layer inception_5a/output
I0312 00:20:52.011118 11137 net.cpp:454] inception_5a/output <- inception_5a/1x1
I0312 00:20:52.011126 11137 net.cpp:454] inception_5a/output <- inception_5a/3x3
I0312 00:20:52.011134 11137 net.cpp:454] inception_5a/output <- inception_5a/5x5
I0312 00:20:52.011142 11137 net.cpp:454] inception_5a/output <- inception_5a/pool_proj
I0312 00:20:52.011152 11137 net.cpp:411] inception_5a/output -> inception_5a/output
I0312 00:20:52.011199 11137 net.cpp:150] Setting up inception_5a/output
I0312 00:20:52.011212 11137 net.cpp:157] Top shape: 24 832 7 7 (978432)
I0312 00:20:52.011219 11137 net.cpp:165] Memory required for data: 1309595528
I0312 00:20:52.011224 11137 layer_factory.hpp:77] Creating layer inception_5a/output_inception_5a/output_0_split
I0312 00:20:52.011239 11137 net.cpp:106] Creating Layer inception_5a/output_inception_5a/output_0_split
I0312 00:20:52.011246 11137 net.cpp:454] inception_5a/output_inception_5a/output_0_split <- inception_5a/output
I0312 00:20:52.011255 11137 net.cpp:411] inception_5a/output_inception_5a/output_0_split -> inception_5a/output_inception_5a/output_0_split_0
I0312 00:20:52.011266 11137 net.cpp:411] inception_5a/output_inception_5a/output_0_split -> inception_5a/output_inception_5a/output_0_split_1
I0312 00:20:52.011281 11137 net.cpp:411] inception_5a/output_inception_5a/output_0_split -> inception_5a/output_inception_5a/output_0_split_2
I0312 00:20:52.011292 11137 net.cpp:411] inception_5a/output_inception_5a/output_0_split -> inception_5a/output_inception_5a/output_0_split_3
I0312 00:20:52.011392 11137 net.cpp:150] Setting up inception_5a/output_inception_5a/output_0_split
I0312 00:20:52.011406 11137 net.cpp:157] Top shape: 24 832 7 7 (978432)
I0312 00:20:52.011414 11137 net.cpp:157] Top shape: 24 832 7 7 (978432)
I0312 00:20:52.011421 11137 net.cpp:157] Top shape: 24 832 7 7 (978432)
I0312 00:20:52.011428 11137 net.cpp:157] Top shape: 24 832 7 7 (978432)
I0312 00:20:52.011435 11137 net.cpp:165] Memory required for data: 1325250440
I0312 00:20:52.011440 11137 layer_factory.hpp:77] Creating layer inception_5b/1x1
I0312 00:20:52.011456 11137 net.cpp:106] Creating Layer inception_5b/1x1
I0312 00:20:52.011464 11137 net.cpp:454] inception_5b/1x1 <- inception_5a/output_inception_5a/output_0_split_0
I0312 00:20:52.011476 11137 net.cpp:411] inception_5b/1x1 -> inception_5b/1x1
I0312 00:20:52.015856 11137 net.cpp:150] Setting up inception_5b/1x1
I0312 00:20:52.015882 11137 net.cpp:157] Top shape: 24 384 7 7 (451584)
I0312 00:20:52.015889 11137 net.cpp:165] Memory required for data: 1327056776
I0312 00:20:52.015909 11137 layer_factory.hpp:77] Creating layer inception_5b/relu_1x1
I0312 00:20:52.015938 11137 net.cpp:106] Creating Layer inception_5b/relu_1x1
I0312 00:20:52.015945 11137 net.cpp:454] inception_5b/relu_1x1 <- inception_5b/1x1
I0312 00:20:52.015955 11137 net.cpp:397] inception_5b/relu_1x1 -> inception_5b/1x1 (in-place)
I0312 00:20:52.016144 11137 net.cpp:150] Setting up inception_5b/relu_1x1
I0312 00:20:52.016166 11137 net.cpp:157] Top shape: 24 384 7 7 (451584)
I0312 00:20:52.016173 11137 net.cpp:165] Memory required for data: 1328863112
I0312 00:20:52.016180 11137 layer_factory.hpp:77] Creating layer inception_5b/3x3_reduce
I0312 00:20:52.016196 11137 net.cpp:106] Creating Layer inception_5b/3x3_reduce
I0312 00:20:52.016206 11137 net.cpp:454] inception_5b/3x3_reduce <- inception_5a/output_inception_5a/output_0_split_1
I0312 00:20:52.016216 11137 net.cpp:411] inception_5b/3x3_reduce -> inception_5b/3x3_reduce
I0312 00:20:52.019186 11137 net.cpp:150] Setting up inception_5b/3x3_reduce
I0312 00:20:52.019208 11137 net.cpp:157] Top shape: 24 192 7 7 (225792)
I0312 00:20:52.019215 11137 net.cpp:165] Memory required for data: 1329766280
I0312 00:20:52.019227 11137 layer_factory.hpp:77] Creating layer inception_5b/relu_3x3_reduce
I0312 00:20:52.019237 11137 net.cpp:106] Creating Layer inception_5b/relu_3x3_reduce
I0312 00:20:52.019244 11137 net.cpp:454] inception_5b/relu_3x3_reduce <- inception_5b/3x3_reduce
I0312 00:20:52.019258 11137 net.cpp:397] inception_5b/relu_3x3_reduce -> inception_5b/3x3_reduce (in-place)
I0312 00:20:52.019546 11137 net.cpp:150] Setting up inception_5b/relu_3x3_reduce
I0312 00:20:52.019563 11137 net.cpp:157] Top shape: 24 192 7 7 (225792)
I0312 00:20:52.019569 11137 net.cpp:165] Memory required for data: 1330669448
I0312 00:20:52.019577 11137 layer_factory.hpp:77] Creating layer inception_5b/3x3
I0312 00:20:52.019596 11137 net.cpp:106] Creating Layer inception_5b/3x3
I0312 00:20:52.019605 11137 net.cpp:454] inception_5b/3x3 <- inception_5b/3x3_reduce
I0312 00:20:52.019615 11137 net.cpp:411] inception_5b/3x3 -> inception_5b/3x3
I0312 00:20:52.026844 11137 net.cpp:150] Setting up inception_5b/3x3
I0312 00:20:52.026881 11137 net.cpp:157] Top shape: 24 384 7 7 (451584)
I0312 00:20:52.026890 11137 net.cpp:165] Memory required for data: 1332475784
I0312 00:20:52.026902 11137 layer_factory.hpp:77] Creating layer inception_5b/relu_3x3
I0312 00:20:52.026916 11137 net.cpp:106] Creating Layer inception_5b/relu_3x3
I0312 00:20:52.026926 11137 net.cpp:454] inception_5b/relu_3x3 <- inception_5b/3x3
I0312 00:20:52.026935 11137 net.cpp:397] inception_5b/relu_3x3 -> inception_5b/3x3 (in-place)
I0312 00:20:52.027262 11137 net.cpp:150] Setting up inception_5b/relu_3x3
I0312 00:20:52.027281 11137 net.cpp:157] Top shape: 24 384 7 7 (451584)
I0312 00:20:52.027287 11137 net.cpp:165] Memory required for data: 1334282120
I0312 00:20:52.027298 11137 layer_factory.hpp:77] Creating layer inception_5b/5x5_reduce
I0312 00:20:52.027323 11137 net.cpp:106] Creating Layer inception_5b/5x5_reduce
I0312 00:20:52.027331 11137 net.cpp:454] inception_5b/5x5_reduce <- inception_5a/output_inception_5a/output_0_split_2
I0312 00:20:52.027343 11137 net.cpp:411] inception_5b/5x5_reduce -> inception_5b/5x5_reduce
I0312 00:20:52.029438 11137 net.cpp:150] Setting up inception_5b/5x5_reduce
I0312 00:20:52.029458 11137 net.cpp:157] Top shape: 24 48 7 7 (56448)
I0312 00:20:52.029464 11137 net.cpp:165] Memory required for data: 1334507912
I0312 00:20:52.029476 11137 layer_factory.hpp:77] Creating layer inception_5b/relu_5x5_reduce
I0312 00:20:52.029487 11137 net.cpp:106] Creating Layer inception_5b/relu_5x5_reduce
I0312 00:20:52.029495 11137 net.cpp:454] inception_5b/relu_5x5_reduce <- inception_5b/5x5_reduce
I0312 00:20:52.029505 11137 net.cpp:397] inception_5b/relu_5x5_reduce -> inception_5b/5x5_reduce (in-place)
I0312 00:20:52.029705 11137 net.cpp:150] Setting up inception_5b/relu_5x5_reduce
I0312 00:20:52.029719 11137 net.cpp:157] Top shape: 24 48 7 7 (56448)
I0312 00:20:52.029726 11137 net.cpp:165] Memory required for data: 1334733704
I0312 00:20:52.029742 11137 layer_factory.hpp:77] Creating layer inception_5b/5x5
I0312 00:20:52.029769 11137 net.cpp:106] Creating Layer inception_5b/5x5
I0312 00:20:52.029778 11137 net.cpp:454] inception_5b/5x5 <- inception_5b/5x5_reduce
I0312 00:20:52.029789 11137 net.cpp:411] inception_5b/5x5 -> inception_5b/5x5
I0312 00:20:52.032152 11137 net.cpp:150] Setting up inception_5b/5x5
I0312 00:20:52.032171 11137 net.cpp:157] Top shape: 24 128 7 7 (150528)
I0312 00:20:52.032178 11137 net.cpp:165] Memory required for data: 1335335816
I0312 00:20:52.032189 11137 layer_factory.hpp:77] Creating layer inception_5b/relu_5x5
I0312 00:20:52.032199 11137 net.cpp:106] Creating Layer inception_5b/relu_5x5
I0312 00:20:52.032209 11137 net.cpp:454] inception_5b/relu_5x5 <- inception_5b/5x5
I0312 00:20:52.032218 11137 net.cpp:397] inception_5b/relu_5x5 -> inception_5b/5x5 (in-place)
I0312 00:20:52.032531 11137 net.cpp:150] Setting up inception_5b/relu_5x5
I0312 00:20:52.032547 11137 net.cpp:157] Top shape: 24 128 7 7 (150528)
I0312 00:20:52.032558 11137 net.cpp:165] Memory required for data: 1335937928
I0312 00:20:52.032567 11137 layer_factory.hpp:77] Creating layer inception_5b/pool
I0312 00:20:52.032578 11137 net.cpp:106] Creating Layer inception_5b/pool
I0312 00:20:52.032585 11137 net.cpp:454] inception_5b/pool <- inception_5a/output_inception_5a/output_0_split_3
I0312 00:20:52.032595 11137 net.cpp:411] inception_5b/pool -> inception_5b/pool
I0312 00:20:52.032670 11137 net.cpp:150] Setting up inception_5b/pool
I0312 00:20:52.032683 11137 net.cpp:157] Top shape: 24 832 7 7 (978432)
I0312 00:20:52.032690 11137 net.cpp:165] Memory required for data: 1339851656
I0312 00:20:52.032696 11137 layer_factory.hpp:77] Creating layer inception_5b/pool_proj
I0312 00:20:52.032711 11137 net.cpp:106] Creating Layer inception_5b/pool_proj
I0312 00:20:52.032721 11137 net.cpp:454] inception_5b/pool_proj <- inception_5b/pool
I0312 00:20:52.032730 11137 net.cpp:411] inception_5b/pool_proj -> inception_5b/pool_proj
I0312 00:20:52.035115 11137 net.cpp:150] Setting up inception_5b/pool_proj
I0312 00:20:52.035135 11137 net.cpp:157] Top shape: 24 128 7 7 (150528)
I0312 00:20:52.035141 11137 net.cpp:165] Memory required for data: 1340453768
I0312 00:20:52.035152 11137 layer_factory.hpp:77] Creating layer inception_5b/relu_pool_proj
I0312 00:20:52.035162 11137 net.cpp:106] Creating Layer inception_5b/relu_pool_proj
I0312 00:20:52.035171 11137 net.cpp:454] inception_5b/relu_pool_proj <- inception_5b/pool_proj
I0312 00:20:52.035179 11137 net.cpp:397] inception_5b/relu_pool_proj -> inception_5b/pool_proj (in-place)
I0312 00:20:52.035475 11137 net.cpp:150] Setting up inception_5b/relu_pool_proj
I0312 00:20:52.035492 11137 net.cpp:157] Top shape: 24 128 7 7 (150528)
I0312 00:20:52.035498 11137 net.cpp:165] Memory required for data: 1341055880
I0312 00:20:52.035506 11137 layer_factory.hpp:77] Creating layer inception_5b/output
I0312 00:20:52.035521 11137 net.cpp:106] Creating Layer inception_5b/output
I0312 00:20:52.035531 11137 net.cpp:454] inception_5b/output <- inception_5b/1x1
I0312 00:20:52.035539 11137 net.cpp:454] inception_5b/output <- inception_5b/3x3
I0312 00:20:52.035547 11137 net.cpp:454] inception_5b/output <- inception_5b/5x5
I0312 00:20:52.035554 11137 net.cpp:454] inception_5b/output <- inception_5b/pool_proj
I0312 00:20:52.035562 11137 net.cpp:411] inception_5b/output -> inception_5b/output
I0312 00:20:52.035615 11137 net.cpp:150] Setting up inception_5b/output
I0312 00:20:52.035627 11137 net.cpp:157] Top shape: 24 1024 7 7 (1204224)
I0312 00:20:52.035634 11137 net.cpp:165] Memory required for data: 1345872776
I0312 00:20:52.035641 11137 layer_factory.hpp:77] Creating layer pool5/7x7_s1
I0312 00:20:52.035650 11137 net.cpp:106] Creating Layer pool5/7x7_s1
I0312 00:20:52.035657 11137 net.cpp:454] pool5/7x7_s1 <- inception_5b/output
I0312 00:20:52.035670 11137 net.cpp:411] pool5/7x7_s1 -> pool5/7x7_s1
I0312 00:20:52.035886 11137 net.cpp:150] Setting up pool5/7x7_s1
I0312 00:20:52.035903 11137 net.cpp:157] Top shape: 24 1024 1 1 (24576)
I0312 00:20:52.035917 11137 net.cpp:165] Memory required for data: 1345971080
I0312 00:20:52.035931 11137 layer_factory.hpp:77] Creating layer pool5/drop_7x7_s1
I0312 00:20:52.035943 11137 net.cpp:106] Creating Layer pool5/drop_7x7_s1
I0312 00:20:52.035951 11137 net.cpp:454] pool5/drop_7x7_s1 <- pool5/7x7_s1
I0312 00:20:52.035964 11137 net.cpp:397] pool5/drop_7x7_s1 -> pool5/7x7_s1 (in-place)
I0312 00:20:52.036008 11137 net.cpp:150] Setting up pool5/drop_7x7_s1
I0312 00:20:52.036021 11137 net.cpp:157] Top shape: 24 1024 1 1 (24576)
I0312 00:20:52.036027 11137 net.cpp:165] Memory required for data: 1346069384
I0312 00:20:52.036033 11137 layer_factory.hpp:77] Creating layer myloss3/classifier
I0312 00:20:52.036048 11137 net.cpp:106] Creating Layer myloss3/classifier
I0312 00:20:52.036056 11137 net.cpp:454] myloss3/classifier <- pool5/7x7_s1
I0312 00:20:52.036068 11137 net.cpp:411] myloss3/classifier -> myloss3/classifier
I0312 00:20:52.038193 11137 net.cpp:150] Setting up myloss3/classifier
I0312 00:20:52.038209 11137 net.cpp:157] Top shape: 24 200 (4800)
I0312 00:20:52.038216 11137 net.cpp:165] Memory required for data: 1346088584
I0312 00:20:52.038228 11137 layer_factory.hpp:77] Creating layer loss3/loss3
I0312 00:20:52.038239 11137 net.cpp:106] Creating Layer loss3/loss3
I0312 00:20:52.038246 11137 net.cpp:454] loss3/loss3 <- myloss3/classifier
I0312 00:20:52.038257 11137 net.cpp:454] loss3/loss3 <- label_data_1_split_2
I0312 00:20:52.038267 11137 net.cpp:411] loss3/loss3 -> loss3/loss3
…
I0312 00:20:52.044970 11137 net.cpp:322] The NetState phase (1) differed from the phase (0) specified by a rule in layer data
I0312 00:20:52.046195 11137 net.cpp:49] Initializing net from parameters: 
name: "GoogleNet"
state {
  phase: TEST
}
layer {
  name: "data"
  type: "Data"
  top: "data"
  top: "label"
  include {
    phase: TEST
  }
  transform_param {
    mirror: false
    crop_size: 224
    mean_value: 104
    mean_value: 117
    mean_value: 123
  }
  data_param {
    source: "/data/ilsvrc12_val_lmdb"
    batch_size: 50
    backend: LMDB
  }
}
layer {
  name: "conv1/7x7_s2"
  type: "Convolution"
  bottom: "data"
  top: "conv1/7x7_s2"
  param {
    lr_mult: 1
    decay_mult: 1
  }
  param {
    lr_mult: 2
    decay_mult: 0
  }
  convolution_param {
    num_output: 64
    pad: 3
    kernel_size: 7
    stride: 2
    weight_filler {
      type: "xavier"
    }
    bias_filler {
      type: "constant"
      value: 0.2
    }
  }
}
layer {
  name: "conv1/relu_7x7"
  type: "ReLU"
  bottom: "conv1/7x7_s2"
  top: "conv1/7x7_s2"
}
layer {
  name: "pool1/3x3_s2"
  type: "Pooling"
  bottom: "conv1/7x7_s2"
  top: "pool1/3x3_s2"
  pooling_param {
    pool: MAX
    kernel_size: 3
    stride: 2
  }
}
layer {
  name: "pool1/norm1"
  type: "LRN"
  bottom: "pool1/3x3_s2"
  top: "pool1/norm1"
  lrn_param {
    local_size: 5
    alpha: 0.0001
    beta: 0.75
  }
}
layer {
  name: "conv2/3x3_reduce"
  type: "Convolution"
  bottom: "pool1/norm1"
  top: "conv2/3x3_reduce"
  param {
    lr_mult: 1
    decay_mult: 1
  }
  param {
    lr_mult: 2
    decay_mult: 0
  }
  convolution_param {
    num_output: 64
    kernel_size: 1
    weight_filler {
      type: "xavier"
    }
    bias_filler {
      type: "constant"
      value: 0.2
    }
  }
}
layer {
  name: "conv2/relu_3x3_reduce"
  type: "ReLU"
  bottom: "conv2/3x3_reduce"
  top: "conv2/3x3_reduce"
}
layer {
  name: "conv2/3x3"
  type: "Convolution"
  bottom: "conv2/3x3_reduce"
  top: "conv2/3x3"
  param {
    lr_mult: 1
    decay_mult: 1
  }
  param {
    lr_mult: 2
    decay_mult: 0
  }
  convolution_param {
    num_output: 192
    pad: 1
    kernel_size: 3
    weight_filler {
      type: "xavier"
    }
    bias_filler {
      type: "constant"
      value: 0.2
    }
  }
}
layer {
  name: "conv2/relu_3x3"
  type: "ReLU"
  bottom: "conv2/3x3"
  top: "conv2/3x3"
}
layer {
  name: "conv2/norm2"
  type: "LRN"
  bottom: "conv2/3x3"
  top: "conv2/norm2"
  lrn_param {
    local_size: 5
    alpha: 0.0001
    beta: 0.75
  }
}
layer {
  name: "pool2/3x3_s2"
  type: "Pooling"
  bottom: "conv2/norm2"
  top: "pool2/3x3_s2"
  pooling_param {
    pool: MAX
    kernel_size: 3
    stride: 2
  }
}
layer {
  name: "inception_3a/1x1"
  type: "Convolution"
  bottom: "pool2/3x3_s2"
  top: "inception_3a/1x1"
  param {
    lr_mult: 1
    decay_mult: 1
  }
  param {
    lr_mult: 2
    decay_mult: 0
  }
  convolution_param {
    num_output: 64
    kernel_size: 1
    weight_filler {
      type: "xavier"
    }
    bias_filler {
      type: "constant"
      value: 0.2
    }
  }
}
layer {
  name: "inception_3a/relu_1x1"
  type: "ReLU"
  bottom: "inception_3a/1x1"
  top: "inception_3a/1x1"
}
layer {
  name: "inception_3a/3x3_reduce"
  type: "Convolution"
  bottom: "pool2/3x3_s2"
  top: "inception_3a/3x3_reduce"
  param {
    lr_mult: 1
    decay_mult: 1
  }
  param {
    lr_mult: 2
    decay_mult: 0
  }
  convolution_param {
    num_output: 96
    kernel_size: 1
    weight_filler {
      type: "xavier"
    }
    bias_filler {
      type: "constant"
      value: 0.2
    }
  }
}
layer {
  name: "inception_3a/relu_3x3_reduce"
  type: "ReLU"
  bottom: "inception_3a/3x3_reduce"
  top: "inception_3a/3x3_reduce"
}
layer {
  name: "inception_3a/3x3"
  type: "Convolution"
  bottom: "inception_3a/3x3_reduce"
  top: "inception_3a/3x3"
  param {
    lr_mult: 1
    decay_mult: 1
  }
  param {
    lr_mult: 2
    decay_mult: 0
  }
  convolution_param {
    num_output: 128
    pad: 1
    kernel_size: 3
    weight_filler {
      type: "xavier"
    }
    bias_filler {
      type: "constant"
      value: 0.2
    }
  }
}
layer {
  name: "inception_3a/relu_3x3"
  type: "ReLU"
  bottom: "inception_3a/3x3"
  top: "inception_3a/3x3"
}
layer {
  name: "inception_3a/5x5_reduce"
  type: "Convolution"
  bottom: "pool2/3x3_s2"
  top: "inception_3a/5x5_reduce"
  param {
    lr_mult: 1
    decay_mult: 1
  }
  param {
    lr_mult: 2
    decay_mult: 0
  }
  convolution_param {
    num_output: 16
    kernel_size: 1
    weight_filler {
      type: "xavier"
    }
    bias_filler {
      type: "constant"
      value: 0.2
    }
  }
}
layer {
  name: "inception_3a/relu_5x5_reduce"
  type: "ReLU"
  bottom: "inception_3a/5x5_reduce"
  top: "inception_3a/5x5_reduce"
}
layer {
  name: "inception_3a/5x5"
  type: "Convolution"
  bottom: "inception_3a/5x5_reduce"
  top: "inception_3a/5x5"
  param {
    lr_mult: 1
    decay_mult: 1
  }
  param {
    lr_mult: 2
    decay_mult: 0
  }
  convolution_param {
    num_output: 32
    pad: 2
    kernel_size: 5
    weight_filler {
      type: "xavier"
    }
    bias_filler {
      type: "constant"
      value: 0.2
    }
  }
}
layer {
  name: "inception_3a/relu_5x5"
  type: "ReLU"
  bottom: "inception_3a/5x5"
  top: "inception_3a/5x5"
}
layer {
  name: "inception_3a/pool"
  type: "Pooling"
  bottom: "pool2/3x3_s2"
  top: "inception_3a/pool"
  pooling_param {
    pool: MAX
    kernel_size: 3
    stride: 1
    pad: 1
  }
}
layer {
  name: "inception_3a/pool_proj"
  type: "Convolution"
  bottom: "inception_3a/pool"
  top: "inception_3a/pool_proj"
  param {
    lr_mult: 1
    decay_mult: 1
  }
  param {
    lr_mult: 2
    decay_mult: 0
  }
  convolution_param {
    num_output: 32
    kernel_size: 1
    weight_filler {
      type: "xavier"
    }
    bias_filler {
      type: "constant"
      value: 0.2
    }
  }
}
layer {
  name: "inception_3a/relu_pool_proj"
  type: "ReLU"
  bottom: "inception_3a/pool_proj"
  top: "inception_3a/pool_proj"
}
layer {
  name: "inception_3a/output"
  type: "Concat"
  bottom: "inception_3a/1x1"
  bottom: "inception_3a/3x3"
  bottom: "inception_3a/5x5"
  bottom: "inception_3a/pool_proj"
  top: "inception_3a/output"
}
layer {
  name: "inception_3b/1x1"
  type: "Convolution"
  bottom: "inception_3a/output"
  top: "inception_3b/1x1"
  param {
    lr_mult: 1
    decay_mult: 1
  }
  param {
    lr_mult: 2
    decay_mult: 0
  }
  convolution_param {
    num_output: 128
    kernel_size: 1
    weight_filler {
      type: "xavier"
    }
    bias_filler {
      type: "constant"
      value: 0.2
    }
  }
}
layer {
  name: "inception_3b/relu_1x1"
  type: "ReLU"
  bottom: "inception_3b/1x1"
  top: "inception_3b/1x1"
}
layer {
  name: "inception_3b/3x3_reduce"
  type: "Convolution"
  bottom: "inception_3a/output"
  top: "inception_3b/3x3_reduce"
  param {
    lr_mult: 1
    decay_mult: 1
  }
  param {
    lr_mult: 2
    decay_mult: 0
  }
  convolution_param {
    num_output: 128
    kernel_size: 1
    weight_filler {
      type: "xavier"
    }
    bias_filler {
      type: "constant"
      value: 0.2
    }
  }
}
layer {
  name: "inception_3b/relu_3x3_reduce"
  type: "ReLU"
  bottom: "inception_3b/3x3_reduce"
  top: "inception_3b/3x3_reduce"
}
layer {
  name: "inception_3b/3x3"
  type: "Convolution"
  bottom: "inception_3b/3x3_reduce"
  top: "inception_3b/3x3"
  param {
    lr_mult: 1
    decay_mult: 1
  }
  param {
    lr_mult: 2
    decay_mult: 0
  }
  convolution_param {
    num_output: 192
    pad: 1
    kernel_size: 3
    weight_filler {
      type: "xavier"
    }
    bias_filler {
      type: "constant"
      value: 0.2
    }
  }
}
layer {
  name: "inception_3b/relu_3x3"
  type: "ReLU"
  bottom: "inception_3b/3x3"
  top: "inception_3b/3x3"
}
layer {
  name: "inception_3b/5x5_reduce"
  type: "Convolution"
  bottom: "inception_3a/output"
  top: "inception_3b/5x5_reduce"
  param {
    lr_mult: 1
    decay_mult: 1
  }
  param {
    lr_mult: 2
    decay_mult: 0
  }
  convolution_param {
    num_output: 32
    kernel_size: 1
    weight_filler {
      type: "xavier"
    }
    bias_filler {
      type: "constant"
      value: 0.2
    }
  }
}
layer {
  name: "inception_3b/relu_5x5_reduce"
  type: "ReLU"
  bottom: "inception_3b/5x5_reduce"
  top: "inception_3b/5x5_reduce"
}
layer {
  name: "inception_3b/5x5"
  type: "Convolution"
  bottom: "inception_3b/5x5_reduce"
  top: "inception_3b/5x5"
  param {
    lr_mult: 1
    decay_mult: 1
  }
  param {
    lr_mult: 2
    decay_mult: 0
  }
  convolution_param {
    num_output: 96
    pad: 2
    kernel_size: 5
    weight_filler {
      type: "xavier"
    }
    bias_filler {
      type: "constant"
      value: 0.2
    }
  }
}
layer {
  name: "inception_3b/relu_5x5"
  type: "ReLU"
  bottom: "inception_3b/5x5"
  top: "inception_3b/5x5"
}
layer {
  name: "inception_3b/pool"
  type: "Pooling"
  bottom: "inception_3a/output"
  top: "inception_3b/pool"
  pooling_param {
    pool: MAX
    kernel_size: 3
    stride: 1
    pad: 1
  }
}
layer {
  name: "inception_3b/pool_proj"
  type: "Convolution"
  bottom: "inception_3b/pool"
  top: "inception_3b/pool_proj"
  param {
    lr_mult: 1
    decay_mult: 1
  }
  param {
    lr_mult: 2
    decay_mult: 0
  }
  convolution_param {
    num_output: 64
    kernel_size: 1
    weight_filler {
      type: "xavier"
    }
    bias_filler {
      type: "constant"
      value: 0.2
    }
  }
}
layer {
  name: "inception_3b/relu_pool_proj"
  type: "ReLU"
  bottom: "inception_3b/pool_proj"
  top: "inception_3b/pool_proj"
}
layer {
  name: "inception_3b/output"
  type: "Concat"
  bottom: "inception_3b/1x1"
  bottom: "inception_3b/3x3"
  bottom: "inception_3b/5x5"
  bottom: "inception_3b/pool_proj"
  top: "inception_3b/output"
}
layer {
  name: "pool3/3x3_s2"
  type: "Pooling"
  bottom: "inception_3b/output"
  top: "pool3/3x3_s2"
  pooling_param {
    pool: MAX
    kernel_size: 3
    stride: 2
  }
}
layer {
  name: "inception_4a/1x1"
  type: "Convolution"
  bottom: "pool3/3x3_s2"
  top: "inception_4a/1x1"
  param {
    lr_mult: 1
    decay_mult: 1
  }
  param {
    lr_mult: 2
    decay_mult: 0
  }
  convolution_param {
    num_output: 192
    kernel_size: 1
    weight_filler {
      type: "xavier"
    }
    bias_filler {
      type: "constant"
      value: 0.2
    }
  }
}
layer {
  name: "inception_4a/relu_1x1"
  type: "ReLU"
  bottom: "inception_4a/1x1"
  top: "inception_4a/1x1"
}
layer {
  name: "inception_4a/3x3_reduce"
  type: "Convolution"
  bottom: "pool3/3x3_s2"
  top: "inception_4a/3x3_reduce"
  param {
    lr_mult: 1
    decay_mult: 1
  }
  param {
    lr_mult: 2
    decay_mult: 0
  }
  convolution_param {
    num_output: 96
    kernel_size: 1
    weight_filler {
      type: "xavier"
    }
    bias_filler {
      type: "constant"
      value: 0.2
    }
  }
}
layer {
  name: "inception_4a/relu_3x3_reduce"
  type: "ReLU"
  bottom: "inception_4a/3x3_reduce"
  top: "inception_4a/3x3_reduce"
}
layer {
  name: "inception_4a/3x3"
  type: "Convolution"
  bottom: "inception_4a/3x3_reduce"
  top: "inception_4a/3x3"
  param {
    lr_mult: 1
    decay_mult: 1
  }
  param {
    lr_mult: 2
    decay_mult: 0
  }
  convolution_param {
    num_output: 208
    pad: 1
    kernel_size: 3
    weight_filler {
      type: "xavier"
    }
    bias_filler {
      type: "constant"
      value: 0.2
    }
  }
}
layer {
  name: "inception_4a/relu_3x3"
  type: "ReLU"
  bottom: "inception_4a/3x3"
  top: "inception_4a/3x3"
}
layer {
  name: "inception_4a/5x5_reduce"
  type: "Convolution"
  bottom: "pool3/3x3_s2"
  top: "inception_4a/5x5_reduce"
  param {
    lr_mult: 1
    decay_mult: 1
  }
  param {
    lr_mult: 2
    decay_mult: 0
  }
  convolution_param {
    num_output: 16
    kernel_size: 1
    weight_filler {
      type: "xavier"
    }
    bias_filler {
      type: "constant"
      value: 0.2
    }
  }
}
layer {
  name: "inception_4a/relu_5x5_reduce"
  type: "ReLU"
  bottom: "inception_4a/5x5_reduce"
  top: "inception_4a/5x5_reduce"
}
layer {
  name: "inception_4a/5x5"
  type: "Convolution"
  bottom: "inception_4a/5x5_reduce"
  top: "inception_4a/5x5"
  param {
    lr_mult: 1
    decay_mult: 1
  }
  param {
    lr_mult: 2
    decay_mult: 0
  }
  convolution_param {
    num_output: 48
    pad: 2
    kernel_size: 5
    weight_filler {
      type: "xavier"
    }
    bias_filler {
      type: "constant"
      value: 0.2
    }
  }
}
layer {
  name: "inception_4a/relu_5x5"
  type: "ReLU"
  bottom: "inception_4a/5x5"
  top: "inception_4a/5x5"
}
layer {
  name: "inception_4a/pool"
  type: "Pooling"
  bottom: "pool3/3x3_s2"
  top: "inception_4a/pool"
  pooling_param {
    pool: MAX
    kernel_size: 3
    stride: 1
    pad: 1
  }
}
layer {
  name: "inception_4a/pool_proj"
  type: "Convolution"
  bottom: "inception_4a/pool"
  top: "inception_4a/pool_proj"
  param {
    lr_mult: 1
    decay_mult: 1
  }
  param {
    lr_mult: 2
    decay_mult: 0
  }
  convolution_param {
    num_output: 64
    kernel_size: 1
    weight_filler {
      type: "xavier"
    }
    bias_filler {
      type: "constant"
      value: 0.2
    }
  }
}
layer {
  name: "inception_4a/relu_pool_proj"
  type: "ReLU"
  bottom: "inception_4a/pool_proj"
  top: "inception_4a/pool_proj"
}
layer {
  name: "inception_4a/output"
  type: "Concat"
  bottom: "inception_4a/1x1"
  bottom: "inception_4a/3x3"
  bottom: "inception_4a/5x5"
  bottom: "inception_4a/pool_proj"
  top: "inception_4a/output"
}
layer {
  name: "loss1/ave_pool"
  type: "Pooling"
  bottom: "inception_4a/output"
  top: "loss1/ave_pool"
  pooling_param {
    pool: AVE
    kernel_size: 5
    stride: 3
  }
}
layer {
  name: "loss1/conv"
  type: "Convolution"
  bottom: "loss1/ave_pool"
  top: "loss1/conv"
  param {
    lr_mult: 1
    decay_mult: 1
  }
  param {
    lr_mult: 2
    decay_mult: 0
  }
  convolution_param {
    num_output: 128
    kernel_size: 1
    weight_filler {
      type: "xavier"
    }
    bias_filler {
      type: "constant"
      value: 0.2
    }
  }
}
layer {
  name: "loss1/relu_conv"
  type: "ReLU"
  bottom: "loss1/conv"
  top: "loss1/conv"
}
layer {
  name: "loss1/fc"
  type: "InnerProduct"
  bottom: "loss1/conv"
  top: "loss1/fc"
  param {
    lr_mult: 1
    decay_mult: 1
  }
  param {
    lr_mult: 2
    decay_mult: 0
  }
  inner_product_param {
    num_output: 1024
    weight_filler {
      type: "xavier"
    }
    bias_filler {
      type: "constant"
      value: 0.2
    }
  }
}
layer {
  name: "loss1/relu_fc"
  type: "ReLU"
  bottom: "loss1/fc"
  top: "loss1/fc"
}
layer {
  name: "loss1/drop_fc"
  type: "Dropout"
  bottom: "loss1/fc"
  top: "loss1/fc"
  dropout_param {
    dropout_ratio: 0.7
  }
}
layer {
  name: "myloss1/classifier"
  type: "InnerProduct"
  bottom: "loss1/fc"
  top: "myloss1/classifier"
  param {
    lr_mult: 10
…
I0312 00:20:52.222049 11137 net.cpp:106] Creating Layer inception_4c/pool
I0312 00:20:52.222059 11137 net.cpp:454] inception_4c/pool <- inception_4b/output_inception_4b/output_0_split_3
I0312 00:20:52.222070 11137 net.cpp:411] inception_4c/pool -> inception_4c/pool
I0312 00:20:52.222158 11137 net.cpp:150] Setting up inception_4c/pool
I0312 00:20:52.222172 11137 net.cpp:157] Top shape: 50 512 14 14 (5017600)
I0312 00:20:52.222178 11137 net.cpp:165] Memory required for data: 2209723612
I0312 00:20:52.222185 11137 layer_factory.hpp:77] Creating layer inception_4c/pool_proj
I0312 00:20:52.222203 11137 net.cpp:106] Creating Layer inception_4c/pool_proj
I0312 00:20:52.222211 11137 net.cpp:454] inception_4c/pool_proj <- inception_4c/pool
I0312 00:20:52.222228 11137 net.cpp:411] inception_4c/pool_proj -> inception_4c/pool_proj
I0312 00:20:52.223805 11137 net.cpp:150] Setting up inception_4c/pool_proj
I0312 00:20:52.223824 11137 net.cpp:157] Top shape: 50 64 14 14 (627200)
I0312 00:20:52.223831 11137 net.cpp:165] Memory required for data: 2212232412
I0312 00:20:52.223842 11137 layer_factory.hpp:77] Creating layer inception_4c/relu_pool_proj
I0312 00:20:52.223852 11137 net.cpp:106] Creating Layer inception_4c/relu_pool_proj
I0312 00:20:52.223860 11137 net.cpp:454] inception_4c/relu_pool_proj <- inception_4c/pool_proj
I0312 00:20:52.223872 11137 net.cpp:397] inception_4c/relu_pool_proj -> inception_4c/pool_proj (in-place)
I0312 00:20:52.224191 11137 net.cpp:150] Setting up inception_4c/relu_pool_proj
I0312 00:20:52.224208 11137 net.cpp:157] Top shape: 50 64 14 14 (627200)
I0312 00:20:52.224215 11137 net.cpp:165] Memory required for data: 2214741212
I0312 00:20:52.224222 11137 layer_factory.hpp:77] Creating layer inception_4c/output
I0312 00:20:52.224234 11137 net.cpp:106] Creating Layer inception_4c/output
I0312 00:20:52.224242 11137 net.cpp:454] inception_4c/output <- inception_4c/1x1
I0312 00:20:52.224251 11137 net.cpp:454] inception_4c/output <- inception_4c/3x3
I0312 00:20:52.224259 11137 net.cpp:454] inception_4c/output <- inception_4c/5x5
I0312 00:20:52.224267 11137 net.cpp:454] inception_4c/output <- inception_4c/pool_proj
I0312 00:20:52.224274 11137 net.cpp:411] inception_4c/output -> inception_4c/output
I0312 00:20:52.224337 11137 net.cpp:150] Setting up inception_4c/output
I0312 00:20:52.224357 11137 net.cpp:157] Top shape: 50 512 14 14 (5017600)
I0312 00:20:52.224371 11137 net.cpp:165] Memory required for data: 2234811612
I0312 00:20:52.224378 11137 layer_factory.hpp:77] Creating layer inception_4c/output_inception_4c/output_0_split
I0312 00:20:52.224390 11137 net.cpp:106] Creating Layer inception_4c/output_inception_4c/output_0_split
I0312 00:20:52.224396 11137 net.cpp:454] inception_4c/output_inception_4c/output_0_split <- inception_4c/output
I0312 00:20:52.224407 11137 net.cpp:411] inception_4c/output_inception_4c/output_0_split -> inception_4c/output_inception_4c/output_0_split_0
I0312 00:20:52.224419 11137 net.cpp:411] inception_4c/output_inception_4c/output_0_split -> inception_4c/output_inception_4c/output_0_split_1
I0312 00:20:52.224429 11137 net.cpp:411] inception_4c/output_inception_4c/output_0_split -> inception_4c/output_inception_4c/output_0_split_2
I0312 00:20:52.224441 11137 net.cpp:411] inception_4c/output_inception_4c/output_0_split -> inception_4c/output_inception_4c/output_0_split_3
I0312 00:20:52.224583 11137 net.cpp:150] Setting up inception_4c/output_inception_4c/output_0_split
I0312 00:20:52.224597 11137 net.cpp:157] Top shape: 50 512 14 14 (5017600)
I0312 00:20:52.224604 11137 net.cpp:157] Top shape: 50 512 14 14 (5017600)
I0312 00:20:52.224612 11137 net.cpp:157] Top shape: 50 512 14 14 (5017600)
I0312 00:20:52.224619 11137 net.cpp:157] Top shape: 50 512 14 14 (5017600)
I0312 00:20:52.224625 11137 net.cpp:165] Memory required for data: 2315093212
I0312 00:20:52.224632 11137 layer_factory.hpp:77] Creating layer inception_4d/1x1
I0312 00:20:52.224647 11137 net.cpp:106] Creating Layer inception_4d/1x1
I0312 00:20:52.224655 11137 net.cpp:454] inception_4d/1x1 <- inception_4c/output_inception_4c/output_0_split_0
I0312 00:20:52.224665 11137 net.cpp:411] inception_4d/1x1 -> inception_4d/1x1
I0312 00:20:52.226488 11137 net.cpp:150] Setting up inception_4d/1x1
I0312 00:20:52.226505 11137 net.cpp:157] Top shape: 50 112 14 14 (1097600)
I0312 00:20:52.226512 11137 net.cpp:165] Memory required for data: 2319483612
I0312 00:20:52.226524 11137 layer_factory.hpp:77] Creating layer inception_4d/relu_1x1
I0312 00:20:52.226534 11137 net.cpp:106] Creating Layer inception_4d/relu_1x1
I0312 00:20:52.226541 11137 net.cpp:454] inception_4d/relu_1x1 <- inception_4d/1x1
I0312 00:20:52.226550 11137 net.cpp:397] inception_4d/relu_1x1 -> inception_4d/1x1 (in-place)
I0312 00:20:52.226769 11137 net.cpp:150] Setting up inception_4d/relu_1x1
I0312 00:20:52.226788 11137 net.cpp:157] Top shape: 50 112 14 14 (1097600)
I0312 00:20:52.226794 11137 net.cpp:165] Memory required for data: 2323874012
I0312 00:20:52.226801 11137 layer_factory.hpp:77] Creating layer inception_4d/3x3_reduce
I0312 00:20:52.226817 11137 net.cpp:106] Creating Layer inception_4d/3x3_reduce
I0312 00:20:52.226826 11137 net.cpp:454] inception_4d/3x3_reduce <- inception_4c/output_inception_4c/output_0_split_1
I0312 00:20:52.226836 11137 net.cpp:411] inception_4d/3x3_reduce -> inception_4d/3x3_reduce
I0312 00:20:52.228845 11137 net.cpp:150] Setting up inception_4d/3x3_reduce
I0312 00:20:52.228864 11137 net.cpp:157] Top shape: 50 144 14 14 (1411200)
I0312 00:20:52.228871 11137 net.cpp:165] Memory required for data: 2329518812
I0312 00:20:52.228883 11137 layer_factory.hpp:77] Creating layer inception_4d/relu_3x3_reduce
I0312 00:20:52.228893 11137 net.cpp:106] Creating Layer inception_4d/relu_3x3_reduce
I0312 00:20:52.228900 11137 net.cpp:454] inception_4d/relu_3x3_reduce <- inception_4d/3x3_reduce
I0312 00:20:52.228912 11137 net.cpp:397] inception_4d/relu_3x3_reduce -> inception_4d/3x3_reduce (in-place)
I0312 00:20:52.229238 11137 net.cpp:150] Setting up inception_4d/relu_3x3_reduce
I0312 00:20:52.229256 11137 net.cpp:157] Top shape: 50 144 14 14 (1411200)
I0312 00:20:52.229264 11137 net.cpp:165] Memory required for data: 2335163612
I0312 00:20:52.229272 11137 layer_factory.hpp:77] Creating layer inception_4d/3x3
I0312 00:20:52.229291 11137 net.cpp:106] Creating Layer inception_4d/3x3
I0312 00:20:52.229300 11137 net.cpp:454] inception_4d/3x3 <- inception_4d/3x3_reduce
I0312 00:20:52.229318 11137 net.cpp:411] inception_4d/3x3 -> inception_4d/3x3
I0312 00:20:52.234249 11137 net.cpp:150] Setting up inception_4d/3x3
I0312 00:20:52.234272 11137 net.cpp:157] Top shape: 50 288 14 14 (2822400)
I0312 00:20:52.234279 11137 net.cpp:165] Memory required for data: 2346453212
I0312 00:20:52.234292 11137 layer_factory.hpp:77] Creating layer inception_4d/relu_3x3
I0312 00:20:52.234308 11137 net.cpp:106] Creating Layer inception_4d/relu_3x3
I0312 00:20:52.234318 11137 net.cpp:454] inception_4d/relu_3x3 <- inception_4d/3x3
I0312 00:20:52.234328 11137 net.cpp:397] inception_4d/relu_3x3 -> inception_4d/3x3 (in-place)
I0312 00:20:52.234670 11137 net.cpp:150] Setting up inception_4d/relu_3x3
I0312 00:20:52.234688 11137 net.cpp:157] Top shape: 50 288 14 14 (2822400)
I0312 00:20:52.234694 11137 net.cpp:165] Memory required for data: 2357742812
I0312 00:20:52.234701 11137 layer_factory.hpp:77] Creating layer inception_4d/5x5_reduce
I0312 00:20:52.234719 11137 net.cpp:106] Creating Layer inception_4d/5x5_reduce
I0312 00:20:52.234726 11137 net.cpp:454] inception_4d/5x5_reduce <- inception_4c/output_inception_4c/output_0_split_2
I0312 00:20:52.234752 11137 net.cpp:411] inception_4d/5x5_reduce -> inception_4d/5x5_reduce
I0312 00:20:52.236826 11137 net.cpp:150] Setting up inception_4d/5x5_reduce
I0312 00:20:52.236845 11137 net.cpp:157] Top shape: 50 32 14 14 (313600)
I0312 00:20:52.236851 11137 net.cpp:165] Memory required for data: 2358997212
I0312 00:20:52.236863 11137 layer_factory.hpp:77] Creating layer inception_4d/relu_5x5_reduce
I0312 00:20:52.236876 11137 net.cpp:106] Creating Layer inception_4d/relu_5x5_reduce
I0312 00:20:52.236886 11137 net.cpp:454] inception_4d/relu_5x5_reduce <- inception_4d/5x5_reduce
I0312 00:20:52.236894 11137 net.cpp:397] inception_4d/relu_5x5_reduce -> inception_4d/5x5_reduce (in-place)
I0312 00:20:52.237105 11137 net.cpp:150] Setting up inception_4d/relu_5x5_reduce
I0312 00:20:52.237119 11137 net.cpp:157] Top shape: 50 32 14 14 (313600)
I0312 00:20:52.237126 11137 net.cpp:165] Memory required for data: 2360251612
I0312 00:20:52.237133 11137 layer_factory.hpp:77] Creating layer inception_4d/5x5
I0312 00:20:52.237152 11137 net.cpp:106] Creating Layer inception_4d/5x5
I0312 00:20:52.237160 11137 net.cpp:454] inception_4d/5x5 <- inception_4d/5x5_reduce
I0312 00:20:52.237170 11137 net.cpp:411] inception_4d/5x5 -> inception_4d/5x5
I0312 00:20:52.238996 11137 net.cpp:150] Setting up inception_4d/5x5
I0312 00:20:52.239020 11137 net.cpp:157] Top shape: 50 64 14 14 (627200)
I0312 00:20:52.239027 11137 net.cpp:165] Memory required for data: 2362760412
I0312 00:20:52.239039 11137 layer_factory.hpp:77] Creating layer inception_4d/relu_5x5
I0312 00:20:52.239053 11137 net.cpp:106] Creating Layer inception_4d/relu_5x5
I0312 00:20:52.239060 11137 net.cpp:454] inception_4d/relu_5x5 <- inception_4d/5x5
I0312 00:20:52.239069 11137 net.cpp:397] inception_4d/relu_5x5 -> inception_4d/5x5 (in-place)
I0312 00:20:52.239394 11137 net.cpp:150] Setting up inception_4d/relu_5x5
I0312 00:20:52.239411 11137 net.cpp:157] Top shape: 50 64 14 14 (627200)
I0312 00:20:52.239418 11137 net.cpp:165] Memory required for data: 2365269212
I0312 00:20:52.239425 11137 layer_factory.hpp:77] Creating layer inception_4d/pool
I0312 00:20:52.239436 11137 net.cpp:106] Creating Layer inception_4d/pool
I0312 00:20:52.239444 11137 net.cpp:454] inception_4d/pool <- inception_4c/output_inception_4c/output_0_split_3
I0312 00:20:52.239457 11137 net.cpp:411] inception_4d/pool -> inception_4d/pool
I0312 00:20:52.239550 11137 net.cpp:150] Setting up inception_4d/pool
I0312 00:20:52.239564 11137 net.cpp:157] Top shape: 50 512 14 14 (5017600)
I0312 00:20:52.239570 11137 net.cpp:165] Memory required for data: 2385339612
I0312 00:20:52.239578 11137 layer_factory.hpp:77] Creating layer inception_4d/pool_proj
I0312 00:20:52.239595 11137 net.cpp:106] Creating Layer inception_4d/pool_proj
I0312 00:20:52.239603 11137 net.cpp:454] inception_4d/pool_proj <- inception_4d/pool
I0312 00:20:52.239624 11137 net.cpp:411] inception_4d/pool_proj -> inception_4d/pool_proj
I0312 00:20:52.241266 11137 net.cpp:150] Setting up inception_4d/pool_proj
I0312 00:20:52.241297 11137 net.cpp:157] Top shape: 50 64 14 14 (627200)
I0312 00:20:52.241303 11137 net.cpp:165] Memory required for data: 2387848412
I0312 00:20:52.241315 11137 layer_factory.hpp:77] Creating layer inception_4d/relu_pool_proj
I0312 00:20:52.241328 11137 net.cpp:106] Creating Layer inception_4d/relu_pool_proj
I0312 00:20:52.241338 11137 net.cpp:454] inception_4d/relu_pool_proj <- inception_4d/pool_proj
I0312 00:20:52.241346 11137 net.cpp:397] inception_4d/relu_pool_proj -> inception_4d/pool_proj (in-place)
I0312 00:20:52.241770 11137 net.cpp:150] Setting up inception_4d/relu_pool_proj
I0312 00:20:52.241791 11137 net.cpp:157] Top shape: 50 64 14 14 (627200)
I0312 00:20:52.241797 11137 net.cpp:165] Memory required for data: 2390357212
I0312 00:20:52.241804 11137 layer_factory.hpp:77] Creating layer inception_4d/output
I0312 00:20:52.241816 11137 net.cpp:106] Creating Layer inception_4d/output
I0312 00:20:52.241823 11137 net.cpp:454] inception_4d/output <- inception_4d/1x1
I0312 00:20:52.241832 11137 net.cpp:454] inception_4d/output <- inception_4d/3x3
I0312 00:20:52.241838 11137 net.cpp:454] inception_4d/output <- inception_4d/5x5
I0312 00:20:52.241845 11137 net.cpp:454] inception_4d/output <- inception_4d/pool_proj
I0312 00:20:52.241857 11137 net.cpp:411] inception_4d/output -> inception_4d/output
I0312 00:20:52.241927 11137 net.cpp:150] Setting up inception_4d/output
I0312 00:20:52.241940 11137 net.cpp:157] Top shape: 50 528 14 14 (5174400)
I0312 00:20:52.241946 11137 net.cpp:165] Memory required for data: 2411054812
I0312 00:20:52.241953 11137 layer_factory.hpp:77] Creating layer inception_4d/output_inception_4d/output_0_split
I0312 00:20:52.241964 11137 net.cpp:106] Creating Layer inception_4d/output_inception_4d/output_0_split
I0312 00:20:52.241971 11137 net.cpp:454] inception_4d/output_inception_4d/output_0_split <- inception_4d/output
I0312 00:20:52.241981 11137 net.cpp:411] inception_4d/output_inception_4d/output_0_split -> inception_4d/output_inception_4d/output_0_split_0
I0312 00:20:52.241994 11137 net.cpp:411] inception_4d/output_inception_4d/output_0_split -> inception_4d/output_inception_4d/output_0_split_1
I0312 00:20:52.242007 11137 net.cpp:411] inception_4d/output_inception_4d/output_0_split -> inception_4d/output_inception_4d/output_0_split_2
I0312 00:20:52.242017 11137 net.cpp:411] inception_4d/output_inception_4d/output_0_split -> inception_4d/output_inception_4d/output_0_split_3
I0312 00:20:52.242027 11137 net.cpp:411] inception_4d/output_inception_4d/output_0_split -> inception_4d/output_inception_4d/output_0_split_4
I0312 00:20:52.242200 11137 net.cpp:150] Setting up inception_4d/output_inception_4d/output_0_split
I0312 00:20:52.242216 11137 net.cpp:157] Top shape: 50 528 14 14 (5174400)
I0312 00:20:52.242224 11137 net.cpp:157] Top shape: 50 528 14 14 (5174400)
I0312 00:20:52.242231 11137 net.cpp:157] Top shape: 50 528 14 14 (5174400)
I0312 00:20:52.242238 11137 net.cpp:157] Top shape: 50 528 14 14 (5174400)
I0312 00:20:52.242245 11137 net.cpp:157] Top shape: 50 528 14 14 (5174400)
I0312 00:20:52.242251 11137 net.cpp:165] Memory required for data: 2514542812
I0312 00:20:52.242259 11137 layer_factory.hpp:77] Creating layer loss2/ave_pool
I0312 00:20:52.242269 11137 net.cpp:106] Creating Layer loss2/ave_pool
I0312 00:20:52.242275 11137 net.cpp:454] loss2/ave_pool <- inception_4d/output_inception_4d/output_0_split_0
I0312 00:20:52.242285 11137 net.cpp:411] loss2/ave_pool -> loss2/ave_pool
I0312 00:20:52.242689 11137 net.cpp:150] Setting up loss2/ave_pool
I0312 00:20:52.242705 11137 net.cpp:157] Top shape: 50 528 4 4 (422400)
I0312 00:20:52.242712 11137 net.cpp:165] Memory required for data: 2516232412
I0312 00:20:52.242719 11137 layer_factory.hpp:77] Creating layer loss2/conv
I0312 00:20:52.242734 11137 net.cpp:106] Creating Layer loss2/conv
I0312 00:20:52.242758 11137 net.cpp:454] loss2/conv <- loss2/ave_pool
I0312 00:20:52.242779 11137 net.cpp:411] loss2/conv -> loss2/conv
I0312 00:20:52.245228 11137 net.cpp:150] Setting up loss2/conv
I0312 00:20:52.245257 11137 net.cpp:157] Top shape: 50 128 4 4 (102400)
I0312 00:20:52.245265 11137 net.cpp:165] Memory required for data: 2516642012
I0312 00:20:52.245275 11137 layer_factory.hpp:77] Creating layer loss2/relu_conv
I0312 00:20:52.245291 11137 net.cpp:106] Creating Layer loss2/relu_conv
I0312 00:20:52.245301 11137 net.cpp:454] loss2/relu_conv <- loss2/conv
I0312 00:20:52.245309 11137 net.cpp:397] loss2/relu_conv -> loss2/conv (in-place)
I0312 00:20:52.245631 11137 net.cpp:150] Setting up loss2/relu_conv
I0312 00:20:52.245648 11137 net.cpp:157] Top shape: 50 128 4 4 (102400)
I0312 00:20:52.245654 11137 net.cpp:165] Memory required for data: 2517051612
I0312 00:20:52.245661 11137 layer_factory.hpp:77] Creating layer loss2/fc
I0312 00:20:52.245676 11137 net.cpp:106] Creating Layer loss2/fc
I0312 00:20:52.245684 11137 net.cpp:454] loss2/fc <- loss2/conv
I0312 00:20:52.245694 11137 net.cpp:411] loss2/fc -> loss2/fc
I0312 00:20:52.265074 11137 net.cpp:150] Setting up loss2/fc
I0312 00:20:52.265125 11137 net.cpp:157] Top shape: 50 1024 (51200)
I0312 00:20:52.265132 11137 net.cpp:165] Memory required for data: 2517256412
I0312 00:20:52.265148 11137 layer_factory.hpp:77] Creating layer loss2/relu_fc
I0312 00:20:52.265164 11137 net.cpp:106] Creating Layer loss2/relu_fc
I0312 00:20:52.265174 11137 net.cpp:454] loss2/relu_fc <- loss2/fc
I0312 00:20:52.265188 11137 net.cpp:397] loss2/relu_fc -> loss2/fc (in-place)
I0312 00:20:52.265457 11137 net.cpp:150] Setting up loss2/relu_fc
I0312 00:20:52.265472 11137 net.cpp:157] Top shape: 50 1024 (51200)
I0312 00:20:52.265480 11137 net.cpp:165] Memory required for data: 2517461212
I0312 00:20:52.265486 11137 layer_factory.hpp:77] Creating layer loss2/drop_fc
I0312 00:20:52.265499 11137 net.cpp:106] Creating Layer loss2/drop_fc
I0312 00:20:52.265507 11137 net.cpp:454] loss2/drop_fc <- loss2/fc
I0312 00:20:52.265516 11137 net.cpp:397] loss2/drop_fc -> loss2/fc (in-place)
I0312 00:20:52.265578 11137 net.cpp:150] Setting up loss2/drop_fc
I0312 00:20:52.265590 11137 net.cpp:157] Top shape: 50 1024 (51200)
I0312 00:20:52.265596 11137 net.cpp:165] Memory required for data: 2517666012
I0312 00:20:52.265604 11137 layer_factory.hpp:77] Creating layer myloss2/classifier
I0312 00:20:52.265619 11137 net.cpp:106] Creating Layer myloss2/classifier
I0312 00:20:52.265626 11137 net.cpp:454] myloss2/classifier <- loss2/fc
I0312 00:20:52.265635 11137 net.cpp:411] myloss2/classifier -> myloss2/classifier
I0312 00:20:52.267936 11137 net.cpp:150] Setting up myloss2/classifier
I0312 00:20:52.267954 11137 net.cpp:157] Top shape: 50 200 (10000)
I0312 00:20:52.267961 11137 net.cpp:165] Memory required for data: 2517706012
I0312 00:20:52.267971 11137 layer_factory.hpp:77] Creating layer myloss2/classifier_myloss2/classifier_0_split
I0312 00:20:52.267982 11137 net.cpp:106] Creating Layer myloss2/classifier_myloss2/classifier_0_split
I0312 00:20:52.267990 11137 net.cpp:454] myloss2/classifier_myloss2/classifier_0_split <- myloss2/classifier
I0312 00:20:52.267999 11137 net.cpp:411] myloss2/classifier_myloss2/classifier_0_split -> myloss2/classifier_myloss2/classifier_0_split_0
I0312 00:20:52.268010 11137 net.cpp:411] myloss2/classifier_myloss2/classifier_0_split -> myloss2/classifier_myloss2/classifier_0_split_1
I0312 00:20:52.268024 11137 net.cpp:411] myloss2/classifier_myloss2/classifier_0_split -> myloss2/classifier_myloss2/classifier_0_split_2
I0312 00:20:52.268152 11137 net.cpp:150] Setting up myloss2/classifier_myloss2/classifier_0_split
I0312 00:20:52.268169 11137 net.cpp:157] Top shape: 50 200 (10000)
I0312 00:20:52.268177 11137 net.cpp:157] Top shape: 50 200 (10000)
I0312 00:20:52.268184 11137 net.cpp:157] Top shape: 50 200 (10000)
I0312 00:20:52.268190 11137 net.cpp:165] Memory required for data: 2517826012
I0312 00:20:52.268198 11137 layer_factory.hpp:77] Creating layer loss2/loss
I0312 00:20:52.268208 11137 net.cpp:106] Creating Layer loss2/loss
I0312 00:20:52.268214 11137 net.cpp:454] loss2/loss <- myloss2/classifier_myloss2/classifier_0_split_0
I0312 00:20:52.268234 11137 net.cpp:454] loss2/loss <- label_data_1_split_3
…
I0312 00:20:52.269047 11137 net.cpp:150] Setting up loss2/top-5
I0312 00:20:52.269057 11137 net.cpp:157] Top shape: (1)
I0312 00:20:52.269062 11137 net.cpp:165] Memory required for data: 2517826024
I0312 00:20:52.269068 11137 layer_factory.hpp:77] Creating layer inception_4e/1x1
I0312 00:20:52.269086 11137 net.cpp:106] Creating Layer inception_4e/1x1
I0312 00:20:52.269094 11137 net.cpp:454] inception_4e/1x1 <- inception_4d/output_inception_4d/output_0_split_1
I0312 00:20:52.269104 11137 net.cpp:411] inception_4e/1x1 -> inception_4e/1x1
I0312 00:20:52.271723 11137 net.cpp:150] Setting up inception_4e/1x1
I0312 00:20:52.271746 11137 net.cpp:157] Top shape: 50 256 14 14 (2508800)
I0312 00:20:52.271754 11137 net.cpp:165] Memory required for data: 2527861224
I0312 00:20:52.271765 11137 layer_factory.hpp:77] Creating layer inception_4e/relu_1x1
I0312 00:20:52.271777 11137 net.cpp:106] Creating Layer inception_4e/relu_1x1
I0312 00:20:52.271785 11137 net.cpp:454] inception_4e/relu_1x1 <- inception_4e/1x1
I0312 00:20:52.271797 11137 net.cpp:397] inception_4e/relu_1x1 -> inception_4e/1x1 (in-place)
I0312 00:20:52.272002 11137 net.cpp:150] Setting up inception_4e/relu_1x1
I0312 00:20:52.272017 11137 net.cpp:157] Top shape: 50 256 14 14 (2508800)
I0312 00:20:52.272023 11137 net.cpp:165] Memory required for data: 2537896424
I0312 00:20:52.272030 11137 layer_factory.hpp:77] Creating layer inception_4e/3x3_reduce
I0312 00:20:52.272068 11137 net.cpp:106] Creating Layer inception_4e/3x3_reduce
I0312 00:20:52.272078 11137 net.cpp:454] inception_4e/3x3_reduce <- inception_4d/output_inception_4d/output_0_split_2
I0312 00:20:52.272089 11137 net.cpp:411] inception_4e/3x3_reduce -> inception_4e/3x3_reduce
I0312 00:20:52.275302 11137 net.cpp:150] Setting up inception_4e/3x3_reduce
I0312 00:20:52.275323 11137 net.cpp:157] Top shape: 50 160 14 14 (1568000)
I0312 00:20:52.275331 11137 net.cpp:165] Memory required for data: 2544168424
I0312 00:20:52.275342 11137 layer_factory.hpp:77] Creating layer inception_4e/relu_3x3_reduce
I0312 00:20:52.275357 11137 net.cpp:106] Creating Layer inception_4e/relu_3x3_reduce
I0312 00:20:52.275364 11137 net.cpp:454] inception_4e/relu_3x3_reduce <- inception_4e/3x3_reduce
I0312 00:20:52.275374 11137 net.cpp:397] inception_4e/relu_3x3_reduce -> inception_4e/3x3_reduce (in-place)
I0312 00:20:52.275722 11137 net.cpp:150] Setting up inception_4e/relu_3x3_reduce
I0312 00:20:52.275738 11137 net.cpp:157] Top shape: 50 160 14 14 (1568000)
I0312 00:20:52.275744 11137 net.cpp:165] Memory required for data: 2550440424
I0312 00:20:52.275751 11137 layer_factory.hpp:77] Creating layer inception_4e/3x3
I0312 00:20:52.275776 11137 net.cpp:106] Creating Layer inception_4e/3x3
I0312 00:20:52.275794 11137 net.cpp:454] inception_4e/3x3 <- inception_4e/3x3_reduce
I0312 00:20:52.275809 11137 net.cpp:411] inception_4e/3x3 -> inception_4e/3x3
I0312 00:20:52.281103 11137 net.cpp:150] Setting up inception_4e/3x3
I0312 00:20:52.281126 11137 net.cpp:157] Top shape: 50 320 14 14 (3136000)
I0312 00:20:52.281132 11137 net.cpp:165] Memory required for data: 2562984424
I0312 00:20:52.281143 11137 layer_factory.hpp:77] Creating layer inception_4e/relu_3x3
I0312 00:20:52.281153 11137 net.cpp:106] Creating Layer inception_4e/relu_3x3
I0312 00:20:52.281162 11137 net.cpp:454] inception_4e/relu_3x3 <- inception_4e/3x3
I0312 00:20:52.281170 11137 net.cpp:397] inception_4e/relu_3x3 -> inception_4e/3x3 (in-place)
I0312 00:20:52.281497 11137 net.cpp:150] Setting up inception_4e/relu_3x3
I0312 00:20:52.281512 11137 net.cpp:157] Top shape: 50 320 14 14 (3136000)
I0312 00:20:52.281519 11137 net.cpp:165] Memory required for data: 2575528424
I0312 00:20:52.281527 11137 layer_factory.hpp:77] Creating layer inception_4e/5x5_reduce
I0312 00:20:52.281543 11137 net.cpp:106] Creating Layer inception_4e/5x5_reduce
I0312 00:20:52.281553 11137 net.cpp:454] inception_4e/5x5_reduce <- inception_4d/output_inception_4d/output_0_split_3
I0312 00:20:52.281566 11137 net.cpp:411] inception_4e/5x5_reduce -> inception_4e/5x5_reduce
I0312 00:20:52.282860 11137 net.cpp:150] Setting up inception_4e/5x5_reduce
I0312 00:20:52.282884 11137 net.cpp:157] Top shape: 50 32 14 14 (313600)
I0312 00:20:52.282891 11137 net.cpp:165] Memory required for data: 2576782824
I0312 00:20:52.282903 11137 layer_factory.hpp:77] Creating layer inception_4e/relu_5x5_reduce
I0312 00:20:52.282913 11137 net.cpp:106] Creating Layer inception_4e/relu_5x5_reduce
I0312 00:20:52.282920 11137 net.cpp:454] inception_4e/relu_5x5_reduce <- inception_4e/5x5_reduce
I0312 00:20:52.282932 11137 net.cpp:397] inception_4e/relu_5x5_reduce -> inception_4e/5x5_reduce (in-place)
I0312 00:20:52.283138 11137 net.cpp:150] Setting up inception_4e/relu_5x5_reduce
I0312 00:20:52.283152 11137 net.cpp:157] Top shape: 50 32 14 14 (313600)
I0312 00:20:52.283159 11137 net.cpp:165] Memory required for data: 2578037224
I0312 00:20:52.283165 11137 layer_factory.hpp:77] Creating layer inception_4e/5x5
I0312 00:20:52.283184 11137 net.cpp:106] Creating Layer inception_4e/5x5
I0312 00:20:52.283191 11137 net.cpp:454] inception_4e/5x5 <- inception_4e/5x5_reduce
I0312 00:20:52.283202 11137 net.cpp:411] inception_4e/5x5 -> inception_4e/5x5
I0312 00:20:52.285130 11137 net.cpp:150] Setting up inception_4e/5x5
I0312 00:20:52.285151 11137 net.cpp:157] Top shape: 50 128 14 14 (1254400)
I0312 00:20:52.285157 11137 net.cpp:165] Memory required for data: 2583054824
I0312 00:20:52.285168 11137 layer_factory.hpp:77] Creating layer inception_4e/relu_5x5
I0312 00:20:52.285178 11137 net.cpp:106] Creating Layer inception_4e/relu_5x5
I0312 00:20:52.285187 11137 net.cpp:454] inception_4e/relu_5x5 <- inception_4e/5x5
I0312 00:20:52.285195 11137 net.cpp:397] inception_4e/relu_5x5 -> inception_4e/5x5 (in-place)
I0312 00:20:52.285526 11137 net.cpp:150] Setting up inception_4e/relu_5x5
I0312 00:20:52.285543 11137 net.cpp:157] Top shape: 50 128 14 14 (1254400)
I0312 00:20:52.285549 11137 net.cpp:165] Memory required for data: 2588072424
I0312 00:20:52.285557 11137 layer_factory.hpp:77] Creating layer inception_4e/pool
I0312 00:20:52.285572 11137 net.cpp:106] Creating Layer inception_4e/pool
I0312 00:20:52.285579 11137 net.cpp:454] inception_4e/pool <- inception_4d/output_inception_4d/output_0_split_4
I0312 00:20:52.285589 11137 net.cpp:411] inception_4e/pool -> inception_4e/pool
I0312 00:20:52.285646 11137 net.cpp:150] Setting up inception_4e/pool
I0312 00:20:52.285658 11137 net.cpp:157] Top shape: 50 528 14 14 (5174400)
I0312 00:20:52.285665 11137 net.cpp:165] Memory required for data: 2608770024
I0312 00:20:52.285671 11137 layer_factory.hpp:77] Creating layer inception_4e/pool_proj
I0312 00:20:52.285686 11137 net.cpp:106] Creating Layer inception_4e/pool_proj
I0312 00:20:52.285702 11137 net.cpp:454] inception_4e/pool_proj <- inception_4e/pool
I0312 00:20:52.285722 11137 net.cpp:411] inception_4e/pool_proj -> inception_4e/pool_proj
I0312 00:20:52.287288 11137 net.cpp:150] Setting up inception_4e/pool_proj
I0312 00:20:52.287307 11137 net.cpp:157] Top shape: 50 128 14 14 (1254400)
I0312 00:20:52.287314 11137 net.cpp:165] Memory required for data: 2613787624
I0312 00:20:52.287325 11137 layer_factory.hpp:77] Creating layer inception_4e/relu_pool_proj
I0312 00:20:52.287338 11137 net.cpp:106] Creating Layer inception_4e/relu_pool_proj
I0312 00:20:52.287345 11137 net.cpp:454] inception_4e/relu_pool_proj <- inception_4e/pool_proj
I0312 00:20:52.287354 11137 net.cpp:397] inception_4e/relu_pool_proj -> inception_4e/pool_proj (in-place)
I0312 00:20:52.287678 11137 net.cpp:150] Setting up inception_4e/relu_pool_proj
I0312 00:20:52.287694 11137 net.cpp:157] Top shape: 50 128 14 14 (1254400)
I0312 00:20:52.287701 11137 net.cpp:165] Memory required for data: 2618805224
I0312 00:20:52.287708 11137 layer_factory.hpp:77] Creating layer inception_4e/output
I0312 00:20:52.287719 11137 net.cpp:106] Creating Layer inception_4e/output
I0312 00:20:52.287725 11137 net.cpp:454] inception_4e/output <- inception_4e/1x1
I0312 00:20:52.287734 11137 net.cpp:454] inception_4e/output <- inception_4e/3x3
I0312 00:20:52.287741 11137 net.cpp:454] inception_4e/output <- inception_4e/5x5
I0312 00:20:52.287750 11137 net.cpp:454] inception_4e/output <- inception_4e/pool_proj
I0312 00:20:52.287757 11137 net.cpp:411] inception_4e/output -> inception_4e/output
I0312 00:20:52.287798 11137 net.cpp:150] Setting up inception_4e/output
I0312 00:20:52.287811 11137 net.cpp:157] Top shape: 50 832 14 14 (8153600)
I0312 00:20:52.287817 11137 net.cpp:165] Memory required for data: 2651419624
I0312 00:20:52.287823 11137 layer_factory.hpp:77] Creating layer pool4/3x3_s2
I0312 00:20:52.287835 11137 net.cpp:106] Creating Layer pool4/3x3_s2
I0312 00:20:52.287843 11137 net.cpp:454] pool4/3x3_s2 <- inception_4e/output
I0312 00:20:52.287853 11137 net.cpp:411] pool4/3x3_s2 -> pool4/3x3_s2
I0312 00:20:52.287901 11137 net.cpp:150] Setting up pool4/3x3_s2
I0312 00:20:52.287914 11137 net.cpp:157] Top shape: 50 832 7 7 (2038400)
I0312 00:20:52.287919 11137 net.cpp:165] Memory required for data: 2659573224
I0312 00:20:52.287925 11137 layer_factory.hpp:77] Creating layer pool4/3x3_s2_pool4/3x3_s2_0_split
I0312 00:20:52.287936 11137 net.cpp:106] Creating Layer pool4/3x3_s2_pool4/3x3_s2_0_split
I0312 00:20:52.287942 11137 net.cpp:454] pool4/3x3_s2_pool4/3x3_s2_0_split <- pool4/3x3_s2
I0312 00:20:52.287953 11137 net.cpp:411] pool4/3x3_s2_pool4/3x3_s2_0_split -> pool4/3x3_s2_pool4/3x3_s2_0_split_0
I0312 00:20:52.287964 11137 net.cpp:411] pool4/3x3_s2_pool4/3x3_s2_0_split -> pool4/3x3_s2_pool4/3x3_s2_0_split_1
I0312 00:20:52.287974 11137 net.cpp:411] pool4/3x3_s2_pool4/3x3_s2_0_split -> pool4/3x3_s2_pool4/3x3_s2_0_split_2
I0312 00:20:52.288005 11137 net.cpp:411] pool4/3x3_s2_pool4/3x3_s2_0_split -> pool4/3x3_s2_pool4/3x3_s2_0_split_3
I0312 00:20:52.288084 11137 net.cpp:150] Setting up pool4/3x3_s2_pool4/3x3_s2_0_split
I0312 00:20:52.288095 11137 net.cpp:157] Top shape: 50 832 7 7 (2038400)
I0312 00:20:52.288103 11137 net.cpp:157] Top shape: 50 832 7 7 (2038400)
I0312 00:20:52.288111 11137 net.cpp:157] Top shape: 50 832 7 7 (2038400)
I0312 00:20:52.288118 11137 net.cpp:157] Top shape: 50 832 7 7 (2038400)
I0312 00:20:52.288125 11137 net.cpp:165] Memory required for data: 2692187624
I0312 00:20:52.288136 11137 layer_factory.hpp:77] Creating layer inception_5a/1x1
I0312 00:20:52.288156 11137 net.cpp:106] Creating Layer inception_5a/1x1
I0312 00:20:52.288163 11137 net.cpp:454] inception_5a/1x1 <- pool4/3x3_s2_pool4/3x3_s2_0_split_0
I0312 00:20:52.288173 11137 net.cpp:411] inception_5a/1x1 -> inception_5a/1x1
I0312 00:20:52.291554 11137 net.cpp:150] Setting up inception_5a/1x1
I0312 00:20:52.291580 11137 net.cpp:157] Top shape: 50 256 7 7 (627200)
I0312 00:20:52.291587 11137 net.cpp:165] Memory required for data: 2694696424
I0312 00:20:52.291606 11137 layer_factory.hpp:77] Creating layer inception_5a/relu_1x1
I0312 00:20:52.291626 11137 net.cpp:106] Creating Layer inception_5a/relu_1x1
I0312 00:20:52.291637 11137 net.cpp:454] inception_5a/relu_1x1 <- inception_5a/1x1
I0312 00:20:52.291647 11137 net.cpp:397] inception_5a/relu_1x1 -> inception_5a/1x1 (in-place)
I0312 00:20:52.291888 11137 net.cpp:150] Setting up inception_5a/relu_1x1
I0312 00:20:52.291904 11137 net.cpp:157] Top shape: 50 256 7 7 (627200)
I0312 00:20:52.291911 11137 net.cpp:165] Memory required for data: 2697205224
I0312 00:20:52.291918 11137 layer_factory.hpp:77] Creating layer inception_5a/3x3_reduce
I0312 00:20:52.291935 11137 net.cpp:106] Creating Layer inception_5a/3x3_reduce
I0312 00:20:52.291944 11137 net.cpp:454] inception_5a/3x3_reduce <- pool4/3x3_s2_pool4/3x3_s2_0_split_1
I0312 00:20:52.291955 11137 net.cpp:411] inception_5a/3x3_reduce -> inception_5a/3x3_reduce
I0312 00:20:52.294731 11137 net.cpp:150] Setting up inception_5a/3x3_reduce
I0312 00:20:52.294773 11137 net.cpp:157] Top shape: 50 160 7 7 (392000)
I0312 00:20:52.294781 11137 net.cpp:165] Memory required for data: 2698773224
I0312 00:20:52.294793 11137 layer_factory.hpp:77] Creating layer inception_5a/relu_3x3_reduce
I0312 00:20:52.294807 11137 net.cpp:106] Creating Layer inception_5a/relu_3x3_reduce
I0312 00:20:52.294816 11137 net.cpp:454] inception_5a/relu_3x3_reduce <- inception_5a/3x3_reduce
I0312 00:20:52.294826 11137 net.cpp:397] inception_5a/relu_3x3_reduce -> inception_5a/3x3_reduce (in-place)
I0312 00:20:52.295162 11137 net.cpp:150] Setting up inception_5a/relu_3x3_reduce
I0312 00:20:52.295178 11137 net.cpp:157] Top shape: 50 160 7 7 (392000)
I0312 00:20:52.295186 11137 net.cpp:165] Memory required for data: 2700341224
I0312 00:20:52.295192 11137 layer_factory.hpp:77] Creating layer inception_5a/3x3
I0312 00:20:52.295209 11137 net.cpp:106] Creating Layer inception_5a/3x3
I0312 00:20:52.295217 11137 net.cpp:454] inception_5a/3x3 <- inception_5a/3x3_reduce
I0312 00:20:52.295231 11137 net.cpp:411] inception_5a/3x3 -> inception_5a/3x3
I0312 00:20:52.300742 11137 net.cpp:150] Setting up inception_5a/3x3
I0312 00:20:52.300779 11137 net.cpp:157] Top shape: 50 320 7 7 (784000)
I0312 00:20:52.300789 11137 net.cpp:165] Memory required for data: 2703477224
I0312 00:20:52.300801 11137 layer_factory.hpp:77] Creating layer inception_5a/relu_3x3
I0312 00:20:52.300814 11137 net.cpp:106] Creating Layer inception_5a/relu_3x3
I0312 00:20:52.300823 11137 net.cpp:454] inception_5a/relu_3x3 <- inception_5a/3x3
I0312 00:20:52.300832 11137 net.cpp:397] inception_5a/relu_3x3 -> inception_5a/3x3 (in-place)
I0312 00:20:52.301187 11137 net.cpp:150] Setting up inception_5a/relu_3x3
I0312 00:20:52.301203 11137 net.cpp:157] Top shape: 50 320 7 7 (784000)
I0312 00:20:52.301210 11137 net.cpp:165] Memory required for data: 2706613224
I0312 00:20:52.301218 11137 layer_factory.hpp:77] Creating layer inception_5a/5x5_reduce
I0312 00:20:52.301235 11137 net.cpp:106] Creating Layer inception_5a/5x5_reduce
I0312 00:20:52.301244 11137 net.cpp:454] inception_5a/5x5_reduce <- pool4/3x3_s2_pool4/3x3_s2_0_split_2
I0312 00:20:52.301260 11137 net.cpp:411] inception_5a/5x5_reduce -> inception_5a/5x5_reduce
I0312 00:20:52.303244 11137 net.cpp:150] Setting up inception_5a/5x5_reduce
I0312 00:20:52.303264 11137 net.cpp:157] Top shape: 50 32 7 7 (78400)
I0312 00:20:52.303272 11137 net.cpp:165] Memory required for data: 2706926824
I0312 00:20:52.303283 11137 layer_factory.hpp:77] Creating layer inception_5a/relu_5x5_reduce
I0312 00:20:52.303297 11137 net.cpp:106] Creating Layer inception_5a/relu_5x5_reduce
I0312 00:20:52.303305 11137 net.cpp:454] inception_5a/relu_5x5_reduce <- inception_5a/5x5_reduce
I0312 00:20:52.303314 11137 net.cpp:397] inception_5a/relu_5x5_reduce -> inception_5a/5x5_reduce (in-place)
I0312 00:20:52.303524 11137 net.cpp:150] Setting up inception_5a/relu_5x5_reduce
I0312 00:20:52.303539 11137 net.cpp:157] Top shape: 50 32 7 7 (78400)
I0312 00:20:52.303544 11137 net.cpp:165] Memory required for data: 2707240424
I0312 00:20:52.303565 11137 layer_factory.hpp:77] Creating layer inception_5a/5x5
I0312 00:20:52.303592 11137 net.cpp:106] Creating Layer inception_5a/5x5
I0312 00:20:52.303601 11137 net.cpp:454] inception_5a/5x5 <- inception_5a/5x5_reduce
I0312 00:20:52.303614 11137 net.cpp:411] inception_5a/5x5 -> inception_5a/5x5
I0312 00:20:52.305699 11137 net.cpp:150] Setting up inception_5a/5x5
I0312 00:20:52.305721 11137 net.cpp:157] Top shape: 50 128 7 7 (313600)
I0312 00:20:52.305727 11137 net.cpp:165] Memory required for data: 2708494824
I0312 00:20:52.305738 11137 layer_factory.hpp:77] Creating layer inception_5a/relu_5x5
I0312 00:20:52.305749 11137 net.cpp:106] Creating Layer inception_5a/relu_5x5
I0312 00:20:52.305757 11137 net.cpp:454] inception_5a/relu_5x5 <- inception_5a/5x5
I0312 00:20:52.305769 11137 net.cpp:397] inception_5a/relu_5x5 -> inception_5a/5x5 (in-place)
I0312 00:20:52.306128 11137 net.cpp:150] Setting up inception_5a/relu_5x5
I0312 00:20:52.306143 11137 net.cpp:157] Top shape: 50 128 7 7 (313600)
I0312 00:20:52.306150 11137 net.cpp:165] Memory required for data: 2709749224
I0312 00:20:52.306157 11137 layer_factory.hpp:77] Creating layer inception_5a/pool
I0312 00:20:52.306171 11137 net.cpp:106] Creating Layer inception_5a/pool
I0312 00:20:52.306180 11137 net.cpp:454] inception_5a/pool <- pool4/3x3_s2_pool4/3x3_s2_0_split_3
I0312 00:20:52.306192 11137 net.cpp:411] inception_5a/pool -> inception_5a/pool
I0312 00:20:52.306251 11137 net.cpp:150] Setting up inception_5a/pool
I0312 00:20:52.306262 11137 net.cpp:157] Top shape: 50 832 7 7 (2038400)
I0312 00:20:52.306268 11137 net.cpp:165] Memory required for data: 2717902824
I0312 00:20:52.306275 11137 layer_factory.hpp:77] Creating layer inception_5a/pool_proj
I0312 00:20:52.306290 11137 net.cpp:106] Creating Layer inception_5a/pool_proj
I0312 00:20:52.306298 11137 net.cpp:454] inception_5a/pool_proj <- inception_5a/pool
I0312 00:20:52.306310 11137 net.cpp:411] inception_5a/pool_proj -> inception_5a/pool_proj
I0312 00:20:52.308677 11137 net.cpp:150] Setting up inception_5a/pool_proj
I0312 00:20:52.308698 11137 net.cpp:157] Top shape: 50 128 7 7 (313600)
I0312 00:20:52.308706 11137 net.cpp:165] Memory required for data: 2719157224
I0312 00:20:52.308717 11137 layer_factory.hpp:77] Creating layer inception_5a/relu_pool_proj
I0312 00:20:52.308729 11137 net.cpp:106] Creating Layer inception_5a/relu_pool_proj
I0312 00:20:52.308738 11137 net.cpp:454] inception_5a/relu_pool_proj <- inception_5a/pool_proj
I0312 00:20:52.308750 11137 net.cpp:397] inception_5a/relu_pool_proj -> inception_5a/pool_proj (in-place)
I0312 00:20:52.309118 11137 net.cpp:150] Setting up inception_5a/relu_pool_proj
I0312 00:20:52.309135 11137 net.cpp:157] Top shape: 50 128 7 7 (313600)
I0312 00:20:52.309144 11137 net.cpp:165] Memory required for data: 2720411624
I0312 00:20:52.309151 11137 layer_factory.hpp:77] Creating layer inception_5a/output
I0312 00:20:52.309167 11137 net.cpp:106] Creating Layer inception_5a/output
I0312 00:20:52.309177 11137 net.cpp:454] inception_5a/output <- inception_5a/1x1
I0312 00:20:52.309185 11137 net.cpp:454] inception_5a/output <- inception_5a/3x3
I0312 00:20:52.309193 11137 net.cpp:454] inception_5a/output <- inception_5a/5x5
I0312 00:20:52.309201 11137 net.cpp:454] inception_5a/output <- inception_5a/pool_proj
I0312 00:20:52.309209 11137 net.cpp:411] inception_5a/output -> inception_5a/output
I0312 00:20:52.309252 11137 net.cpp:150] Setting up inception_5a/output
I0312 00:20:52.309264 11137 net.cpp:157] Top shape: 50 832 7 7 (2038400)
I0312 00:20:52.309270 11137 net.cpp:165] Memory required for data: 2728565224
I0312 00:20:52.309278 11137 layer_factory.hpp:77] Creating layer inception_5a/output_inception_5a/output_0_split
I0312 00:20:52.309288 11137 net.cpp:106] Creating Layer inception_5a/output_inception_5a/output_0_split
I0312 00:20:52.309295 11137 net.cpp:454] inception_5a/output_inception_5a/output_0_split <- inception_5a/output
I0312 00:20:52.309306 11137 net.cpp:411] inception_5a/output_inception_5a/output_0_split -> inception_5a/output_inception_5a/output_0_split_0
I0312 00:20:52.309327 11137 net.cpp:411] inception_5a/output_inception_5a/output_0_split -> inception_5a/output_inception_5a/output_0_split_1
I0312 00:20:52.309348 11137 net.cpp:411] inception_5a/output_inception_5a/output_0_split -> inception_5a/output_inception_5a/output_0_split_2
I0312 00:20:52.309360 11137 net.cpp:411] inception_5a/output_inception_5a/output_0_split -> inception_5a/output_inception_5a/output_0_split_3
I0312 00:20:52.309442 11137 net.cpp:150] Setting up inception_5a/output_inception_5a/output_0_split
I0312 00:20:52.309463 11137 net.cpp:157] Top shape: 50 832 7 7 (2038400)
I0312 00:20:52.309475 11137 net.cpp:157] Top shape: 50 832 7 7 (2038400)
I0312 00:20:52.309484 11137 net.cpp:157] Top shape: 50 832 7 7 (2038400)
I0312 00:20:52.309491 11137 net.cpp:157] Top shape: 50 832 7 7 (2038400)
I0312 00:20:52.309497 11137 net.cpp:165] Memory required for data: 2761179624
I0312 00:20:52.309504 11137 layer_factory.hpp:77] Creating layer inception_5b/1x1
I0312 00:20:52.309520 11137 net.cpp:106] Creating Layer inception_5b/1x1
I0312 00:20:52.309528 11137 net.cpp:454] inception_5b/1x1 <- inception_5a/output_inception_5a/output_0_split_0
I0312 00:20:52.309540 11137 net.cpp:411] inception_5b/1x1 -> inception_5b/1x1
I0312 00:20:52.313835 11137 net.cpp:150] Setting up inception_5b/1x1
I0312 00:20:52.313863 11137 net.cpp:157] Top shape: 50 384 7 7 (940800)
I0312 00:20:52.313869 11137 net.cpp:165] Memory required for data: 2764942824
I0312 00:20:52.313882 11137 layer_factory.hpp:77] Creating layer inception_5b/relu_1x1
I0312 00:20:52.313894 11137 net.cpp:106] Creating Layer inception_5b/relu_1x1
I0312 00:20:52.313902 11137 net.cpp:454] inception_5b/relu_1x1 <- inception_5b/1x1
I0312 00:20:52.313911 11137 net.cpp:397] inception_5b/relu_1x1 -> inception_5b/1x1 (in-place)
I0312 00:20:52.314105 11137 net.cpp:150] Setting up inception_5b/relu_1x1
I0312 00:20:52.314121 11137 net.cpp:157] Top shape: 50 384 7 7 (940800)
I0312 00:20:52.314127 11137 net.cpp:165] Memory required for data: 2768706024
I0312 00:20:52.314134 11137 layer_factory.hpp:77] Creating layer inception_5b/3x3_reduce
I0312 00:20:52.314148 11137 net.cpp:106] Creating Layer inception_5b/3x3_reduce
I0312 00:20:52.314157 11137 net.cpp:454] inception_5b/3x3_reduce <- inception_5a/output_inception_5a/output_0_split_1
I0312 00:20:52.314167 11137 net.cpp:411] inception_5b/3x3_reduce -> inception_5b/3x3_reduce
I0312 00:20:52.317167 11137 net.cpp:150] Setting up inception_5b/3x3_reduce
I0312 00:20:52.317189 11137 net.cpp:157] Top shape: 50 192 7 7 (470400)
I0312 00:20:52.317198 11137 net.cpp:165] Memory required for data: 2770587624
I0312 00:20:52.317209 11137 layer_factory.hpp:77] Creating layer inception_5b/relu_3x3_reduce
I0312 00:20:52.317219 11137 net.cpp:106] Creating Layer inception_5b/relu_3x3_reduce
I0312 00:20:52.317227 11137 net.cpp:454] inception_5b/relu_3x3_reduce <- inception_5b/3x3_reduce
I0312 00:20:52.317240 11137 net.cpp:397] inception_5b/relu_3x3_reduce -> inception_5b/3x3_reduce (in-place)
I0312 00:20:52.317693 11137 net.cpp:150] Setting up inception_5b/relu_3x3_reduce
I0312 00:20:52.317713 11137 net.cpp:157] Top shape: 50 192 7 7 (470400)
I0312 00:20:52.317719 11137 net.cpp:165] Memory required for data: 2772469224
I0312 00:20:52.317726 11137 layer_factory.hpp:77] Creating layer inception_5b/3x3
I0312 00:20:52.317744 11137 net.cpp:106] Creating Layer inception_5b/3x3
I0312 00:20:52.317752 11137 net.cpp:454] inception_5b/3x3 <- inception_5b/3x3_reduce
I0312 00:20:52.317764 11137 net.cpp:411] inception_5b/3x3 -> inception_5b/3x3
I0312 00:20:52.325327 11137 net.cpp:150] Setting up inception_5b/3x3
I0312 00:20:52.325363 11137 net.cpp:157] Top shape: 50 384 7 7 (940800)
I0312 00:20:52.325371 11137 net.cpp:165] Memory required for data: 2776232424
I0312 00:20:52.325383 11137 layer_factory.hpp:77] Creating layer inception_5b/relu_3x3
I0312 00:20:52.325399 11137 net.cpp:106] Creating Layer inception_5b/relu_3x3
I0312 00:20:52.325409 11137 net.cpp:454] inception_5b/relu_3x3 <- inception_5b/3x3
I0312 00:20:52.325420 11137 net.cpp:397] inception_5b/relu_3x3 -> inception_5b/3x3 (in-place)
I0312 00:20:52.325785 11137 net.cpp:150] Setting up inception_5b/relu_3x3
I0312 00:20:52.325812 11137 net.cpp:157] Top shape: 50 384 7 7 (940800)
I0312 00:20:52.325819 11137 net.cpp:165] Memory required for data: 2779995624
I0312 00:20:52.325826 11137 layer_factory.hpp:77] Creating layer inception_5b/5x5_reduce
I0312 00:20:52.325844 11137 net.cpp:106] Creating Layer inception_5b/5x5_reduce
I0312 00:20:52.325852 11137 net.cpp:454] inception_5b/5x5_reduce <- inception_5a/output_inception_5a/output_0_split_2
I0312 00:20:52.325866 11137 net.cpp:411] inception_5b/5x5_reduce -> inception_5b/5x5_reduce
I0312 00:20:52.327389 11137 net.cpp:150] Setting up inception_5b/5x5_reduce
I0312 00:20:52.327409 11137 net.cpp:157] Top shape: 50 48 7 7 (117600)
I0312 00:20:52.327415 11137 net.cpp:165] Memory required for data: 2780466024
I0312 00:20:52.327426 11137 layer_factory.hpp:77] Creating layer inception_5b/relu_5x5_reduce
I0312 00:20:52.327436 11137 net.cpp:106] Creating Layer inception_5b/relu_5x5_reduce
I0312 00:20:52.327445 11137 net.cpp:454] inception_5b/relu_5x5_reduce <- inception_5b/5x5_reduce
I0312 00:20:52.327456 11137 net.cpp:397] inception_5b/relu_5x5_reduce -> inception_5b/5x5_reduce (in-place)
I0312 00:20:52.327677 11137 net.cpp:150] Setting up inception_5b/relu_5x5_reduce
I0312 00:20:52.327692 11137 net.cpp:157] Top shape: 50 48 7 7 (117600)
I0312 00:20:52.327698 11137 net.cpp:165] Memory required for data: 2780936424
I0312 00:20:52.327707 11137 layer_factory.hpp:77] Creating layer inception_5b/5x5
I0312 00:20:52.327723 11137 net.cpp:106] Creating Layer inception_5b/5x5
I0312 00:20:52.327730 11137 net.cpp:454] inception_5b/5x5 <- inception_5b/5x5_reduce
I0312 00:20:52.327744 11137 net.cpp:411] inception_5b/5x5 -> inception_5b/5x5
I0312 00:20:52.330029 11137 net.cpp:150] Setting up inception_5b/5x5
I0312 00:20:52.330046 11137 net.cpp:157] Top shape: 50 128 7 7 (313600)
I0312 00:20:52.330054 11137 net.cpp:165] Memory required for data: 2782190824
I0312 00:20:52.330065 11137 layer_factory.hpp:77] Creating layer inception_5b/relu_5x5
I0312 00:20:52.330080 11137 net.cpp:106] Creating Layer inception_5b/relu_5x5
I0312 00:20:52.330092 11137 net.cpp:454] inception_5b/relu_5x5 <- inception_5b/5x5
I0312 00:20:52.330101 11137 net.cpp:397] inception_5b/relu_5x5 -> inception_5b/5x5 (in-place)
I0312 00:20:52.330445 11137 net.cpp:150] Setting up inception_5b/relu_5x5
I0312 00:20:52.330461 11137 net.cpp:157] Top shape: 50 128 7 7 (313600)
I0312 00:20:52.330467 11137 net.cpp:165] Memory required for data: 2783445224
I0312 00:20:52.330474 11137 layer_factory.hpp:77] Creating layer inception_5b/pool
I0312 00:20:52.330489 11137 net.cpp:106] Creating Layer inception_5b/pool
I0312 00:20:52.330497 11137 net.cpp:454] inception_5b/pool <- inception_5a/output_inception_5a/output_0_split_3
I0312 00:20:52.330507 11137 net.cpp:411] inception_5b/pool -> inception_5b/pool
I0312 00:20:52.330566 11137 net.cpp:150] Setting up inception_5b/pool
I0312 00:20:52.330579 11137 net.cpp:157] Top shape: 50 832 7 7 (2038400)
I0312 00:20:52.330585 11137 net.cpp:165] Memory required for data: 2791598824
I0312 00:20:52.330591 11137 layer_factory.hpp:77] Creating layer inception_5b/pool_proj
I0312 00:20:52.330606 11137 net.cpp:106] Creating Layer inception_5b/pool_proj
I0312 00:20:52.330615 11137 net.cpp:454] inception_5b/pool_proj <- inception_5b/pool
I0312 00:20:52.330626 11137 net.cpp:411] inception_5b/pool_proj -> inception_5b/pool_proj
I0312 00:20:52.333060 11137 net.cpp:150] Setting up inception_5b/pool_proj
I0312 00:20:52.333079 11137 net.cpp:157] Top shape: 50 128 7 7 (313600)
I0312 00:20:52.333086 11137 net.cpp:165] Memory required for data: 2792853224
I0312 00:20:52.333097 11137 layer_factory.hpp:77] Creating layer inception_5b/relu_pool_proj
I0312 00:20:52.333111 11137 net.cpp:106] Creating Layer inception_5b/relu_pool_proj
I0312 00:20:52.333118 11137 net.cpp:454] inception_5b/relu_pool_proj <- inception_5b/pool_proj
I0312 00:20:52.333129 11137 net.cpp:397] inception_5b/relu_pool_proj -> inception_5b/pool_proj (in-place)
I0312 00:20:52.333488 11137 net.cpp:150] Setting up inception_5b/relu_pool_proj
I0312 00:20:52.333515 11137 net.cpp:157] Top shape: 50 128 7 7 (313600)
I0312 00:20:52.333524 11137 net.cpp:165] Memory required for data: 2794107624
I0312 00:20:52.333531 11137 layer_factory.hpp:77] Creating layer inception_5b/output
I0312 00:20:52.333542 11137 net.cpp:106] Creating Layer inception_5b/output
I0312 00:20:52.333549 11137 net.cpp:454] inception_5b/output <- inception_5b/1x1
I0312 00:20:52.333559 11137 net.cpp:454] inception_5b/output <- inception_5b/3x3
I0312 00:20:52.333565 11137 net.cpp:454] inception_5b/output <- inception_5b/5x5
I0312 00:20:52.333573 11137 net.cpp:454] inception_5b/output <- inception_5b/pool_proj
I0312 00:20:52.333581 11137 net.cpp:411] inception_5b/output -> inception_5b/output
I0312 00:20:52.333626 11137 net.cpp:150] Setting up inception_5b/output
I0312 00:20:52.333638 11137 net.cpp:157] Top shape: 50 1024 7 7 (2508800)
I0312 00:20:52.333644 11137 net.cpp:165] Memory required for data: 2804142824
I0312 00:20:52.333650 11137 layer_factory.hpp:77] Creating layer pool5/7x7_s1
I0312 00:20:52.333660 11137 net.cpp:106] Creating Layer pool5/7x7_s1
I0312 00:20:52.333667 11137 net.cpp:454] pool5/7x7_s1 <- inception_5b/output
I0312 00:20:52.333679 11137 net.cpp:411] pool5/7x7_s1 -> pool5/7x7_s1
I0312 00:20:52.333915 11137 net.cpp:150] Setting up pool5/7x7_s1
I0312 00:20:52.333930 11137 net.cpp:157] Top shape: 50 1024 1 1 (51200)
I0312 00:20:52.333937 11137 net.cpp:165] Memory required for data: 2804347624
I0312 00:20:52.333943 11137 layer_factory.hpp:77] Creating layer pool5/drop_7x7_s1
I0312 00:20:52.333953 11137 net.cpp:106] Creating Layer pool5/drop_7x7_s1
I0312 00:20:52.333961 11137 net.cpp:454] pool5/drop_7x7_s1 <- pool5/7x7_s1
I0312 00:20:52.333972 11137 net.cpp:397] pool5/drop_7x7_s1 -> pool5/7x7_s1 (in-place)
I0312 00:20:52.334007 11137 net.cpp:150] Setting up pool5/drop_7x7_s1
I0312 00:20:52.334022 11137 net.cpp:157] Top shape: 50 1024 1 1 (51200)
I0312 00:20:52.334029 11137 net.cpp:165] Memory required for data: 2804552424
I0312 00:20:52.334035 11137 layer_factory.hpp:77] Creating layer myloss3/classifier
I0312 00:20:52.334046 11137 net.cpp:106] Creating Layer myloss3/classifier
I0312 00:20:52.334053 11137 net.cpp:454] myloss3/classifier <- pool5/7x7_s1
I0312 00:20:52.334066 11137 net.cpp:411] myloss3/classifier -> myloss3/classifier
I0312 00:20:52.336207 11137 net.cpp:150] Setting up myloss3/classifier
I0312 00:20:52.336231 11137 net.cpp:157] Top shape: 50 200 (10000)
I0312 00:20:52.336238 11137 net.cpp:165] Memory required for data: 2804592424
I0312 00:20:52.336251 11137 layer_factory.hpp:77] Creating layer myloss3/classifier_myloss3/classifier_0_split
I0312 00:20:52.336264 11137 net.cpp:106] Creating Layer myloss3/classifier_myloss3/classifier_0_split
I0312 00:20:52.336272 11137 net.cpp:454] myloss3/classifier_myloss3/classifier_0_split <- myloss3/classifier
I0312 00:20:52.336282 11137 net.cpp:411] myloss3/classifier_myloss3/classifier_0_split -> myloss3/classifier_myloss3/classifier_0_split_0
I0312 00:20:52.336293 11137 net.cpp:411] myloss3/classifier_myloss3/classifier_0_split -> myloss3/classifier_myloss3/classifier_0_split_1
I0312 00:20:52.336303 11137 net.cpp:411] myloss3/classifier_myloss3/classifier_0_split -> myloss3/classifier_myloss3/classifier_0_split_2
I0312 00:20:52.336374 11137 net.cpp:150] Setting up myloss3/classifier_myloss3/classifier_0_split
I0312 00:20:52.336385 11137 net.cpp:157] Top shape: 50 200 (10000)
I0312 00:20:52.336397 11137 net.cpp:157] Top shape: 50 200 (10000)
I0312 00:20:52.336405 11137 net.cpp:157] Top shape: 50 200 (10000)
I0312 00:20:52.336411 11137 net.cpp:165] Memory required for data: 2804712424
I0312 00:20:52.336418 11137 layer_factory.hpp:77] Creating layer loss3/loss3
I0312 00:20:52.336427 11137 net.cpp:106] Creating Layer loss3/loss3
I0312 00:20:52.336434 11137 net.cpp:454] loss3/loss3 <- myloss3/classifier_myloss3/classifier_0_split_0
I0312 00:20:52.336442 11137 net.cpp:454] loss3/loss3 <- label_data_1_split_6
…
