…
I0312 02:13:05.102699 12026 net.cpp:322] The NetState phase (0) differed from the phase (1) specified by a rule in layer loss3/top-5
I0312 02:13:05.103857 12026 net.cpp:49] Initializing net from parameters: 
name: "GoogleNet"
state {
  phase: TRAIN
}
layer {
  name: "data"
  type: "Data"
  top: "data"
  top: "label"
  include {
    phase: TRAIN
  }
  transform_param {
    mirror: true
    crop_size: 224
    mean_value: 104
    mean_value: 117
    mean_value: 123
  }
  data_param {
    source: "/data/tinyimage32_train_lmdb"
    batch_size: 24
    backend: LMDB
  }
}
layer {
  name: "conv1/7x7_s2"
  type: "Convolution"
  bottom: "data"
  top: "conv1/7x7_s2"
  param {
    lr_mult: 1
    decay_mult: 1
  }
  param {
    lr_mult: 2
    decay_mult: 0
  }
  convolution_param {
    num_output: 64
    pad: 3
    kernel_size: 7
    stride: 2
    weight_filler {
      type: "xavier"
    }
    bias_filler {
      type: "constant"
      value: 0.2
    }
  }
}
layer {
  name: "conv1/relu_7x7"
  type: "ReLU"
  bottom: "conv1/7x7_s2"
  top: "conv1/7x7_s2"
}
layer {
  name: "pool1/3x3_s2"
  type: "Pooling"
  bottom: "conv1/7x7_s2"
  top: "pool1/3x3_s2"
  pooling_param {
    pool: MAX
    kernel_size: 3
    stride: 2
  }
}
layer {
  name: "pool1/norm1"
  type: "LRN"
  bottom: "pool1/3x3_s2"
  top: "pool1/norm1"
  lrn_param {
    local_size: 5
    alpha: 0.0001
    beta: 0.75
  }
}
layer {
  name: "conv2/3x3_reduce"
  type: "Convolution"
  bottom: "pool1/norm1"
  top: "conv2/3x3_reduce"
  param {
    lr_mult: 1
    decay_mult: 1
  }
  param {
    lr_mult: 2
    decay_mult: 0
  }
  convolution_param {
    num_output: 64
    kernel_size: 1
    weight_filler {
      type: "xavier"
    }
    bias_filler {
      type: "constant"
      value: 0.2
    }
  }
}
layer {
  name: "conv2/relu_3x3_reduce"
  type: "ReLU"
  bottom: "conv2/3x3_reduce"
  top: "conv2/3x3_reduce"
}
layer {
  name: "conv2/3x3"
  type: "Convolution"
  bottom: "conv2/3x3_reduce"
  top: "conv2/3x3"
  param {
    lr_mult: 1
    decay_mult: 1
  }
  param {
    lr_mult: 2
    decay_mult: 0
  }
  convolution_param {
    num_output: 192
    pad: 1
    kernel_size: 3
    weight_filler {
      type: "xavier"
    }
    bias_filler {
      type: "constant"
      value: 0.2
    }
  }
}
layer {
  name: "conv2/relu_3x3"
  type: "ReLU"
  bottom: "conv2/3x3"
  top: "conv2/3x3"
}
layer {
  name: "conv2/norm2"
  type: "LRN"
  bottom: "conv2/3x3"
  top: "conv2/norm2"
  lrn_param {
    local_size: 5
    alpha: 0.0001
    beta: 0.75
  }
}
layer {
  name: "pool2/3x3_s2"
  type: "Pooling"
  bottom: "conv2/norm2"
  top: "pool2/3x3_s2"
  pooling_param {
    pool: MAX
    kernel_size: 3
    stride: 2
  }
}
layer {
  name: "inception_3a/1x1"
  type: "Convolution"
  bottom: "pool2/3x3_s2"
  top: "inception_3a/1x1"
  param {
    lr_mult: 1
    decay_mult: 1
  }
  param {
    lr_mult: 2
    decay_mult: 0
  }
  convolution_param {
    num_output: 64
    kernel_size: 1
    weight_filler {
      type: "xavier"
    }
    bias_filler {
      type: "constant"
      value: 0.2
    }
  }
}
layer {
  name: "inception_3a/relu_1x1"
  type: "ReLU"
  bottom: "inception_3a/1x1"
  top: "inception_3a/1x1"
}
layer {
  name: "inception_3a/3x3_reduce"
  type: "Convolution"
  bottom: "pool2/3x3_s2"
  top: "inception_3a/3x3_reduce"
  param {
    lr_mult: 1
    decay_mult: 1
  }
  param {
    lr_mult: 2
    decay_mult: 0
  }
  convolution_param {
    num_output: 96
    kernel_size: 1
    weight_filler {
      type: "xavier"
    }
    bias_filler {
      type: "constant"
      value: 0.2
    }
  }
}
layer {
  name: "inception_3a/relu_3x3_reduce"
  type: "ReLU"
  bottom: "inception_3a/3x3_reduce"
  top: "inception_3a/3x3_reduce"
}
layer {
  name: "inception_3a/3x3"
  type: "Convolution"
  bottom: "inception_3a/3x3_reduce"
  top: "inception_3a/3x3"
  param {
    lr_mult: 1
    decay_mult: 1
  }
  param {
    lr_mult: 2
    decay_mult: 0
  }
  convolution_param {
    num_output: 128
    pad: 1
    kernel_size: 3
    weight_filler {
      type: "xavier"
    }
    bias_filler {
      type: "constant"
      value: 0.2
    }
  }
}
layer {
  name: "inception_3a/relu_3x3"
  type: "ReLU"
  bottom: "inception_3a/3x3"
  top: "inception_3a/3x3"
}
layer {
  name: "inception_3a/5x5_reduce"
  type: "Convolution"
  bottom: "pool2/3x3_s2"
  top: "inception_3a/5x5_reduce"
  param {
    lr_mult: 1
    decay_mult: 1
  }
  param {
    lr_mult: 2
    decay_mult: 0
  }
  convolution_param {
    num_output: 16
    kernel_size: 1
    weight_filler {
      type: "xavier"
    }
    bias_filler {
      type: "constant"
      value: 0.2
    }
  }
}
layer {
  name: "inception_3a/relu_5x5_reduce"
  type: "ReLU"
  bottom: "inception_3a/5x5_reduce"
  top: "inception_3a/5x5_reduce"
}
layer {
  name: "inception_3a/5x5"
  type: "Convolution"
  bottom: "inception_3a/5x5_reduce"
  top: "inception_3a/5x5"
  param {
    lr_mult: 1
    decay_mult: 1
  }
  param {
    lr_mult: 2
    decay_mult: 0
  }
  convolution_param {
    num_output: 32
    pad: 2
    kernel_size: 5
    weight_filler {
      type: "xavier"
    }
    bias_filler {
      type: "constant"
      value: 0.2
    }
  }
}
layer {
  name: "inception_3a/relu_5x5"
  type: "ReLU"
  bottom: "inception_3a/5x5"
  top: "inception_3a/5x5"
}
layer {
  name: "inception_3a/pool"
  type: "Pooling"
  bottom: "pool2/3x3_s2"
  top: "inception_3a/pool"
  pooling_param {
    pool: MAX
    kernel_size: 3
    stride: 1
    pad: 1
  }
}
layer {
  name: "inception_3a/pool_proj"
  type: "Convolution"
  bottom: "inception_3a/pool"
  top: "inception_3a/pool_proj"
  param {
    lr_mult: 1
    decay_mult: 1
  }
  param {
    lr_mult: 2
    decay_mult: 0
  }
  convolution_param {
    num_output: 32
    kernel_size: 1
    weight_filler {
      type: "xavier"
    }
    bias_filler {
      type: "constant"
      value: 0.2
    }
  }
}
layer {
  name: "inception_3a/relu_pool_proj"
  type: "ReLU"
  bottom: "inception_3a/pool_proj"
  top: "inception_3a/pool_proj"
}
layer {
  name: "inception_3a/output"
  type: "Concat"
  bottom: "inception_3a/1x1"
  bottom: "inception_3a/3x3"
  bottom: "inception_3a/5x5"
  bottom: "inception_3a/pool_proj"
  top: "inception_3a/output"
}
layer {
  name: "inception_3b/1x1"
  type: "Convolution"
  bottom: "inception_3a/output"
  top: "inception_3b/1x1"
  param {
    lr_mult: 1
    decay_mult: 1
  }
  param {
    lr_mult: 2
    decay_mult: 0
  }
  convolution_param {
    num_output: 128
    kernel_size: 1
    weight_filler {
      type: "xavier"
    }
    bias_filler {
      type: "constant"
      value: 0.2
    }
  }
}
layer {
  name: "inception_3b/relu_1x1"
  type: "ReLU"
  bottom: "inception_3b/1x1"
  top: "inception_3b/1x1"
}
layer {
  name: "inception_3b/3x3_reduce"
  type: "Convolution"
  bottom: "inception_3a/output"
  top: "inception_3b/3x3_reduce"
  param {
    lr_mult: 1
    decay_mult: 1
  }
  param {
    lr_mult: 2
    decay_mult: 0
  }
  convolution_param {
    num_output: 128
    kernel_size: 1
    weight_filler {
      type: "xavier"
    }
    bias_filler {
      type: "constant"
      value: 0.2
    }
  }
}
layer {
  name: "inception_3b/relu_3x3_reduce"
  type: "ReLU"
  bottom: "inception_3b/3x3_reduce"
  top: "inception_3b/3x3_reduce"
}
layer {
  name: "inception_3b/3x3"
  type: "Convolution"
  bottom: "inception_3b/3x3_reduce"
  top: "inception_3b/3x3"
  param {
    lr_mult: 1
    decay_mult: 1
  }
  param {
    lr_mult: 2
    decay_mult: 0
  }
  convolution_param {
    num_output: 192
    pad: 1
    kernel_size: 3
    weight_filler {
      type: "xavier"
    }
    bias_filler {
      type: "constant"
      value: 0.2
    }
  }
}
layer {
  name: "inception_3b/relu_3x3"
  type: "ReLU"
  bottom: "inception_3b/3x3"
  top: "inception_3b/3x3"
}
layer {
  name: "inception_3b/5x5_reduce"
  type: "Convolution"
  bottom: "inception_3a/output"
  top: "inception_3b/5x5_reduce"
  param {
    lr_mult: 1
    decay_mult: 1
  }
  param {
    lr_mult: 2
    decay_mult: 0
  }
  convolution_param {
    num_output: 32
    kernel_size: 1
    weight_filler {
      type: "xavier"
    }
    bias_filler {
      type: "constant"
      value: 0.2
    }
  }
}
layer {
  name: "inception_3b/relu_5x5_reduce"
  type: "ReLU"
  bottom: "inception_3b/5x5_reduce"
  top: "inception_3b/5x5_reduce"
}
layer {
  name: "inception_3b/5x5"
  type: "Convolution"
  bottom: "inception_3b/5x5_reduce"
  top: "inception_3b/5x5"
  param {
    lr_mult: 1
    decay_mult: 1
  }
  param {
    lr_mult: 2
    decay_mult: 0
  }
  convolution_param {
    num_output: 96
    pad: 2
    kernel_size: 5
    weight_filler {
      type: "xavier"
    }
    bias_filler {
      type: "constant"
      value: 0.2
    }
  }
}
layer {
  name: "inception_3b/relu_5x5"
  type: "ReLU"
  bottom: "inception_3b/5x5"
  top: "inception_3b/5x5"
}
layer {
  name: "inception_3b/pool"
  type: "Pooling"
  bottom: "inception_3a/output"
  top: "inception_3b/pool"
  pooling_param {
    pool: MAX
    kernel_size: 3
    stride: 1
    pad: 1
  }
}
layer {
  name: "inception_3b/pool_proj"
  type: "Convolution"
  bottom: "inception_3b/pool"
  top: "inception_3b/pool_proj"
  param {
    lr_mult: 1
    decay_mult: 1
  }
  param {
    lr_mult: 2
    decay_mult: 0
  }
  convolution_param {
    num_output: 64
    kernel_size: 1
    weight_filler {
      type: "xavier"
    }
    bias_filler {
      type: "constant"
      value: 0.2
    }
  }
}
layer {
  name: "inception_3b/relu_pool_proj"
  type: "ReLU"
  bottom: "inception_3b/pool_proj"
  top: "inception_3b/pool_proj"
}
layer {
  name: "inception_3b/output"
  type: "Concat"
  bottom: "inception_3b/1x1"
  bottom: "inception_3b/3x3"
  bottom: "inception_3b/5x5"
  bottom: "inception_3b/pool_proj"
  top: "inception_3b/output"
}
layer {
  name: "pool3/3x3_s2"
  type: "Pooling"
  bottom: "inception_3b/output"
  top: "pool3/3x3_s2"
  pooling_param {
    pool: MAX
    kernel_size: 3
    stride: 2
  }
}
layer {
  name: "inception_4a/1x1"
  type: "Convolution"
  bottom: "pool3/3x3_s2"
  top: "inception_4a/1x1"
  param {
    lr_mult: 1
    decay_mult: 1
  }
  param {
    lr_mult: 2
    decay_mult: 0
  }
  convolution_param {
    num_output: 192
    kernel_size: 1
    weight_filler {
      type: "xavier"
    }
    bias_filler {
      type: "constant"
      value: 0.2
    }
  }
}
layer {
  name: "inception_4a/relu_1x1"
  type: "ReLU"
  bottom: "inception_4a/1x1"
  top: "inception_4a/1x1"
}
layer {
  name: "inception_4a/3x3_reduce"
  type: "Convolution"
  bottom: "pool3/3x3_s2"
  top: "inception_4a/3x3_reduce"
  param {
    lr_mult: 1
    decay_mult: 1
  }
  param {
    lr_mult: 2
    decay_mult: 0
  }
  convolution_param {
    num_output: 96
    kernel_size: 1
    weight_filler {
      type: "xavier"
    }
    bias_filler {
      type: "constant"
      value: 0.2
    }
  }
}
layer {
  name: "inception_4a/relu_3x3_reduce"
  type: "ReLU"
  bottom: "inception_4a/3x3_reduce"
  top: "inception_4a/3x3_reduce"
}
layer {
  name: "inception_4a/3x3"
  type: "Convolution"
  bottom: "inception_4a/3x3_reduce"
  top: "inception_4a/3x3"
  param {
    lr_mult: 1
    decay_mult: 1
  }
  param {
    lr_mult: 2
    decay_mult: 0
  }
  convolution_param {
    num_output: 208
    pad: 1
    kernel_size: 3
    weight_filler {
      type: "xavier"
    }
    bias_filler {
      type: "constant"
      value: 0.2
    }
  }
}
layer {
  name: "inception_4a/relu_3x3"
  type: "ReLU"
  bottom: "inception_4a/3x3"
  top: "inception_4a/3x3"
}
layer {
  name: "inception_4a/5x5_reduce"
  type: "Convolution"
  bottom: "pool3/3x3_s2"
  top: "inception_4a/5x5_reduce"
  param {
    lr_mult: 1
    decay_mult: 1
  }
  param {
    lr_mult: 2
    decay_mult: 0
  }
  convolution_param {
    num_output: 16
    kernel_size: 1
    weight_filler {
      type: "xavier"
    }
    bias_filler {
      type: "constant"
      value: 0.2
    }
  }
}
layer {
  name: "inception_4a/relu_5x5_reduce"
  type: "ReLU"
  bottom: "inception_4a/5x5_reduce"
  top: "inception_4a/5x5_reduce"
}
layer {
  name: "inception_4a/5x5"
  type: "Convolution"
  bottom: "inception_4a/5x5_reduce"
  top: "inception_4a/5x5"
  param {
    lr_mult: 1
    decay_mult: 1
  }
  param {
    lr_mult: 2
    decay_mult: 0
  }
  convolution_param {
    num_output: 48
    pad: 2
    kernel_size: 5
    weight_filler {
      type: "xavier"
    }
    bias_filler {
      type: "constant"
      value: 0.2
    }
  }
}
layer {
  name: "inception_4a/relu_5x5"
  type: "ReLU"
  bottom: "inception_4a/5x5"
  top: "inception_4a/5x5"
}
layer {
  name: "inception_4a/pool"
  type: "Pooling"
  bottom: "pool3/3x3_s2"
  top: "inception_4a/pool"
  pooling_param {
    pool: MAX
    kernel_size: 3
    stride: 1
    pad: 1
  }
}
layer {
  name: "inception_4a/pool_proj"
  type: "Convolution"
  bottom: "inception_4a/pool"
  top: "inception_4a/pool_proj"
  param {
    lr_mult: 1
    decay_mult: 1
  }
  param {
    lr_mult: 2
    decay_mult: 0
  }
  convolution_param {
    num_output: 64
    kernel_size: 1
    weight_filler {
      type: "xavier"
    }
    bias_filler {
      type: "constant"
      value: 0.2
    }
  }
}
layer {
  name: "inception_4a/relu_pool_proj"
  type: "ReLU"
  bottom: "inception_4a/pool_proj"
  top: "inception_4a/pool_proj"
}
layer {
  name: "inception_4a/output"
  type: "Concat"
  bottom: "inception_4a/1x1"
  bottom: "inception_4a/3x3"
  bottom: "inception_4a/5x5"
  bottom: "inception_4a/pool_proj"
  top: "inception_4a/output"
}
layer {
  name: "loss1/ave_pool"
  type: "Pooling"
  bottom: "inception_4a/output"
  top: "loss1/ave_pool"
  pooling_param {
    pool: AVE
    kernel_size: 5
    stride: 3
  }
}
layer {
  name: "loss1/conv"
  type: "Convolution"
  bottom: "loss1/ave_pool"
  top: "loss1/conv"
  param {
    lr_mult: 1
    decay_mult: 1
  }
  param {
    lr_mult: 2
    decay_mult: 0
  }
  convolution_param {
    num_output: 128
    kernel_size: 1
    weight_filler {
      type: "xavier"
    }
    bias_filler {
      type: "constant"
      value: 0.2
    }
  }
}
layer {
  name: "loss1/relu_conv"
  type: "ReLU"
  bottom: "loss1/conv"
  top: "loss1/conv"
}
layer {
  name: "loss1/fc"
  type: "InnerProduct"
  bottom: "loss1/conv"
  top: "loss1/fc"
  param {
    lr_mult: 1
    decay_mult: 1
  }
  param {
    lr_mult: 2
    decay_mult: 0
  }
  inner_product_param {
    num_output: 1024
    weight_filler {
      type: "xavier"
    }
    bias_filler {
      type: "constant"
      value: 0.2
    }
  }
}
layer {
  name: "loss1/relu_fc"
  type: "ReLU"
  bottom: "loss1/fc"
  top: "loss1/fc"
}
layer {
  name: "loss1/drop_fc"
  type: "Dropout"
  bottom: "loss1/fc"
  top: "loss1/fc"
  dropout_param {
    dropout_ratio: 0.7
  }
}
layer {
  name: "myloss1/classifier"
  type: "InnerProduct"
  bottom: "loss1/fc"
  top: "myloss1/classifier"
  param {
    lr_mult: 10
    decay_mult: 1
  }
  param {
    lr_mult: 10
    decay_mult: 0
  }
  inner_product_param {
    num_output: 200
    weight_filler {
      type: "xavier"
    }
    bias_filler {
      type: "constant"
      value: 0
    }
  }
}
layer {
  name: "loss1/loss"
  type: "SoftmaxWithLoss"
  bottom: "myloss1/classifier"
  bottom: "label"
  top: "loss1/loss1"
  loss_weight: 0.3
}
layer {
  name: "inception_4b/1x1"
  type: "Convolution"
  bottom: "inception_4a/output"
  top: "inception_4b/1x1"
  param {
    lr_mult: 1
    decay_mult: 1
  }
  param {
    lr_mult: 2
    decay_mult: 0
  }
  convolution_param {
    num_output: 160
    kernel_size: 1
    weight_filler {
      type: "xavier"
    }
    bias_filler {
      type: "constant"
      value: 0.2
    }
  }
}
layer {
  name: "inception_4b/relu_1x1"
  type: "ReLU"
  bottom: "inception_4b/1x1"
  top: "inception_4b/1x1"
}
layer {
  name: "inception_4b/3x3_reduce"
  type: "Convolution"
  bottom: "inception_4a/output"
  top: "inception_4b/3x3_reduce"
  param {
    lr_mult: 1
    decay_mult: 1
  }
  param {
    lr_mult: 2
    decay_mult: 0
  }
  convolution_param {
    num_output: 112
    kernel_size: 1
    weight_filler {
      type: "xavier"
    }
    bias_filler {
      type: "constant"
      value: 0.2
    }
  }
}
layer {
  name: "inception_4b/relu_3x3_reduce"
  type: "ReLU"
  bottom: "inception_4b/3x3_reduce"
  top: "inception_4b/3x3_reduce"
}
layer {
  name: "inception_4b/3x3"
  type: "Convolution"
  bottom: "inception_4b/3x3_reduce"
  top: "inception_4b/3x3"
  param {
    lr_mult: 1
    decay_mult: 1
  }
  param {
    lr_mult: 2
    decay_mult: 0
  }
  convolution_param {
    num_output: 224
    pad: 1
    kernel_size: 3
    weight_filler {
      type: "xavier"
    }
    bias_filler {
      type: "constant"
      value: 0.2
    }
  }
}
layer {
  name: "inception_4b/relu_3x3"
  type: "ReLU"
  bottom: "inception_4b/3x3"
  top: "inception_4b/3x3"
}
layer {
  name: "inception_4b/5x5_reduce"
  type: "Convolution"
  bottom: "inception_4a/output"
  top: "inception_4b/5x5_reduce"
  param {
    lr_mult: 1
    decay_mult: 1
  }
  param {
    lr_mult: 2
    decay_mult: 0
  }
  convolution_param {
    num_output: 24
    kernel_size: 1
    weight_filler {
      type: "xavier"
    }
    bias_filler {
      type: "constant"
      value: 0.2
    }
  }
}
layer {
  name: "inception_4b/relu_5x5_reduce"
  type: "ReLU"
  bottom: "inception_4b/5x5_reduce"
  top: "inception_4b/5x5_reduce"
}
layer {
  name: "inception_4b/5x5"
  type: "Convolution"
  bottom: "inception_4b/5x5_reduce"
  top: "inception_4b/5x5"
  param {
    lr_mult: 1
    decay_mult: 1
  }
  param {
    lr_mult: 2
    decay_mult: 0
  }
  convolution_param {
    num_output: 64
    pad: 2
    kernel_size: 5
    weight_filler {
      type: "xavier"
    }
    bias_filler {
      type: "constant"
      value: 0.2
    }
  }
}
layer {
  name: "inception_4b/relu_5x5"
  type: "ReLU"
  bottom: "inception_4b/5x5"
  top: "inception_4b/5x5"
}
layer {
  name: "inception_4b/pool"
  type: "Pooling"
  bottom: "inception_4a/output"
  top: "inception_4b/pool"
  pooling_param {
    pool: MAX
    kernel_size: 3
    stride: 1
    pad: 1
  }
}
layer {
  name: "inception_4b/pool_proj"
  type: "Convolution"
  bottom: "inception_4b/pool"
  top: "inception_4b/pool_proj"
  param {
    lr_mult: 1
    decay_mult: 1
  }
  param {
    lr_mult: 2
    decay_mult: 0
  }
  convolution_param {
    num_output: 64
    kernel_size: 1
    weight_filler {
      type: "xavier"
    }
    bias_filler {
      type: "constant"
      value: 0.2
    }
  }
}
layer {
  name: "inception_4b/relu_pool_proj"
  type: "ReLU"
  bottom: "inception_4b/pool_proj"
  top: "inception_4b/pool_proj"
}
layer {
  name: "inception_4b/output"
  type: "Concat"
  bottom: "inception_4b/1x1"
  bottom: "inception_4b/3x3"
  bottom: "inception_4b/5x5"
  bottom: "inception_4b/pool_proj"
  top: "inception_4b/output"
}
layer {
  name: "inception_4c/1x1"
  type: "Convolution"
  bottom: "inception_4b/output"
  top: "inception_4c/1x1"
  param {
    lr_mult: 1
    decay_mult: 1
  }
  param {
    lr_mult: 2
    decay_mult: 0
  }
  convolution_param {
    num_output: 128
    kernel_size: 1
    weight_filler {
      type: "xavier"
    }
    bias_filler {
      type: "constant"
      value: 0.2
    }
  }
}
layer {
  name: "inception_4c/relu_1x1"
  type: "ReLU"
  bottom: "inception_4c/1x1"
  top: "inception_4c/1x1"
}
layer {
  name: "inception_4c/3x3_reduce"
  type: "Convolution"
  bottom: "inception_4b/output"
  top: "inception_4c/3x3_reduce"
  param {
    lr_mult: 1
    decay_mult: 1
  }
  param {
    lr_mult: 2
    decay_mult: 0
  }
  convolution_param {
    num_output: 128
    kernel_size: 1
    weight_filler {
      type: "xavier"
    }
    bias_filler {
      type: "constant"
      value: 0.2
    }
  }
}
layer {
  name: "inception_4c/relu_3x3_reduce"
  type: "ReLU"
  bottom: "inception_4c/3x3_reduce"
  top: "inception_4c/3x3_reduce"
}
layer {
  name: "inception_4c/3x3"
  type: "Convolution"
  bottom: "inception_4c/3x3_reduce"
  top: "inception_4c/3x3"
  param {
    lr_mult: 1
    decay_mult: 1
  }
  param {
    lr_mult: 2
    decay_mult: 0
  }
  convolution_param {
    num_output: 256
    pad: 1
    kernel_size: 3
    weight_filler {
      type: "xavier"
    }
    bias_filler {
      type: "constant"
      value: 0.2
    }
  }
}
layer {
  name: "inception_4c/relu_3x3"
  type: "ReLU"
  bottom: "inception_4c/3x3"
  top: "inception_4c/3x3"
}
layer {
  name: "inception_4c/5x5_reduce"
  type: "Convolution"
  bottom: "inception_4b/output"
  top: "inception_4c/5x5_reduce"
  param {
    lr_mult: 1
    decay_mult: 1
  }
  param {
    lr_mult: 2
    decay_mult: 0
  }
  convolution_param {
    num_output: 24
    kernel_size: 1
    weight_filler {
      type: "xavier"
    }
    bias_filler {
      type: "constant"
      value: 0.2
    }
  }
}
layer {
  name: "inception_4c/relu_5x5_reduce"
  type: "ReLU"
  bottom: "inception_4c/5x5_reduce"
  top: "inception_4c/5x5_reduce"
}
layer {
  name: "inception_4c/5x5"
  type: "Convolution"
  bottom: "inception_4c/5x5_reduce"
  top: "inception_4c/5x5"
  param {
    lr_mult: 1
    decay_mult: 1
  }
  param {
    lr_mult: 2
    decay_mult: 0
  }
  convolution_param {
    num_output: 64
    pad: 2
    kernel_size: 5
    weight_filler {
      type: "xavier"
    }
    bias_filler {
      type: "constant"
      value: 0.2
    }
  }
}
layer {
  name: "inception_4c/relu_5x5"
  type: "ReLU"
  bottom: "inception_4c/5x5"
  top: "inception_4c/5x5"
}
layer {
  name: "inception_4c/pool"
  type: "Pooling"
  bottom: "inception_4b/output"
  top: "inception_4c/pool"
  pooling_param {
    pool: MAX
    kernel_size: 3
    stride: 1
    pad: 1
  }
}
layer {
  name: "inception_4c/pool_proj"
  type: "Convolution"
  bottom: "inception_4c/pool"
  top: "inception_4c/pool_proj"
  param {
    lr_mult: 1
    decay_mult: 1
  }
  param {
    lr_mult: 2
    decay_mult: 0
  }
  convolution_param {
    num_output: 64
    kernel_size: 1
    weight_filler {
      type: "xavier"
    }
    bias_filler {
      type: "constant"
      value: 0.2
    }
  }
}
layer {
  name: "inception_4c/relu_pool_proj"
  type: "ReLU"
  bottom: "inception_4c/pool_proj"
  top: "inception_4c/pool_proj"
}
layer {
  name: "inception_4c/output"
  type: "Concat"
  bottom: "inception_4c/1x1"
  bottom: "inception_4c/3x3"
  bottom: "inception_4c/5x5"
  bottom: "inception_4c/pool_proj"
  top: "inception_4c/output"
}
layer {
  name: "inception_4d/1x1"
  type: "Convolution"
  bottom: "inception_4c/output"
  top: "inception_4d/1x1"
  param {
    lr_mult: 1
    decay_mult: 1
  }
  param {
    lr_mult: 2
    decay_mult: 0
  }
  convolution_param {
    num_output: 112
    kernel_size: 1
    weight_filler {
      type: "xavier"
    }
    bias_filler {
      type: "constant"
      value: 0.2
    }
  }
}
layer {
  name: "inception_4d/relu_1x1"
  type: "ReLU"
  bottom: "inception_4d/1x1"
  top: "inception_4d/1x1"
}
layer {
  name: "inception_4d/3x3_reduce"
  type: "Convolution"
  bottom: "inception_4c/output"
  top: "inception_4d/3x3_reduce"
  param {
    lr_mult: 1
    decay_mult: 1
  }
  param {
    lr_mult: 2
    decay_mult: 0
  }
  convolution_param {
    num_output: 144
    kernel_size: 1
    weight_filler {
      type: "xavier"
    }
    bias_filler {
      type: "constant"
      value: 0.2
    }
  }
}
layer {
  name: "inception_4d/relu_3x3_reduce"
  type: "ReLU"
  bottom: "inception_4d/3x3_reduce"
  top: "inception_4d/3x3_reduce"
}
layer {
  name: "inception_4d/3x3"
  type: "Convolution"
  bottom: "inception_4d/3x3_reduce"
  top: "inception_4d/3x3"
  param {
    lr_mult: 1
    decay_mult: 1
  }
  param {
    lr_mult: 2
    decay_mult: 0
  }
  convolution_param {
    num_output: 288
    pad: 1
    kernel_size: 3
    weight_filler {
      type: "xavier"
    }
    bias_filler {
      type: "constant"
      value: 0.2
    }
  }
}
layer {
  name: "inception_4d/relu_3x3"
  type: "ReLU"
  bottom: "inception_4d/3x3"
  top: "inception_4d/3x3"
}
layer {
  name: "inception_4d/5x5_reduce"
  type: "Convolution"
  bottom: "inception_4c/output"
  top: "inception_4d/5x5_reduce"
  param {
    lr_mult: 1
    decay_mult: 1
  }
  param {
    lr_mult: 2
    decay_mult: 0
  }
  convolution_param {
    num_output: 32
    kernel_size: 1
    weight_filler {
      type: "xavier"
    }
    bias_filler {
      type: "constant"
      value: 0.2
    }
  }
}
layer {
  name: "inception_4d/relu_5x5_reduce"
  type: "ReLU"
  bottom: "inception_4d/5x5_reduce"
  top: "inception_4d/5x5_reduce"
}
layer {
  name: "inception_4d/5x5"
  type: "Convolution"
  bottom: "inception_4d/5x5_reduce"
  top: "inception_4d/5x5"
  param {
    lr_mult: 1
    decay_mult: 1
  }
  param {
    lr_mult: 2
    decay_mult: 0
  }
  convolution_param {
    num_output: 64
    pad: 2
    kernel_size: 5
    weight_filler {
      type: "xavier"
    }
    bias_filler {
      type: "constant"
      value: 0.2
    }
  }
}
layer {
  name: "inception_4d/relu_5x5"
  type: "ReLU"
  bottom: "inception_4d/5x5"
  top: "inception_4d/5x5"
}
layer {
  name: "inception_4d/pool"
  type: "Pooling"
  bottom: "inception_4c/output"
  top: "inception_4d/pool"
  pooling_param {
    pool: MAX
    kernel_size: 3
    stride: 1
    pad: 1
  }
}
layer {
  name: "inception_4d/pool_proj"
  type: "Convolution"
  bottom: "inception_4d/pool"
  top: "inception_4d/pool_proj"
  param {
    lr_mult: 1
    decay_mult: 1
  }
  param {
    lr_mult: 2
    decay_mult: 0
  }
  convolution_param {
    num_output: 64
    kernel_size: 1
    weight_filler {
      type: "xavier"
    }
    bias_filler {
      type: "constant"
      value: 0.2
    }
  }
}
layer {
  name: "inception_4d/relu_pool_proj"
  type: "ReLU"
  bottom: "inception_4d/pool_proj"
  top: "inception_4d/pool_proj"
}
layer {
  name: "inception_4d/output"
  type: "Concat"
  bottom: "inception_4d/1x1"
  bottom: "inception_4d/3x3"
  bottom: "inception_4d/5x5"
  bottom: "inception_4d/pool_proj"
  top: "inception_4d/output"
}
layer {
  name: "loss2/ave_pool"
  type: "Pooling"
  bottom: "inception_4d/output"
  top: "loss2/ave_pool"
  pooling_param {
    pool: AVE
    kernel_size: 5
    stride: 3
  }
}
layer {
  name: "loss2/conv"
  type: "Convolution"
  bottom: "loss2/ave_pool"
  top: "loss2/conv"
  param {
    lr_mult: 1
    decay_mult: 1
  }
  param {
    lr_mult: 2
    decay_mult: 0
  }
  convolution_param {
    num_output: 128
    kernel_size: 1
    weight_filler {
      type: "xavier"
    }
    bias_filler {
      type: "constant"
      value: 0.2
    }
  }
}
layer {
  name: "loss2/relu_conv"
  type: "ReLU"
  bottom: "loss2/conv"
  top: "loss2/conv"
}
layer {
  name: "loss2/fc"
  type: "InnerProduct"
  bottom: "loss2/conv"
  top: "loss2/fc"
  param {
    lr_mult: 1
    decay_mult: 1
  }
  param {
    lr_mult: 2
    decay_mult: 0
  }
  inner_product_param {
    num_output: 1024
    weight_filler {
      type: "xavier"
    }
    bias_filler {
      type: "constant"
      value: 0.2
    }
  }
}
layer {
  name: "loss2/relu_fc"
  type: "ReLU"
  bottom: "loss2/fc"
  top: "loss2/fc"
}
layer {
  name: "loss2/drop_fc"
  type: "Dropout"
  bottom: "loss2/fc"
  top: "loss2/fc"
  dropout_param {
    dropout_ratio: 0.7
  }
}
layer {
  name: "myloss2/classifier"
  type: "InnerProduct"
  bottom: "loss2/fc"
  top: "myloss2/classifier"
  param {
    lr_mult: 10
    decay_mult: 1
  }
  param {
    lr_mult: 10
    decay_mult: 0
  }
  inner_product_param {
    num_output: 200
    weight_filler {
      type: "xavier"
    }
    bias_filler {
      type: "constant"
      value: 0
    }
  }
}
layer {
  name: "loss2/loss"
  type: "SoftmaxWithLoss"
  bottom: "myloss2/classifier"
  bottom: "label"
  top: "loss2/loss1"
  loss_weight: 0.3
}
layer {
  name: "inception_4e/1x1"
  type: "Convolution"
  bottom: "inception_4d/output"
  top: "inception_4e/1x1"
  param {
    lr_mult: 1
    decay_mult: 1
  }
  param {
    lr_mult: 2
    decay_mult: 0
  }
  convolution_param {
    num_output: 256
    kernel_size: 1
    weight_filler {
      type: "xavier"
    }
    bias_filler {
      type: "constant"
      value: 0.2
    }
  }
}
layer {
  name: "inception_4e/relu_1x1"
  type: "ReLU"
  bottom: "inception_4e/1x1"
  top: "inception_4e/1x1"
}
layer {
  name: "inception_4e/3x3_reduce"
  type: "Convolution"
  bottom: "inception_4d/output"
  top: "inception_4e/3x3_reduce"
  param {
    lr_mult: 1
    decay_mult: 1
  }
  param {
    lr_mult: 2
    decay_mult: 0
  }
  convolution_param {
    num_output: 160
    kernel_size: 1
    weight_filler {
      type: "xavier"
    }
    bias_filler {
      type: "constant"
      value: 0.2
    }
  }
}
layer {
  name: "inception_4e/relu_3x3_reduce"
  type: "ReLU"
  bottom: "inception_4e/3x3_reduce"
  top: "inception_4e/3x3_reduce"
}
layer {
  name: "inception_4e/3x3"
  type: "Convolution"
  bottom: "inception_4e/3x3_reduce"
  top: "inception_4e/3x3"
  param {
    lr_mult: 1
    decay_mult: 1
  }
  param {
    lr_mult: 2
    decay_mult: 0
  }
  convolution_param {
    num_output: 320
    pad: 1
    kernel_size: 3
    weight_filler {
      type: "xavier"
    }
    bias_filler {
      type: "constant"
      value: 0.2
    }
  }
}
layer {
  name: "inception_4e/relu_3x3"
  type: "ReLU"
  bottom: "inception_4e/3x3"
  top: "inception_4e/3x3"
}
layer {
  name: "inception_4e/5x5_reduce"
  type: "Convolution"
  bottom: "inception_4d/output"
  top: "inception_4e/5x5_reduce"
  param {
    lr_mult: 1
    decay_mult: 1
  }
  param {
    lr_mult: 2
    decay_mult: 0
  }
  convolution_param {
    num_output: 32
    kernel_size: 1
    weight_filler {
      type: "xavier"
    }
    bias_filler {
      type: "constant"
      value: 0.2
    }
  }
}
layer {
  name: "inception_4e/relu_5x5_reduce"
  type: "ReLU"
  bottom: "inception_4e/5x5_reduce"
  top: "inception_4e/5x5_reduce"
}
layer {
  name: "inception_4e/5x5"
  type: "Convolution"
  bottom: "inception_4e/5x5_reduce"
  top: "inception_4e/5x5"
  param {
    lr_mult: 1
    decay_mult: 1
  }
  param {
    lr_mult: 2
    decay_mult: 0
  }
  convolution_param {
    num_output: 128
    pad: 2
    kernel_size: 5
    weight_filler {
      type: "xavier"
    }
    bias_filler {
      type: "constant"
      value: 0.2
    }
  }
}
layer {
  name: "inception_4e/relu_5x5"
  type: "ReLU"
  bottom: "inception_4e/5x5"
  top: "inception_4e/5x5"
}
layer {
  name: "inception_4e/pool"
  type: "Pooling"
  bottom: "inception_4d/output"
  top: "inception_4e/pool"
  pooling_param {
    pool: MAX
    kernel_size: 3
    strid
I0312 02:13:05.104768 12026 layer_factory.hpp:77] Creating layer data
I0312 02:13:05.105264 12026 net.cpp:106] Creating Layer data
I0312 02:13:05.105324 12026 net.cpp:411] data -> data
I0312 02:13:05.105381 12026 net.cpp:411] data -> label
I0312 02:13:05.108232 12032 db_lmdb.cpp:38] Opened lmdb /data/tinyimage32_train_lmdb
I0312 02:13:05.124092 12026 data_layer.cpp:41] output data size: 24,3,224,224
I0312 02:13:05.151288 12026 net.cpp:150] Setting up data
I0312 02:13:05.151353 12026 net.cpp:157] Top shape: 24 3 224 224 (3612672)
I0312 02:13:05.151365 12026 net.cpp:157] Top shape: 24 (24)
I0312 02:13:05.151371 12026 net.cpp:165] Memory required for data: 14450784
I0312 02:13:05.151386 12026 layer_factory.hpp:77] Creating layer label_data_1_split
I0312 02:13:05.151404 12026 net.cpp:106] Creating Layer label_data_1_split
I0312 02:13:05.151417 12026 net.cpp:454] label_data_1_split <- label
I0312 02:13:05.151440 12026 net.cpp:411] label_data_1_split -> label_data_1_split_0
I0312 02:13:05.151458 12026 net.cpp:411] label_data_1_split -> label_data_1_split_1
I0312 02:13:05.151468 12026 net.cpp:411] label_data_1_split -> label_data_1_split_2
I0312 02:13:05.151532 12026 net.cpp:150] Setting up label_data_1_split
I0312 02:13:05.151557 12026 net.cpp:157] Top shape: 24 (24)
I0312 02:13:05.151571 12026 net.cpp:157] Top shape: 24 (24)
I0312 02:13:05.151600 12026 net.cpp:157] Top shape: 24 (24)
I0312 02:13:05.151610 12026 net.cpp:165] Memory required for data: 14451072
I0312 02:13:05.151621 12026 layer_factory.hpp:77] Creating layer conv1/7x7_s2
I0312 02:13:05.151656 12026 net.cpp:106] Creating Layer conv1/7x7_s2
I0312 02:13:05.151665 12026 net.cpp:454] conv1/7x7_s2 <- data
I0312 02:13:05.151675 12026 net.cpp:411] conv1/7x7_s2 -> conv1/7x7_s2
I0312 02:13:05.166729 12033 blocking_queue.cpp:50] Waiting for data
I0312 02:13:05.291146 12026 net.cpp:150] Setting up conv1/7x7_s2
I0312 02:13:05.291193 12026 net.cpp:157] Top shape: 24 64 112 112 (19267584)
I0312 02:13:05.291201 12026 net.cpp:165] Memory required for data: 91521408
I0312 02:13:05.291230 12026 layer_factory.hpp:77] Creating layer conv1/relu_7x7
I0312 02:13:05.291249 12026 net.cpp:106] Creating Layer conv1/relu_7x7
I0312 02:13:05.291259 12026 net.cpp:454] conv1/relu_7x7 <- conv1/7x7_s2
I0312 02:13:05.291270 12026 net.cpp:397] conv1/relu_7x7 -> conv1/7x7_s2 (in-place)
I0312 02:13:05.291416 12026 net.cpp:150] Setting up conv1/relu_7x7
I0312 02:13:05.291431 12026 net.cpp:157] Top shape: 24 64 112 112 (19267584)
I0312 02:13:05.291438 12026 net.cpp:165] Memory required for data: 168591744
I0312 02:13:05.291445 12026 layer_factory.hpp:77] Creating layer pool1/3x3_s2
I0312 02:13:05.291461 12026 net.cpp:106] Creating Layer pool1/3x3_s2
I0312 02:13:05.291470 12026 net.cpp:454] pool1/3x3_s2 <- conv1/7x7_s2
I0312 02:13:05.291479 12026 net.cpp:411] pool1/3x3_s2 -> pool1/3x3_s2
I0312 02:13:05.291543 12026 net.cpp:150] Setting up pool1/3x3_s2
I0312 02:13:05.291563 12026 net.cpp:157] Top shape: 24 64 56 56 (4816896)
I0312 02:13:05.291569 12026 net.cpp:165] Memory required for data: 187859328
I0312 02:13:05.291576 12026 layer_factory.hpp:77] Creating layer pool1/norm1
I0312 02:13:05.291596 12026 net.cpp:106] Creating Layer pool1/norm1
I0312 02:13:05.291604 12026 net.cpp:454] pool1/norm1 <- pool1/3x3_s2
I0312 02:13:05.291613 12026 net.cpp:411] pool1/norm1 -> pool1/norm1
I0312 02:13:05.291887 12026 net.cpp:150] Setting up pool1/norm1
I0312 02:13:05.291908 12026 net.cpp:157] Top shape: 24 64 56 56 (4816896)
I0312 02:13:05.291915 12026 net.cpp:165] Memory required for data: 207126912
I0312 02:13:05.291923 12026 layer_factory.hpp:77] Creating layer conv2/3x3_reduce
I0312 02:13:05.291940 12026 net.cpp:106] Creating Layer conv2/3x3_reduce
I0312 02:13:05.291949 12026 net.cpp:454] conv2/3x3_reduce <- pool1/norm1
I0312 02:13:05.291959 12026 net.cpp:411] conv2/3x3_reduce -> conv2/3x3_reduce
I0312 02:13:05.293485 12026 net.cpp:150] Setting up conv2/3x3_reduce
I0312 02:13:05.293505 12026 net.cpp:157] Top shape: 24 64 56 56 (4816896)
I0312 02:13:05.293512 12026 net.cpp:165] Memory required for data: 226394496
I0312 02:13:05.293527 12026 layer_factory.hpp:77] Creating layer conv2/relu_3x3_reduce
I0312 02:13:05.293537 12026 net.cpp:106] Creating Layer conv2/relu_3x3_reduce
I0312 02:13:05.293545 12026 net.cpp:454] conv2/relu_3x3_reduce <- conv2/3x3_reduce
I0312 02:13:05.293553 12026 net.cpp:397] conv2/relu_3x3_reduce -> conv2/3x3_reduce (in-place)
I0312 02:13:05.293723 12026 net.cpp:150] Setting up conv2/relu_3x3_reduce
I0312 02:13:05.293740 12026 net.cpp:157] Top shape: 24 64 56 56 (4816896)
I0312 02:13:05.293746 12026 net.cpp:165] Memory required for data: 245662080
I0312 02:13:05.293753 12026 layer_factory.hpp:77] Creating layer conv2/3x3
I0312 02:13:05.293773 12026 net.cpp:106] Creating Layer conv2/3x3
I0312 02:13:05.293782 12026 net.cpp:454] conv2/3x3 <- conv2/3x3_reduce
I0312 02:13:05.293797 12026 net.cpp:411] conv2/3x3 -> conv2/3x3
I0312 02:13:05.296262 12026 net.cpp:150] Setting up conv2/3x3
I0312 02:13:05.296298 12026 net.cpp:157] Top shape: 24 192 56 56 (14450688)
I0312 02:13:05.296308 12026 net.cpp:165] Memory required for data: 303464832
I0312 02:13:05.296324 12026 layer_factory.hpp:77] Creating layer conv2/relu_3x3
I0312 02:13:05.296339 12026 net.cpp:106] Creating Layer conv2/relu_3x3
I0312 02:13:05.296357 12026 net.cpp:454] conv2/relu_3x3 <- conv2/3x3
I0312 02:13:05.296366 12026 net.cpp:397] conv2/relu_3x3 -> conv2/3x3 (in-place)
I0312 02:13:05.296545 12026 net.cpp:150] Setting up conv2/relu_3x3
I0312 02:13:05.296561 12026 net.cpp:157] Top shape: 24 192 56 56 (14450688)
I0312 02:13:05.296566 12026 net.cpp:165] Memory required for data: 361267584
I0312 02:13:05.296573 12026 layer_factory.hpp:77] Creating layer conv2/norm2
I0312 02:13:05.296586 12026 net.cpp:106] Creating Layer conv2/norm2
I0312 02:13:05.296594 12026 net.cpp:454] conv2/norm2 <- conv2/3x3
I0312 02:13:05.296603 12026 net.cpp:411] conv2/norm2 -> conv2/norm2
I0312 02:13:05.296887 12026 net.cpp:150] Setting up conv2/norm2
I0312 02:13:05.296905 12026 net.cpp:157] Top shape: 24 192 56 56 (14450688)
I0312 02:13:05.296911 12026 net.cpp:165] Memory required for data: 419070336
I0312 02:13:05.296917 12026 layer_factory.hpp:77] Creating layer pool2/3x3_s2
I0312 02:13:05.296928 12026 net.cpp:106] Creating Layer pool2/3x3_s2
I0312 02:13:05.296936 12026 net.cpp:454] pool2/3x3_s2 <- conv2/norm2
I0312 02:13:05.296949 12026 net.cpp:411] pool2/3x3_s2 -> pool2/3x3_s2
I0312 02:13:05.296998 12026 net.cpp:150] Setting up pool2/3x3_s2
I0312 02:13:05.297010 12026 net.cpp:157] Top shape: 24 192 28 28 (3612672)
I0312 02:13:05.297016 12026 net.cpp:165] Memory required for data: 433521024
I0312 02:13:05.297022 12026 layer_factory.hpp:77] Creating layer pool2/3x3_s2_pool2/3x3_s2_0_split
I0312 02:13:05.297036 12026 net.cpp:106] Creating Layer pool2/3x3_s2_pool2/3x3_s2_0_split
I0312 02:13:05.297044 12026 net.cpp:454] pool2/3x3_s2_pool2/3x3_s2_0_split <- pool2/3x3_s2
I0312 02:13:05.297052 12026 net.cpp:411] pool2/3x3_s2_pool2/3x3_s2_0_split -> pool2/3x3_s2_pool2/3x3_s2_0_split_0
I0312 02:13:05.297062 12026 net.cpp:411] pool2/3x3_s2_pool2/3x3_s2_0_split -> pool2/3x3_s2_pool2/3x3_s2_0_split_1
I0312 02:13:05.297077 12026 net.cpp:411] pool2/3x3_s2_pool2/3x3_s2_0_split -> pool2/3x3_s2_pool2/3x3_s2_0_split_2
I0312 02:13:05.297087 12026 net.cpp:411] pool2/3x3_s2_pool2/3x3_s2_0_split -> pool2/3x3_s2_pool2/3x3_s2_0_split_3
I0312 02:13:05.297166 12026 net.cpp:150] Setting up pool2/3x3_s2_pool2/3x3_s2_0_split
I0312 02:13:05.297181 12026 net.cpp:157] Top shape: 24 192 28 28 (3612672)
I0312 02:13:05.297191 12026 net.cpp:157] Top shape: 24 192 28 28 (3612672)
I0312 02:13:05.297204 12026 net.cpp:157] Top shape: 24 192 28 28 (3612672)
I0312 02:13:05.297219 12026 net.cpp:157] Top shape: 24 192 28 28 (3612672)
I0312 02:13:05.297226 12026 net.cpp:165] Memory required for data: 491323776
I0312 02:13:05.297233 12026 layer_factory.hpp:77] Creating layer inception_3a/1x1
I0312 02:13:05.297250 12026 net.cpp:106] Creating Layer inception_3a/1x1
I0312 02:13:05.297257 12026 net.cpp:454] inception_3a/1x1 <- pool2/3x3_s2_pool2/3x3_s2_0_split_0
I0312 02:13:05.297271 12026 net.cpp:411] inception_3a/1x1 -> inception_3a/1x1
I0312 02:13:05.298985 12026 net.cpp:150] Setting up inception_3a/1x1
I0312 02:13:05.299006 12026 net.cpp:157] Top shape: 24 64 28 28 (1204224)
I0312 02:13:05.299013 12026 net.cpp:165] Memory required for data: 496140672
I0312 02:13:05.299024 12026 layer_factory.hpp:77] Creating layer inception_3a/relu_1x1
I0312 02:13:05.299036 12026 net.cpp:106] Creating Layer inception_3a/relu_1x1
I0312 02:13:05.299042 12026 net.cpp:454] inception_3a/relu_1x1 <- inception_3a/1x1
I0312 02:13:05.299057 12026 net.cpp:397] inception_3a/relu_1x1 -> inception_3a/1x1 (in-place)
I0312 02:13:05.299227 12026 net.cpp:150] Setting up inception_3a/relu_1x1
I0312 02:13:05.299245 12026 net.cpp:157] Top shape: 24 64 28 28 (1204224)
I0312 02:13:05.299257 12026 net.cpp:165] Memory required for data: 500957568
I0312 02:13:05.299273 12026 layer_factory.hpp:77] Creating layer inception_3a/3x3_reduce
I0312 02:13:05.299294 12026 net.cpp:106] Creating Layer inception_3a/3x3_reduce
I0312 02:13:05.299302 12026 net.cpp:454] inception_3a/3x3_reduce <- pool2/3x3_s2_pool2/3x3_s2_0_split_1
I0312 02:13:05.299312 12026 net.cpp:411] inception_3a/3x3_reduce -> inception_3a/3x3_reduce
I0312 02:13:05.301022 12026 net.cpp:150] Setting up inception_3a/3x3_reduce
I0312 02:13:05.301045 12026 net.cpp:157] Top shape: 24 96 28 28 (1806336)
I0312 02:13:05.301060 12026 net.cpp:165] Memory required for data: 508182912
I0312 02:13:05.301075 12026 layer_factory.hpp:77] Creating layer inception_3a/relu_3x3_reduce
I0312 02:13:05.301090 12026 net.cpp:106] Creating Layer inception_3a/relu_3x3_reduce
I0312 02:13:05.301098 12026 net.cpp:454] inception_3a/relu_3x3_reduce <- inception_3a/3x3_reduce
I0312 02:13:05.301107 12026 net.cpp:397] inception_3a/relu_3x3_reduce -> inception_3a/3x3_reduce (in-place)
I0312 02:13:05.301364 12026 net.cpp:150] Setting up inception_3a/relu_3x3_reduce
I0312 02:13:05.301384 12026 net.cpp:157] Top shape: 24 96 28 28 (1806336)
I0312 02:13:05.301393 12026 net.cpp:165] Memory required for data: 515408256
I0312 02:13:05.301404 12026 layer_factory.hpp:77] Creating layer inception_3a/3x3
I0312 02:13:05.301429 12026 net.cpp:106] Creating Layer inception_3a/3x3
I0312 02:13:05.301440 12026 net.cpp:454] inception_3a/3x3 <- inception_3a/3x3_reduce
I0312 02:13:05.301452 12026 net.cpp:411] inception_3a/3x3 -> inception_3a/3x3
I0312 02:13:05.303184 12026 net.cpp:150] Setting up inception_3a/3x3
I0312 02:13:05.303202 12026 net.cpp:157] Top shape: 24 128 28 28 (2408448)
I0312 02:13:05.303210 12026 net.cpp:165] Memory required for data: 525042048
I0312 02:13:05.303220 12026 layer_factory.hpp:77] Creating layer inception_3a/relu_3x3
I0312 02:13:05.303233 12026 net.cpp:106] Creating Layer inception_3a/relu_3x3
I0312 02:13:05.303241 12026 net.cpp:454] inception_3a/relu_3x3 <- inception_3a/3x3
I0312 02:13:05.303254 12026 net.cpp:397] inception_3a/relu_3x3 -> inception_3a/3x3 (in-place)
I0312 02:13:05.303505 12026 net.cpp:150] Setting up inception_3a/relu_3x3
I0312 02:13:05.303530 12026 net.cpp:157] Top shape: 24 128 28 28 (2408448)
I0312 02:13:05.303544 12026 net.cpp:165] Memory required for data: 534675840
I0312 02:13:05.303551 12026 layer_factory.hpp:77] Creating layer inception_3a/5x5_reduce
I0312 02:13:05.303568 12026 net.cpp:106] Creating Layer inception_3a/5x5_reduce
I0312 02:13:05.303582 12026 net.cpp:454] inception_3a/5x5_reduce <- pool2/3x3_s2_pool2/3x3_s2_0_split_2
I0312 02:13:05.303602 12026 net.cpp:411] inception_3a/5x5_reduce -> inception_3a/5x5_reduce
I0312 02:13:05.304597 12026 net.cpp:150] Setting up inception_3a/5x5_reduce
I0312 02:13:05.304620 12026 net.cpp:157] Top shape: 24 16 28 28 (301056)
I0312 02:13:05.304625 12026 net.cpp:165] Memory required for data: 535880064
I0312 02:13:05.304637 12026 layer_factory.hpp:77] Creating layer inception_3a/relu_5x5_reduce
I0312 02:13:05.304651 12026 net.cpp:106] Creating Layer inception_3a/relu_5x5_reduce
I0312 02:13:05.304658 12026 net.cpp:454] inception_3a/relu_5x5_reduce <- inception_3a/5x5_reduce
I0312 02:13:05.304667 12026 net.cpp:397] inception_3a/relu_5x5_reduce -> inception_3a/5x5_reduce (in-place)
I0312 02:13:05.304939 12026 net.cpp:150] Setting up inception_3a/relu_5x5_reduce
I0312 02:13:05.304955 12026 net.cpp:157] Top shape: 24 16 28 28 (301056)
I0312 02:13:05.304961 12026 net.cpp:165] Memory required for data: 537084288
I0312 02:13:05.304968 12026 layer_factory.hpp:77] Creating layer inception_3a/5x5
I0312 02:13:05.304990 12026 net.cpp:106] Creating Layer inception_3a/5x5
I0312 02:13:05.304997 12026 net.cpp:454] inception_3a/5x5 <- inception_3a/5x5_reduce
I0312 02:13:05.305009 12026 net.cpp:411] inception_3a/5x5 -> inception_3a/5x5
I0312 02:13:05.306195 12026 net.cpp:150] Setting up inception_3a/5x5
I0312 02:13:05.306213 12026 net.cpp:157] Top shape: 24 32 28 28 (602112)
I0312 02:13:05.306221 12026 net.cpp:165] Memory required for data: 539492736
I0312 02:13:05.306231 12026 layer_factory.hpp:77] Creating layer inception_3a/relu_5x5
I0312 02:13:05.306246 12026 net.cpp:106] Creating Layer inception_3a/relu_5x5
I0312 02:13:05.306252 12026 net.cpp:454] inception_3a/relu_5x5 <- inception_3a/5x5
I0312 02:13:05.306262 12026 net.cpp:397] inception_3a/relu_5x5 -> inception_3a/5x5 (in-place)
I0312 02:13:05.306522 12026 net.cpp:150] Setting up inception_3a/relu_5x5
I0312 02:13:05.306538 12026 net.cpp:157] Top shape: 24 32 28 28 (602112)
I0312 02:13:05.306553 12026 net.cpp:165] Memory required for data: 541901184
I0312 02:13:05.306571 12026 layer_factory.hpp:77] Creating layer inception_3a/pool
I0312 02:13:05.306587 12026 net.cpp:106] Creating Layer inception_3a/pool
I0312 02:13:05.306602 12026 net.cpp:454] inception_3a/pool <- pool2/3x3_s2_pool2/3x3_s2_0_split_3
I0312 02:13:05.306617 12026 net.cpp:411] inception_3a/pool -> inception_3a/pool
I0312 02:13:05.306679 12026 net.cpp:150] Setting up inception_3a/pool
I0312 02:13:05.306694 12026 net.cpp:157] Top shape: 24 192 28 28 (3612672)
I0312 02:13:05.306699 12026 net.cpp:165] Memory required for data: 556351872
I0312 02:13:05.306706 12026 layer_factory.hpp:77] Creating layer inception_3a/pool_proj
I0312 02:13:05.306725 12026 net.cpp:106] Creating Layer inception_3a/pool_proj
I0312 02:13:05.306732 12026 net.cpp:454] inception_3a/pool_proj <- inception_3a/pool
I0312 02:13:05.306757 12026 net.cpp:411] inception_3a/pool_proj -> inception_3a/pool_proj
I0312 02:13:05.307692 12026 net.cpp:150] Setting up inception_3a/pool_proj
I0312 02:13:05.307709 12026 net.cpp:157] Top shape: 24 32 28 28 (602112)
I0312 02:13:05.307716 12026 net.cpp:165] Memory required for data: 558760320
I0312 02:13:05.307732 12026 layer_factory.hpp:77] Creating layer inception_3a/relu_pool_proj
I0312 02:13:05.307745 12026 net.cpp:106] Creating Layer inception_3a/relu_pool_proj
I0312 02:13:05.307754 12026 net.cpp:454] inception_3a/relu_pool_proj <- inception_3a/pool_proj
I0312 02:13:05.307762 12026 net.cpp:397] inception_3a/relu_pool_proj -> inception_3a/pool_proj (in-place)
I0312 02:13:05.308037 12026 net.cpp:150] Setting up inception_3a/relu_pool_proj
I0312 02:13:05.308054 12026 net.cpp:157] Top shape: 24 32 28 28 (602112)
I0312 02:13:05.308063 12026 net.cpp:165] Memory required for data: 561168768
I0312 02:13:05.308070 12026 layer_factory.hpp:77] Creating layer inception_3a/output
I0312 02:13:05.308094 12026 net.cpp:106] Creating Layer inception_3a/output
I0312 02:13:05.308101 12026 net.cpp:454] inception_3a/output <- inception_3a/1x1
I0312 02:13:05.308109 12026 net.cpp:454] inception_3a/output <- inception_3a/3x3
I0312 02:13:05.308117 12026 net.cpp:454] inception_3a/output <- inception_3a/5x5
I0312 02:13:05.308125 12026 net.cpp:454] inception_3a/output <- inception_3a/pool_proj
I0312 02:13:05.308132 12026 net.cpp:411] inception_3a/output -> inception_3a/output
I0312 02:13:05.308173 12026 net.cpp:150] Setting up inception_3a/output
I0312 02:13:05.308188 12026 net.cpp:157] Top shape: 24 256 28 28 (4816896)
I0312 02:13:05.308195 12026 net.cpp:165] Memory required for data: 580436352
I0312 02:13:05.308202 12026 layer_factory.hpp:77] Creating layer inception_3a/output_inception_3a/output_0_split
I0312 02:13:05.308212 12026 net.cpp:106] Creating Layer inception_3a/output_inception_3a/output_0_split
I0312 02:13:05.308218 12026 net.cpp:454] inception_3a/output_inception_3a/output_0_split <- inception_3a/output
I0312 02:13:05.308229 12026 net.cpp:411] inception_3a/output_inception_3a/output_0_split -> inception_3a/output_inception_3a/output_0_split_0
I0312 02:13:05.308239 12026 net.cpp:411] inception_3a/output_inception_3a/output_0_split -> inception_3a/output_inception_3a/output_0_split_1
I0312 02:13:05.308249 12026 net.cpp:411] inception_3a/output_inception_3a/output_0_split -> inception_3a/output_inception_3a/output_0_split_2
I0312 02:13:05.308259 12026 net.cpp:411] inception_3a/output_inception_3a/output_0_split -> inception_3a/output_inception_3a/output_0_split_3
I0312 02:13:05.308337 12026 net.cpp:150] Setting up inception_3a/output_inception_3a/output_0_split
I0312 02:13:05.308363 12026 net.cpp:157] Top shape: 24 256 28 28 (4816896)
I0312 02:13:05.308372 12026 net.cpp:157] Top shape: 24 256 28 28 (4816896)
I0312 02:13:05.308379 12026 net.cpp:157] Top shape: 24 256 28 28 (4816896)
I0312 02:13:05.308387 12026 net.cpp:157] Top shape: 24 256 28 28 (4816896)
I0312 02:13:05.308393 12026 net.cpp:165] Memory required for data: 657506688
I0312 02:13:05.308399 12026 layer_factory.hpp:77] Creating layer inception_3b/1x1
I0312 02:13:05.308418 12026 net.cpp:106] Creating Layer inception_3b/1x1
I0312 02:13:05.308426 12026 net.cpp:454] inception_3b/1x1 <- inception_3a/output_inception_3a/output_0_split_0
I0312 02:13:05.308447 12026 net.cpp:411] inception_3b/1x1 -> inception_3b/1x1
I0312 02:13:05.309818 12026 net.cpp:150] Setting up inception_3b/1x1
I0312 02:13:05.309842 12026 net.cpp:157] Top shape: 24 128 28 28 (2408448)
I0312 02:13:05.309850 12026 net.cpp:165] Memory required for data: 667140480
I0312 02:13:05.309861 12026 layer_factory.hpp:77] Creating layer inception_3b/relu_1x1
I0312 02:13:05.309872 12026 net.cpp:106] Creating Layer inception_3b/relu_1x1
I0312 02:13:05.309880 12026 net.cpp:454] inception_3b/relu_1x1 <- inception_3b/1x1
I0312 02:13:05.309891 12026 net.cpp:397] inception_3b/relu_1x1 -> inception_3b/1x1 (in-place)
I0312 02:13:05.310058 12026 net.cpp:150] Setting up inception_3b/relu_1x1
I0312 02:13:05.310075 12026 net.cpp:157] Top shape: 24 128 28 28 (2408448)
I0312 02:13:05.310082 12026 net.cpp:165] Memory required for data: 676774272
I0312 02:13:05.310088 12026 layer_factory.hpp:77] Creating layer inception_3b/3x3_reduce
I0312 02:13:05.310116 12026 net.cpp:106] Creating Layer inception_3b/3x3_reduce
I0312 02:13:05.310128 12026 net.cpp:454] inception_3b/3x3_reduce <- inception_3a/output_inception_3a/output_0_split_1
I0312 02:13:05.310140 12026 net.cpp:411] inception_3b/3x3_reduce -> inception_3b/3x3_reduce
I0312 02:13:05.311419 12026 net.cpp:150] Setting up inception_3b/3x3_reduce
I0312 02:13:05.311439 12026 net.cpp:157] Top shape: 24 128 28 28 (2408448)
I0312 02:13:05.311445 12026 net.cpp:165] Memory required for data: 686408064
I0312 02:13:05.311457 12026 layer_factory.hpp:77] Creating layer inception_3b/relu_3x3_reduce
I0312 02:13:05.311467 12026 net.cpp:106] Creating Layer inception_3b/relu_3x3_reduce
I0312 02:13:05.311475 12026 net.cpp:454] inception_3b/relu_3x3_reduce <- inception_3b/3x3_reduce
I0312 02:13:05.311485 12026 net.cpp:397] inception_3b/relu_3x3_reduce -> inception_3b/3x3_reduce (in-place)
I0312 02:13:05.311743 12026 net.cpp:150] Setting up inception_3b/relu_3x3_reduce
I0312 02:13:05.311766 12026 net.cpp:157] Top shape: 24 128 28 28 (2408448)
I0312 02:13:05.311776 12026 net.cpp:165] Memory required for data: 696041856
I0312 02:13:05.311784 12026 layer_factory.hpp:77] Creating layer inception_3b/3x3
I0312 02:13:05.311806 12026 net.cpp:106] Creating Layer inception_3b/3x3
I0312 02:13:05.311815 12026 net.cpp:454] inception_3b/3x3 <- inception_3b/3x3_reduce
I0312 02:13:05.311825 12026 net.cpp:411] inception_3b/3x3 -> inception_3b/3x3
I0312 02:13:05.314930 12026 net.cpp:150] Setting up inception_3b/3x3
I0312 02:13:05.314955 12026 net.cpp:157] Top shape: 24 192 28 28 (3612672)
I0312 02:13:05.314963 12026 net.cpp:165] Memory required for data: 710492544
I0312 02:13:05.314975 12026 layer_factory.hpp:77] Creating layer inception_3b/relu_3x3
I0312 02:13:05.314985 12026 net.cpp:106] Creating Layer inception_3b/relu_3x3
I0312 02:13:05.314993 12026 net.cpp:454] inception_3b/relu_3x3 <- inception_3b/3x3
I0312 02:13:05.315006 12026 net.cpp:397] inception_3b/relu_3x3 -> inception_3b/3x3 (in-place)
I0312 02:13:05.315277 12026 net.cpp:150] Setting up inception_3b/relu_3x3
I0312 02:13:05.315294 12026 net.cpp:157] Top shape: 24 192 28 28 (3612672)
I0312 02:13:05.315300 12026 net.cpp:165] Memory required for data: 724943232
I0312 02:13:05.315307 12026 layer_factory.hpp:77] Creating layer inception_3b/5x5_reduce
I0312 02:13:05.315327 12026 net.cpp:106] Creating Layer inception_3b/5x5_reduce
I0312 02:13:05.315335 12026 net.cpp:454] inception_3b/5x5_reduce <- inception_3a/output_inception_3a/output_0_split_2
I0312 02:13:05.315346 12026 net.cpp:411] inception_3b/5x5_reduce -> inception_3b/5x5_reduce
I0312 02:13:05.316367 12026 net.cpp:150] Setting up inception_3b/5x5_reduce
I0312 02:13:05.316387 12026 net.cpp:157] Top shape: 24 32 28 28 (602112)
I0312 02:13:05.316395 12026 net.cpp:165] Memory required for data: 727351680
I0312 02:13:05.316406 12026 layer_factory.hpp:77] Creating layer inception_3b/relu_5x5_reduce
I0312 02:13:05.316437 12026 net.cpp:106] Creating Layer inception_3b/relu_5x5_reduce
I0312 02:13:05.316452 12026 net.cpp:454] inception_3b/relu_5x5_reduce <- inception_3b/5x5_reduce
I0312 02:13:05.316473 12026 net.cpp:397] inception_3b/relu_5x5_reduce -> inception_3b/5x5_reduce (in-place)
I0312 02:13:05.316658 12026 net.cpp:150] Setting up inception_3b/relu_5x5_reduce
I0312 02:13:05.316676 12026 net.cpp:157] Top shape: 24 32 28 28 (602112)
I0312 02:13:05.316684 12026 net.cpp:165] Memory required for data: 729760128
I0312 02:13:05.316690 12026 layer_factory.hpp:77] Creating layer inception_3b/5x5
I0312 02:13:05.316709 12026 net.cpp:106] Creating Layer inception_3b/5x5
I0312 02:13:05.316716 12026 net.cpp:454] inception_3b/5x5 <- inception_3b/5x5_reduce
I0312 02:13:05.316730 12026 net.cpp:411] inception_3b/5x5 -> inception_3b/5x5
I0312 02:13:05.318909 12026 net.cpp:150] Setting up inception_3b/5x5
I0312 02:13:05.318934 12026 net.cpp:157] Top shape: 24 96 28 28 (1806336)
I0312 02:13:05.318941 12026 net.cpp:165] Memory required for data: 736985472
I0312 02:13:05.318953 12026 layer_factory.hpp:77] Creating layer inception_3b/relu_5x5
I0312 02:13:05.318964 12026 net.cpp:106] Creating Layer inception_3b/relu_5x5
I0312 02:13:05.318971 12026 net.cpp:454] inception_3b/relu_5x5 <- inception_3b/5x5
I0312 02:13:05.318984 12026 net.cpp:397] inception_3b/relu_5x5 -> inception_3b/5x5 (in-place)
I0312 02:13:05.319284 12026 net.cpp:150] Setting up inception_3b/relu_5x5
I0312 02:13:05.319301 12026 net.cpp:157] Top shape: 24 96 28 28 (1806336)
I0312 02:13:05.319308 12026 net.cpp:165] Memory required for data: 744210816
I0312 02:13:05.319315 12026 layer_factory.hpp:77] Creating layer inception_3b/pool
I0312 02:13:05.319327 12026 net.cpp:106] Creating Layer inception_3b/pool
I0312 02:13:05.319335 12026 net.cpp:454] inception_3b/pool <- inception_3a/output_inception_3a/output_0_split_3
I0312 02:13:05.319345 12026 net.cpp:411] inception_3b/pool -> inception_3b/pool
I0312 02:13:05.319406 12026 net.cpp:150] Setting up inception_3b/pool
I0312 02:13:05.319427 12026 net.cpp:157] Top shape: 24 256 28 28 (4816896)
I0312 02:13:05.319435 12026 net.cpp:165] Memory required for data: 763478400
I0312 02:13:05.319442 12026 layer_factory.hpp:77] Creating layer inception_3b/pool_proj
I0312 02:13:05.319458 12026 net.cpp:106] Creating Layer inception_3b/pool_proj
I0312 02:13:05.319466 12026 net.cpp:454] inception_3b/pool_proj <- inception_3b/pool
I0312 02:13:05.319479 12026 net.cpp:411] inception_3b/pool_proj -> inception_3b/pool_proj
I0312 02:13:05.320511 12026 net.cpp:150] Setting up inception_3b/pool_proj
I0312 02:13:05.320529 12026 net.cpp:157] Top shape: 24 64 28 28 (1204224)
I0312 02:13:05.320536 12026 net.cpp:165] Memory required for data: 768295296
I0312 02:13:05.320547 12026 layer_factory.hpp:77] Creating layer inception_3b/relu_pool_proj
I0312 02:13:05.320560 12026 net.cpp:106] Creating Layer inception_3b/relu_pool_proj
I0312 02:13:05.320569 12026 net.cpp:454] inception_3b/relu_pool_proj <- inception_3b/pool_proj
I0312 02:13:05.320576 12026 net.cpp:397] inception_3b/relu_pool_proj -> inception_3b/pool_proj (in-place)
I0312 02:13:05.320950 12026 net.cpp:150] Setting up inception_3b/relu_pool_proj
I0312 02:13:05.320967 12026 net.cpp:157] Top shape: 24 64 28 28 (1204224)
I0312 02:13:05.320973 12026 net.cpp:165] Memory required for data: 773112192
I0312 02:13:05.320981 12026 layer_factory.hpp:77] Creating layer inception_3b/output
I0312 02:13:05.320996 12026 net.cpp:106] Creating Layer inception_3b/output
I0312 02:13:05.321003 12026 net.cpp:454] inception_3b/output <- inception_3b/1x1
I0312 02:13:05.321012 12026 net.cpp:454] inception_3b/output <- inception_3b/3x3
I0312 02:13:05.321019 12026 net.cpp:454] inception_3b/output <- inception_3b/5x5
I0312 02:13:05.321027 12026 net.cpp:454] inception_3b/output <- inception_3b/pool_proj
I0312 02:13:05.321038 12026 net.cpp:411] inception_3b/output -> inception_3b/output
I0312 02:13:05.321075 12026 net.cpp:150] Setting up inception_3b/output
I0312 02:13:05.321086 12026 net.cpp:157] Top shape: 24 480 28 28 (9031680)
I0312 02:13:05.321102 12026 net.cpp:165] Memory required for data: 809238912
I0312 02:13:05.321115 12026 layer_factory.hpp:77] Creating layer pool3/3x3_s2
I0312 02:13:05.321146 12026 net.cpp:106] Creating Layer pool3/3x3_s2
I0312 02:13:05.321156 12026 net.cpp:454] pool3/3x3_s2 <- inception_3b/output
I0312 02:13:05.321164 12026 net.cpp:411] pool3/3x3_s2 -> pool3/3x3_s2
I0312 02:13:05.321218 12026 net.cpp:150] Setting up pool3/3x3_s2
I0312 02:13:05.321230 12026 net.cpp:157] Top shape: 24 480 14 14 (2257920)
I0312 02:13:05.321236 12026 net.cpp:165] Memory required for data: 818270592
I0312 02:13:05.321244 12026 layer_factory.hpp:77] Creating layer pool3/3x3_s2_pool3/3x3_s2_0_split
I0312 02:13:05.321254 12026 net.cpp:106] Creating Layer pool3/3x3_s2_pool3/3x3_s2_0_split
I0312 02:13:05.321259 12026 net.cpp:454] pool3/3x3_s2_pool3/3x3_s2_0_split <- pool3/3x3_s2
I0312 02:13:05.321270 12026 net.cpp:411] pool3/3x3_s2_pool3/3x3_s2_0_split -> pool3/3x3_s2_pool3/3x3_s2_0_split_0
I0312 02:13:05.321281 12026 net.cpp:411] pool3/3x3_s2_pool3/3x3_s2_0_split -> pool3/3x3_s2_pool3/3x3_s2_0_split_1
I0312 02:13:05.321291 12026 net.cpp:411] pool3/3x3_s2_pool3/3x3_s2_0_split -> pool3/3x3_s2_pool3/3x3_s2_0_split_2
I0312 02:13:05.321300 12026 net.cpp:411] pool3/3x3_s2_pool3/3x3_s2_0_split -> pool3/3x3_s2_pool3/3x3_s2_0_split_3
I0312 02:13:05.321373 12026 net.cpp:150] Setting up pool3/3x3_s2_pool3/3x3_s2_0_split
I0312 02:13:05.321388 12026 net.cpp:157] Top shape: 24 480 14 14 (2257920)
I0312 02:13:05.321395 12026 net.cpp:157] Top shape: 24 480 14 14 (2257920)
I0312 02:13:05.321403 12026 net.cpp:157] Top shape: 24 480 14 14 (2257920)
I0312 02:13:05.321410 12026 net.cpp:157] Top shape: 24 480 14 14 (2257920)
I0312 02:13:05.321419 12026 net.cpp:165] Memory required for data: 854397312
I0312 02:13:05.321425 12026 layer_factory.hpp:77] Creating layer inception_4a/1x1
I0312 02:13:05.321441 12026 net.cpp:106] Creating Layer inception_4a/1x1
I0312 02:13:05.321449 12026 net.cpp:454] inception_4a/1x1 <- pool3/3x3_s2_pool3/3x3_s2_0_split_0
I0312 02:13:05.321460 12026 net.cpp:411] inception_4a/1x1 -> inception_4a/1x1
I0312 02:13:05.323145 12026 net.cpp:150] Setting up inception_4a/1x1
I0312 02:13:05.323165 12026 net.cpp:157] Top shape: 24 192 14 14 (903168)
I0312 02:13:05.323173 12026 net.cpp:165] Memory required for data: 858009984
I0312 02:13:05.323184 12026 layer_factory.hpp:77] Creating layer inception_4a/relu_1x1
I0312 02:13:05.323196 12026 net.cpp:106] Creating Layer inception_4a/relu_1x1
I0312 02:13:05.323204 12026 net.cpp:454] inception_4a/relu_1x1 <- inception_4a/1x1
I0312 02:13:05.323212 12026 net.cpp:397] inception_4a/relu_1x1 -> inception_4a/1x1 (in-place)
I0312 02:13:05.323396 12026 net.cpp:150] Setting up inception_4a/relu_1x1
I0312 02:13:05.323412 12026 net.cpp:157] Top shape: 24 192 14 14 (903168)
I0312 02:13:05.323418 12026 net.cpp:165] Memory required for data: 861622656
I0312 02:13:05.323426 12026 layer_factory.hpp:77] Creating layer inception_4a/3x3_reduce
I0312 02:13:05.323441 12026 net.cpp:106] Creating Layer inception_4a/3x3_reduce
I0312 02:13:05.323448 12026 net.cpp:454] inception_4a/3x3_reduce <- pool3/3x3_s2_pool3/3x3_s2_0_split_1
I0312 02:13:05.323465 12026 net.cpp:411] inception_4a/3x3_reduce -> inception_4a/3x3_reduce
I0312 02:13:05.324856 12026 net.cpp:150] Setting up inception_4a/3x3_reduce
I0312 02:13:05.324873 12026 net.cpp:157] Top shape: 24 96 14 14 (451584)
I0312 02:13:05.324880 12026 net.cpp:165] Memory required for data: 863428992
I0312 02:13:05.324903 12026 layer_factory.hpp:77] Creating layer inception_4a/relu_3x3_reduce
I0312 02:13:05.324916 12026 net.cpp:106] Creating Layer inception_4a/relu_3x3_reduce
I0312 02:13:05.324923 12026 net.cpp:454] inception_4a/relu_3x3_reduce <- inception_4a/3x3_reduce
I0312 02:13:05.324933 12026 net.cpp:397] inception_4a/relu_3x3_reduce -> inception_4a/3x3_reduce (in-place)
I0312 02:13:05.325256 12026 net.cpp:150] Setting up inception_4a/relu_3x3_reduce
I0312 02:13:05.325273 12026 net.cpp:157] Top shape: 24 96 14 14 (451584)
I0312 02:13:05.325280 12026 net.cpp:165] Memory required for data: 865235328
I0312 02:13:05.325294 12026 layer_factory.hpp:77] Creating layer inception_4a/3x3
I0312 02:13:05.325310 12026 net.cpp:106] Creating Layer inception_4a/3x3
I0312 02:13:05.325333 12026 net.cpp:454] inception_4a/3x3 <- inception_4a/3x3_reduce
I0312 02:13:05.325347 12026 net.cpp:411] inception_4a/3x3 -> inception_4a/3x3
I0312 02:13:05.328335 12026 net.cpp:150] Setting up inception_4a/3x3
I0312 02:13:05.328359 12026 net.cpp:157] Top shape: 24 208 14 14 (978432)
I0312 02:13:05.328366 12026 net.cpp:165] Memory required for data: 869149056
I0312 02:13:05.328378 12026 layer_factory.hpp:77] Creating layer inception_4a/relu_3x3
I0312 02:13:05.328392 12026 net.cpp:106] Creating Layer inception_4a/relu_3x3
I0312 02:13:05.328402 12026 net.cpp:454] inception_4a/relu_3x3 <- inception_4a/3x3
I0312 02:13:05.328418 12026 net.cpp:397] inception_4a/relu_3x3 -> inception_4a/3x3 (in-place)
I0312 02:13:05.328696 12026 net.cpp:150] Setting up inception_4a/relu_3x3
I0312 02:13:05.328712 12026 net.cpp:157] Top shape: 24 208 14 14 (978432)
I0312 02:13:05.328722 12026 net.cpp:165] Memory required for data: 873062784
I0312 02:13:05.328728 12026 layer_factory.hpp:77] Creating layer inception_4a/5x5_reduce
I0312 02:13:05.328747 12026 net.cpp:106] Creating Layer inception_4a/5x5_reduce
I0312 02:13:05.328754 12026 net.cpp:454] inception_4a/5x5_reduce <- pool3/3x3_s2_pool3/3x3_s2_0_split_2
I0312 02:13:05.328769 12026 net.cpp:411] inception_4a/5x5_reduce -> inception_4a/5x5_reduce
I0312 02:13:05.329825 12026 net.cpp:150] Setting up inception_4a/5x5_reduce
I0312 02:13:05.329843 12026 net.cpp:157] Top shape: 24 16 14 14 (75264)
I0312 02:13:05.329849 12026 net.cpp:165] Memory required for data: 873363840
I0312 02:13:05.329861 12026 layer_factory.hpp:77] Creating layer inception_4a/relu_5x5_reduce
I0312 02:13:05.329871 12026 net.cpp:106] Creating Layer inception_4a/relu_5x5_reduce
I0312 02:13:05.329879 12026 net.cpp:454] inception_4a/relu_5x5_reduce <- inception_4a/5x5_reduce
I0312 02:13:05.329890 12026 net.cpp:397] inception_4a/relu_5x5_reduce -> inception_4a/5x5_reduce (in-place)
I0312 02:13:05.330059 12026 net.cpp:150] Setting up inception_4a/relu_5x5_reduce
I0312 02:13:05.330072 12026 net.cpp:157] Top shape: 24 16 14 14 (75264)
I0312 02:13:05.330080 12026 net.cpp:165] Memory required for data: 873664896
I0312 02:13:05.330086 12026 layer_factory.hpp:77] Creating layer inception_4a/5x5
I0312 02:13:05.330103 12026 net.cpp:106] Creating Layer inception_4a/5x5
I0312 02:13:05.330111 12026 net.cpp:454] inception_4a/5x5 <- inception_4a/5x5_reduce
I0312 02:13:05.330122 12026 net.cpp:411] inception_4a/5x5 -> inception_4a/5x5
I0312 02:13:05.331270 12026 net.cpp:150] Setting up inception_4a/5x5
I0312 02:13:05.331290 12026 net.cpp:157] Top shape: 24 48 14 14 (225792)
I0312 02:13:05.331295 12026 net.cpp:165] Memory required for data: 874568064
I0312 02:13:05.331307 12026 layer_factory.hpp:77] Creating layer inception_4a/relu_5x5
I0312 02:13:05.331320 12026 net.cpp:106] Creating Layer inception_4a/relu_5x5
I0312 02:13:05.331327 12026 net.cpp:454] inception_4a/relu_5x5 <- inception_4a/5x5
I0312 02:13:05.331336 12026 net.cpp:397] inception_4a/relu_5x5 -> inception_4a/5x5 (in-place)
I0312 02:13:05.331598 12026 net.cpp:150] Setting up inception_4a/relu_5x5
I0312 02:13:05.331616 12026 net.cpp:157] Top shape: 24 48 14 14 (225792)
I0312 02:13:05.331629 12026 net.cpp:165] Memory required for data: 875471232
I0312 02:13:05.331641 12026 layer_factory.hpp:77] Creating layer inception_4a/pool
I0312 02:13:05.331660 12026 net.cpp:106] Creating Layer inception_4a/pool
I0312 02:13:05.331670 12026 net.cpp:454] inception_4a/pool <- pool3/3x3_s2_pool3/3x3_s2_0_split_3
I0312 02:13:05.331686 12026 net.cpp:411] inception_4a/pool -> inception_4a/pool
I0312 02:13:05.331748 12026 net.cpp:150] Setting up inception_4a/pool
I0312 02:13:05.331761 12026 net.cpp:157] Top shape: 24 480 14 14 (2257920)
I0312 02:13:05.331768 12026 net.cpp:165] Memory required for data: 884502912
I0312 02:13:05.331774 12026 layer_factory.hpp:77] Creating layer inception_4a/pool_proj
I0312 02:13:05.331795 12026 net.cpp:106] Creating Layer inception_4a/pool_proj
I0312 02:13:05.331814 12026 net.cpp:454] inception_4a/pool_proj <- inception_4a/pool
I0312 02:13:05.331833 12026 net.cpp:411] inception_4a/pool_proj -> inception_4a/pool_proj
I0312 02:13:05.332913 12026 net.cpp:150] Setting up inception_4a/pool_proj
I0312 02:13:05.332934 12026 net.cpp:157] Top shape: 24 64 14 14 (301056)
I0312 02:13:05.332942 12026 net.cpp:165] Memory required for data: 885707136
I0312 02:13:05.332952 12026 layer_factory.hpp:77] Creating layer inception_4a/relu_pool_proj
I0312 02:13:05.332967 12026 net.cpp:106] Creating Layer inception_4a/relu_pool_proj
I0312 02:13:05.332974 12026 net.cpp:454] inception_4a/relu_pool_proj <- inception_4a/pool_proj
I0312 02:13:05.332983 12026 net.cpp:397] inception_4a/relu_pool_proj -> inception_4a/pool_proj (in-place)
I0312 02:13:05.333248 12026 net.cpp:150] Setting up inception_4a/relu_pool_proj
I0312 02:13:05.333264 12026 net.cpp:157] Top shape: 24 64 14 14 (301056)
I0312 02:13:05.333271 12026 net.cpp:165] Memory required for data: 886911360
I0312 02:13:05.333278 12026 layer_factory.hpp:77] Creating layer inception_4a/output
I0312 02:13:05.333292 12026 net.cpp:106] Creating Layer inception_4a/output
I0312 02:13:05.333298 12026 net.cpp:454] inception_4a/output <- inception_4a/1x1
I0312 02:13:05.333307 12026 net.cpp:454] inception_4a/output <- inception_4a/3x3
I0312 02:13:05.333314 12026 net.cpp:454] inception_4a/output <- inception_4a/5x5
I0312 02:13:05.333322 12026 net.cpp:454] inception_4a/output <- inception_4a/pool_proj
I0312 02:13:05.333329 12026 net.cpp:411] inception_4a/output -> inception_4a/output
I0312 02:13:05.333372 12026 net.cpp:150] Setting up inception_4a/output
I0312 02:13:05.333390 12026 net.cpp:157] Top shape: 24 512 14 14 (2408448)
I0312 02:13:05.333396 12026 net.cpp:165] Memory required for data: 896545152
I0312 02:13:05.333403 12026 layer_factory.hpp:77] Creating layer inception_4a/output_inception_4a/output_0_split
I0312 02:13:05.333413 12026 net.cpp:106] Creating Layer inception_4a/output_inception_4a/output_0_split
I0312 02:13:05.333420 12026 net.cpp:454] inception_4a/output_inception_4a/output_0_split <- inception_4a/output
I0312 02:13:05.333431 12026 net.cpp:411] inception_4a/output_inception_4a/output_0_split -> inception_4a/output_inception_4a/output_0_split_0
I0312 02:13:05.333442 12026 net.cpp:411] inception_4a/output_inception_4a/output_0_split -> inception_4a/output_inception_4a/output_0_split_1
I0312 02:13:05.333453 12026 net.cpp:411] inception_4a/output_inception_4a/output_0_split -> inception_4a/output_inception_4a/output_0_split_2
I0312 02:13:05.333463 12026 net.cpp:411] inception_4a/output_inception_4a/output_0_split -> inception_4a/output_inception_4a/output_0_split_3
I0312 02:13:05.333472 12026 net.cpp:411] inception_4a/output_inception_4a/output_0_split -> inception_4a/output_inception_4a/output_0_split_4
I0312 02:13:05.333561 12026 net.cpp:150] Setting up inception_4a/output_inception_4a/output_0_split
I0312 02:13:05.333573 12026 net.cpp:157] Top shape: 24 512 14 14 (2408448)
I0312 02:13:05.333581 12026 net.cpp:157] Top shape: 24 512 14 14 (2408448)
I0312 02:13:05.333588 12026 net.cpp:157] Top shape: 24 512 14 14 (2408448)
I0312 02:13:05.333595 12026 net.cpp:157] Top shape: 24 512 14 14 (2408448)
I0312 02:13:05.333602 12026 net.cpp:157] Top shape: 24 512 14 14 (2408448)
I0312 02:13:05.333608 12026 net.cpp:165] Memory required for data: 944714112
I0312 02:13:05.333614 12026 layer_factory.hpp:77] Creating layer loss1/ave_pool
I0312 02:13:05.333626 12026 net.cpp:106] Creating Layer loss1/ave_pool
I0312 02:13:05.333633 12026 net.cpp:454] loss1/ave_pool <- inception_4a/output_inception_4a/output_0_split_0
I0312 02:13:05.333644 12026 net.cpp:411] loss1/ave_pool -> loss1/ave_pool
I0312 02:13:05.333946 12026 net.cpp:150] Setting up loss1/ave_pool
I0312 02:13:05.333969 12026 net.cpp:157] Top shape: 24 512 4 4 (196608)
I0312 02:13:05.333981 12026 net.cpp:165] Memory required for data: 945500544
I0312 02:13:05.333988 12026 layer_factory.hpp:77] Creating layer loss1/conv
I0312 02:13:05.334007 12026 net.cpp:106] Creating Layer loss1/conv
I0312 02:13:05.334020 12026 net.cpp:454] loss1/conv <- loss1/ave_pool
I0312 02:13:05.334039 12026 net.cpp:411] loss1/conv -> loss1/conv
I0312 02:13:05.335526 12026 net.cpp:150] Setting up loss1/conv
I0312 02:13:05.335546 12026 net.cpp:157] Top shape: 24 128 4 4 (49152)
I0312 02:13:05.335552 12026 net.cpp:165] Memory required for data: 945697152
I0312 02:13:05.335563 12026 layer_factory.hpp:77] Creating layer loss1/relu_conv
I0312 02:13:05.335577 12026 net.cpp:106] Creating Layer loss1/relu_conv
I0312 02:13:05.335585 12026 net.cpp:454] loss1/relu_conv <- loss1/conv
I0312 02:13:05.335594 12026 net.cpp:397] loss1/relu_conv -> loss1/conv (in-place)
I0312 02:13:05.335901 12026 net.cpp:150] Setting up loss1/relu_conv
I0312 02:13:05.335918 12026 net.cpp:157] Top shape: 24 128 4 4 (49152)
I0312 02:13:05.335925 12026 net.cpp:165] Memory required for data: 945893760
I0312 02:13:05.335932 12026 layer_factory.hpp:77] Creating layer loss1/fc
I0312 02:13:05.335949 12026 net.cpp:106] Creating Layer loss1/fc
I0312 02:13:05.335958 12026 net.cpp:454] loss1/fc <- loss1/conv
I0312 02:13:05.335966 12026 net.cpp:411] loss1/fc -> loss1/fc
I0312 02:13:05.356492 12026 net.cpp:150] Setting up loss1/fc
I0312 02:13:05.356540 12026 net.cpp:157] Top shape: 24 1024 (24576)
I0312 02:13:05.356549 12026 net.cpp:165] Memory required for data: 945992064
I0312 02:13:05.356565 12026 layer_factory.hpp:77] Creating layer loss1/relu_fc
I0312 02:13:05.356585 12026 net.cpp:106] Creating Layer loss1/relu_fc
I0312 02:13:05.356595 12026 net.cpp:454] loss1/relu_fc <- loss1/fc
I0312 02:13:05.356608 12026 net.cpp:397] loss1/relu_fc -> loss1/fc (in-place)
I0312 02:13:05.356883 12026 net.cpp:150] Setting up loss1/relu_fc
I0312 02:13:05.356902 12026 net.cpp:157] Top shape: 24 1024 (24576)
I0312 02:13:05.356909 12026 net.cpp:165] Memory required for data: 946090368
I0312 02:13:05.356917 12026 layer_factory.hpp:77] Creating layer loss1/drop_fc
I0312 02:13:05.356951 12026 net.cpp:106] Creating Layer loss1/drop_fc
I0312 02:13:05.356959 12026 net.cpp:454] loss1/drop_fc <- loss1/fc
I0312 02:13:05.356969 12026 net.cpp:397] loss1/drop_fc -> loss1/fc (in-place)
I0312 02:13:05.357022 12026 net.cpp:150] Setting up loss1/drop_fc
I0312 02:13:05.357033 12026 net.cpp:157] Top shape: 24 1024 (24576)
I0312 02:13:05.357040 12026 net.cpp:165] Memory required for data: 946188672
I0312 02:13:05.357048 12026 layer_factory.hpp:77] Creating layer myloss1/classifier
I0312 02:13:05.357069 12026 net.cpp:106] Creating Layer myloss1/classifier
I0312 02:13:05.357076 12026 net.cpp:454] myloss1/classifier <- loss1/fc
I0312 02:13:05.357092 12026 net.cpp:411] myloss1/classifier -> myloss1/classifier
I0312 02:13:05.359411 12026 net.cpp:150] Setting up myloss1/classifier
I0312 02:13:05.359431 12026 net.cpp:157] Top shape: 24 200 (4800)
I0312 02:13:05.359438 12026 net.cpp:165] Memory required for data: 946207872
I0312 02:13:05.359449 12026 layer_factory.hpp:77] Creating layer loss1/loss
I0312 02:13:05.359465 12026 net.cpp:106] Creating Layer loss1/loss
I0312 02:13:05.359473 12026 net.cpp:454] loss1/loss <- myloss1/classifier
I0312 02:13:05.359483 12026 net.cpp:454] loss1/loss <- label_data_1_split_0
I0312 02:13:05.359494 12026 net.cpp:411] loss1/loss -> loss1/loss1
I0312 02:13:05.359515 12026 layer_factory.hpp:77] Creating layer loss1/loss
I0312 02:13:05.359930 12026 net.cpp:150] Setting up loss1/loss
I0312 02:13:05.359946 12026 net.cpp:157] Top shape: (1)
I0312 02:13:05.359952 12026 net.cpp:160]     with loss weight 0.3
I0312 02:13:05.359987 12026 net.cpp:165] Memory required for data: 946207876
I0312 02:13:05.359994 12026 layer_factory.hpp:77] Creating layer inception_4b/1x1
I0312 02:13:05.360013 12026 net.cpp:106] Creating Layer inception_4b/1x1
I0312 02:13:05.360023 12026 net.cpp:454] inception_4b/1x1 <- inception_4a/output_inception_4a/output_0_split_1
I0312 02:13:05.360038 12026 net.cpp:411] inception_4b/1x1 -> inception_4b/1x1
I0312 02:13:05.361922 12026 net.cpp:150] Setting up inception_4b/1x1
I0312 02:13:05.361940 12026 net.cpp:157] Top shape: 24 160 14 14 (752640)
I0312 02:13:05.361958 12026 net.cpp:165] Memory required for data: 949218436
I0312 02:13:05.361969 12026 layer_factory.hpp:77] Creating layer inception_4b/relu_1x1
I0312 02:13:05.361997 12026 net.cpp:106] Creating Layer inception_4b/relu_1x1
I0312 02:13:05.362005 12026 net.cpp:454] inception_4b/relu_1x1 <- inception_4b/1x1
I0312 02:13:05.362015 12026 net.cpp:397] inception_4b/relu_1x1 -> inception_4b/1x1 (in-place)
I0312 02:13:05.362191 12026 net.cpp:150] Setting up inception_4b/relu_1x1
I0312 02:13:05.362207 12026 net.cpp:157] Top shape: 24 160 14 14 (752640)
I0312 02:13:05.362213 12026 net.cpp:165] Memory required for data: 952228996
I0312 02:13:05.362221 12026 layer_factory.hpp:77] Creating layer inception_4b/3x3_reduce
I0312 02:13:05.362236 12026 net.cpp:106] Creating Layer inception_4b/3x3_reduce
I0312 02:13:05.362246 12026 net.cpp:454] inception_4b/3x3_reduce <- inception_4a/output_inception_4a/output_0_split_2
I0312 02:13:05.362257 12026 net.cpp:411] inception_4b/3x3_reduce -> inception_4b/3x3_reduce
I0312 02:13:05.364271 12026 net.cpp:150] Setting up inception_4b/3x3_reduce
I0312 02:13:05.364291 12026 net.cpp:157] Top shape: 24 112 14 14 (526848)
I0312 02:13:05.364298 12026 net.cpp:165] Memory required for data: 954336388
I0312 02:13:05.364310 12026 layer_factory.hpp:77] Creating layer inception_4b/relu_3x3_reduce
I0312 02:13:05.364323 12026 net.cpp:106] Creating Layer inception_4b/relu_3x3_reduce
I0312 02:13:05.364331 12026 net.cpp:454] inception_4b/relu_3x3_reduce <- inception_4b/3x3_reduce
I0312 02:13:05.364341 12026 net.cpp:397] inception_4b/relu_3x3_reduce -> inception_4b/3x3_reduce (in-place)
I0312 02:13:05.364630 12026 net.cpp:150] Setting up inception_4b/relu_3x3_reduce
I0312 02:13:05.364647 12026 net.cpp:157] Top shape: 24 112 14 14 (526848)
I0312 02:13:05.364653 12026 net.cpp:165] Memory required for data: 956443780
I0312 02:13:05.364660 12026 layer_factory.hpp:77] Creating layer inception_4b/3x3
I0312 02:13:05.364676 12026 net.cpp:106] Creating Layer inception_4b/3x3
I0312 02:13:05.364684 12026 net.cpp:454] inception_4b/3x3 <- inception_4b/3x3_reduce
I0312 02:13:05.364696 12026 net.cpp:411] inception_4b/3x3 -> inception_4b/3x3
I0312 02:13:05.367940 12026 net.cpp:150] Setting up inception_4b/3x3
I0312 02:13:05.367961 12026 net.cpp:157] Top shape: 24 224 14 14 (1053696)
I0312 02:13:05.367969 12026 net.cpp:165] Memory required for data: 960658564
I0312 02:13:05.367980 12026 layer_factory.hpp:77] Creating layer inception_4b/relu_3x3
I0312 02:13:05.367992 12026 net.cpp:106] Creating Layer inception_4b/relu_3x3
I0312 02:13:05.368000 12026 net.cpp:454] inception_4b/relu_3x3 <- inception_4b/3x3
I0312 02:13:05.368010 12026 net.cpp:397] inception_4b/relu_3x3 -> inception_4b/3x3 (in-place)
I0312 02:13:05.368281 12026 net.cpp:150] Setting up inception_4b/relu_3x3
I0312 02:13:05.368299 12026 net.cpp:157] Top shape: 24 224 14 14 (1053696)
I0312 02:13:05.368304 12026 net.cpp:165] Memory required for data: 964873348
I0312 02:13:05.368311 12026 layer_factory.hpp:77] Creating layer inception_4b/5x5_reduce
I0312 02:13:05.368327 12026 net.cpp:106] Creating Layer inception_4b/5x5_reduce
I0312 02:13:05.368335 12026 net.cpp:454] inception_4b/5x5_reduce <- inception_4a/output_inception_4a/output_0_split_3
I0312 02:13:05.368348 12026 net.cpp:411] inception_4b/5x5_reduce -> inception_4b/5x5_reduce
I0312 02:13:05.369441 12026 net.cpp:150] Setting up inception_4b/5x5_reduce
I0312 02:13:05.369457 12026 net.cpp:157] Top shape: 24 24 14 14 (112896)
I0312 02:13:05.369464 12026 net.cpp:165] Memory required for data: 965324932
I0312 02:13:05.369475 12026 layer_factory.hpp:77] Creating layer inception_4b/relu_5x5_reduce
I0312 02:13:05.369487 12026 net.cpp:106] Creating Layer inception_4b/relu_5x5_reduce
I0312 02:13:05.369495 12026 net.cpp:454] inception_4b/relu_5x5_reduce <- inception_4b/5x5_reduce
I0312 02:13:05.369508 12026 net.cpp:397] inception_4b/relu_5x5_reduce -> inception_4b/5x5_reduce (in-place)
I0312 02:13:05.369683 12026 net.cpp:150] Setting up inception_4b/relu_5x5_reduce
I0312 02:13:05.369698 12026 net.cpp:157] Top shape: 24 24 14 14 (112896)
I0312 02:13:05.369711 12026 net.cpp:165] Memory required for data: 965776516
I0312 02:13:05.369726 12026 layer_factory.hpp:77] Creating layer inception_4b/5x5
I0312 02:13:05.369742 12026 net.cpp:106] Creating Layer inception_4b/5x5
I0312 02:13:05.369750 12026 net.cpp:454] inception_4b/5x5 <- inception_4b/5x5_reduce
I0312 02:13:05.369768 12026 net.cpp:411] inception_4b/5x5 -> inception_4b/5x5
I0312 02:13:05.371042 12026 net.cpp:150] Setting up inception_4b/5x5
I0312 02:13:05.371059 12026 net.cpp:157] Top shape: 24 64 14 14 (301056)
I0312 02:13:05.371067 12026 net.cpp:165] Memory required for data: 966980740
I0312 02:13:05.371078 12026 layer_factory.hpp:77] Creating layer inception_4b/relu_5x5
I0312 02:13:05.371088 12026 net.cpp:106] Creating Layer inception_4b/relu_5x5
I0312 02:13:05.371096 12026 net.cpp:454] inception_4b/relu_5x5 <- inception_4b/5x5
I0312 02:13:05.371107 12026 net.cpp:397] inception_4b/relu_5x5 -> inception_4b/5x5 (in-place)
I0312 02:13:05.371372 12026 net.cpp:150] Setting up inception_4b/relu_5x5
I0312 02:13:05.371390 12026 net.cpp:157] Top shape: 24 64 14 14 (301056)
I0312 02:13:05.371397 12026 net.cpp:165] Memory required for data: 968184964
I0312 02:13:05.371404 12026 layer_factory.hpp:77] Creating layer inception_4b/pool
I0312 02:13:05.371415 12026 net.cpp:106] Creating Layer inception_4b/pool
I0312 02:13:05.371423 12026 net.cpp:454] inception_4b/pool <- inception_4a/output_inception_4a/output_0_split_4
I0312 02:13:05.371433 12026 net.cpp:411] inception_4b/pool -> inception_4b/pool
I0312 02:13:05.371503 12026 net.cpp:150] Setting up inception_4b/pool
I0312 02:13:05.371517 12026 net.cpp:157] Top shape: 24 512 14 14 (2408448)
I0312 02:13:05.371523 12026 net.cpp:165] Memory required for data: 977818756
I0312 02:13:05.371531 12026 layer_factory.hpp:77] Creating layer inception_4b/pool_proj
I0312 02:13:05.371546 12026 net.cpp:106] Creating Layer inception_4b/pool_proj
I0312 02:13:05.371554 12026 net.cpp:454] inception_4b/pool_proj <- inception_4b/pool
I0312 02:13:05.371567 12026 net.cpp:411] inception_4b/pool_proj -> inception_4b/pool_proj
I0312 02:13:05.372732 12026 net.cpp:150] Setting up inception_4b/pool_proj
I0312 02:13:05.372752 12026 net.cpp:157] Top shape: 24 64 14 14 (301056)
I0312 02:13:05.372759 12026 net.cpp:165] Memory required for data: 979022980
I0312 02:13:05.372771 12026 layer_factory.hpp:77] Creating layer inception_4b/relu_pool_proj
I0312 02:13:05.372781 12026 net.cpp:106] Creating Layer inception_4b/relu_pool_proj
I0312 02:13:05.372788 12026 net.cpp:454] inception_4b/relu_pool_proj <- inception_4b/pool_proj
I0312 02:13:05.372799 12026 net.cpp:397] inception_4b/relu_pool_proj -> inception_4b/pool_proj (in-place)
I0312 02:13:05.373121 12026 net.cpp:150] Setting up inception_4b/relu_pool_proj
I0312 02:13:05.373138 12026 net.cpp:157] Top shape: 24 64 14 14 (301056)
I0312 02:13:05.373145 12026 net.cpp:165] Memory required for data: 980227204
I0312 02:13:05.373152 12026 layer_factory.hpp:77] Creating layer inception_4b/output
I0312 02:13:05.373162 12026 net.cpp:106] Creating Layer inception_4b/output
I0312 02:13:05.373169 12026 net.cpp:454] inception_4b/output <- inception_4b/1x1
I0312 02:13:05.373178 12026 net.cpp:454] inception_4b/output <- inception_4b/3x3
I0312 02:13:05.373185 12026 net.cpp:454] inception_4b/output <- inception_4b/5x5
I0312 02:13:05.373193 12026 net.cpp:454] inception_4b/output <- inception_4b/pool_proj
I0312 02:13:05.373200 12026 net.cpp:411] inception_4b/output -> inception_4b/output
I0312 02:13:05.373242 12026 net.cpp:150] Setting up inception_4b/output
I0312 02:13:05.373255 12026 net.cpp:157] Top shape: 24 512 14 14 (2408448)
I0312 02:13:05.373260 12026 net.cpp:165] Memory required for data: 989860996
I0312 02:13:05.373266 12026 layer_factory.hpp:77] Creating layer inception_4b/output_inception_4b/output_0_split
I0312 02:13:05.373276 12026 net.cpp:106] Creating Layer inception_4b/output_inception_4b/output_0_split
I0312 02:13:05.373283 12026 net.cpp:454] inception_4b/output_inception_4b/output_0_split <- inception_4b/output
I0312 02:13:05.373292 12026 net.cpp:411] inception_4b/output_inception_4b/output_0_split -> inception_4b/output_inception_4b/output_0_split_0
I0312 02:13:05.373317 12026 net.cpp:411] inception_4b/output_inception_4b/output_0_split -> inception_4b/output_inception_4b/output_0_split_1
I0312 02:13:05.373328 12026 net.cpp:411] inception_4b/output_inception_4b/output_0_split -> inception_4b/output_inception_4b/output_0_split_2
I0312 02:13:05.373339 12026 net.cpp:411] inception_4b/output_inception_4b/output_0_split -> inception_4b/output_inception_4b/output_0_split_3
I0312 02:13:05.373417 12026 net.cpp:150] Setting up inception_4b/output_inception_4b/output_0_split
I0312 02:13:05.373430 12026 net.cpp:157] Top shape: 24 512 14 14 (2408448)
I0312 02:13:05.373438 12026 net.cpp:157] Top shape: 24 512 14 14 (2408448)
I0312 02:13:05.373445 12026 net.cpp:157] Top shape: 24 512 14 14 (2408448)
I0312 02:13:05.373452 12026 net.cpp:157] Top shape: 24 512 14 14 (2408448)
I0312 02:13:05.373458 12026 net.cpp:165] Memory required for data: 1028396164
I0312 02:13:05.373464 12026 layer_factory.hpp:77] Creating layer inception_4c/1x1
I0312 02:13:05.373478 12026 net.cpp:106] Creating Layer inception_4c/1x1
I0312 02:13:05.373486 12026 net.cpp:454] inception_4c/1x1 <- inception_4b/output_inception_4b/output_0_split_0
I0312 02:13:05.373494 12026 net.cpp:411] inception_4c/1x1 -> inception_4c/1x1
I0312 02:13:05.374996 12026 net.cpp:150] Setting up inception_4c/1x1
I0312 02:13:05.375016 12026 net.cpp:157] Top shape: 24 128 14 14 (602112)
I0312 02:13:05.375023 12026 net.cpp:165] Memory required for data: 1030804612
I0312 02:13:05.375035 12026 layer_factory.hpp:77] Creating layer inception_4c/relu_1x1
I0312 02:13:05.375044 12026 net.cpp:106] Creating Layer inception_4c/relu_1x1
I0312 02:13:05.375054 12026 net.cpp:454] inception_4c/relu_1x1 <- inception_4c/1x1
I0312 02:13:05.375063 12026 net.cpp:397] inception_4c/relu_1x1 -> inception_4c/1x1 (in-place)
I0312 02:13:05.375233 12026 net.cpp:150] Setting up inception_4c/relu_1x1
I0312 02:13:05.375250 12026 net.cpp:157] Top shape: 24 128 14 14 (602112)
I0312 02:13:05.375257 12026 net.cpp:165] Memory required for data: 1033213060
I0312 02:13:05.375263 12026 layer_factory.hpp:77] Creating layer inception_4c/3x3_reduce
I0312 02:13:05.375279 12026 net.cpp:106] Creating Layer inception_4c/3x3_reduce
I0312 02:13:05.375286 12026 net.cpp:454] inception_4c/3x3_reduce <- inception_4b/output_inception_4b/output_0_split_1
I0312 02:13:05.375298 12026 net.cpp:411] inception_4c/3x3_reduce -> inception_4c/3x3_reduce
I0312 02:13:05.376801 12026 net.cpp:150] Setting up inception_4c/3x3_reduce
I0312 02:13:05.376821 12026 net.cpp:157] Top shape: 24 128 14 14 (602112)
I0312 02:13:05.376827 12026 net.cpp:165] Memory required for data: 1035621508
I0312 02:13:05.376842 12026 layer_factory.hpp:77] Creating layer inception_4c/relu_3x3_reduce
I0312 02:13:05.376852 12026 net.cpp:106] Creating Layer inception_4c/relu_3x3_reduce
I0312 02:13:05.376859 12026 net.cpp:454] inception_4c/relu_3x3_reduce <- inception_4c/3x3_reduce
I0312 02:13:05.376868 12026 net.cpp:397] inception_4c/relu_3x3_reduce -> inception_4c/3x3_reduce (in-place)
I0312 02:13:05.377141 12026 net.cpp:150] Setting up inception_4c/relu_3x3_reduce
I0312 02:13:05.377157 12026 net.cpp:157] Top shape: 24 128 14 14 (602112)
I0312 02:13:05.377163 12026 net.cpp:165] Memory required for data: 1038029956
I0312 02:13:05.377171 12026 layer_factory.hpp:77] Creating layer inception_4c/3x3
I0312 02:13:05.377197 12026 net.cpp:106] Creating Layer inception_4c/3x3
I0312 02:13:05.377207 12026 net.cpp:454] inception_4c/3x3 <- inception_4c/3x3_reduce
I0312 02:13:05.377220 12026 net.cpp:411] inception_4c/3x3 -> inception_4c/3x3
I0312 02:13:05.381145 12026 net.cpp:150] Setting up inception_4c/3x3
I0312 02:13:05.381165 12026 net.cpp:157] Top shape: 24 256 14 14 (1204224)
I0312 02:13:05.381172 12026 net.cpp:165] Memory required for data: 1042846852
I0312 02:13:05.381201 12026 layer_factory.hpp:77] Creating layer inception_4c/relu_3x3
I0312 02:13:05.381213 12026 net.cpp:106] Creating Layer inception_4c/relu_3x3
I0312 02:13:05.381227 12026 net.cpp:454] inception_4c/relu_3x3 <- inception_4c/3x3
I0312 02:13:05.381237 12026 net.cpp:397] inception_4c/relu_3x3 -> inception_4c/3x3 (in-place)
I0312 02:13:05.381520 12026 net.cpp:150] Setting up inception_4c/relu_3x3
I0312 02:13:05.381537 12026 net.cpp:157] Top shape: 24 256 14 14 (1204224)
I0312 02:13:05.381544 12026 net.cpp:165] Memory required for data: 1047663748
I0312 02:13:05.381551 12026 layer_factory.hpp:77] Creating layer inception_4c/5x5_reduce
I0312 02:13:05.381567 12026 net.cpp:106] Creating Layer inception_4c/5x5_reduce
I0312 02:13:05.381575 12026 net.cpp:454] inception_4c/5x5_reduce <- inception_4b/output_inception_4b/output_0_split_2
I0312 02:13:05.381588 12026 net.cpp:411] inception_4c/5x5_reduce -> inception_4c/5x5_reduce
I0312 02:13:05.382696 12026 net.cpp:150] Setting up inception_4c/5x5_reduce
I0312 02:13:05.382716 12026 net.cpp:157] Top shape: 24 24 14 14 (112896)
I0312 02:13:05.382730 12026 net.cpp:165] Memory required for data: 1048115332
I0312 02:13:05.382761 12026 layer_factory.hpp:77] Creating layer inception_4c/relu_5x5_reduce
I0312 02:13:05.382777 12026 net.cpp:106] Creating Layer inception_4c/relu_5x5_reduce
I0312 02:13:05.382786 12026 net.cpp:454] inception_4c/relu_5x5_reduce <- inception_4c/5x5_reduce
I0312 02:13:05.382794 12026 net.cpp:397] inception_4c/relu_5x5_reduce -> inception_4c/5x5_reduce (in-place)
I0312 02:13:05.382999 12026 net.cpp:150] Setting up inception_4c/relu_5x5_reduce
I0312 02:13:05.383015 12026 net.cpp:157] Top shape: 24 24 14 14 (112896)
I0312 02:13:05.383023 12026 net.cpp:165] Memory required for data: 1048566916
I0312 02:13:05.383028 12026 layer_factory.hpp:77] Creating layer inception_4c/5x5
I0312 02:13:05.383044 12026 net.cpp:106] Creating Layer inception_4c/5x5
I0312 02:13:05.383052 12026 net.cpp:454] inception_4c/5x5 <- inception_4c/5x5_reduce
I0312 02:13:05.383065 12026 net.cpp:411] inception_4c/5x5 -> inception_4c/5x5
I0312 02:13:05.384904 12026 net.cpp:150] Setting up inception_4c/5x5
I0312 02:13:05.384922 12026 net.cpp:157] Top shape: 24 64 14 14 (301056)
I0312 02:13:05.384929 12026 net.cpp:165] Memory required for data: 1049771140
I0312 02:13:05.384945 12026 layer_factory.hpp:77] Creating layer inception_4c/relu_5x5
I0312 02:13:05.384955 12026 net.cpp:106] Creating Layer inception_4c/relu_5x5
I0312 02:13:05.384963 12026 net.cpp:454] inception_4c/relu_5x5 <- inception_4c/5x5
I0312 02:13:05.384975 12026 net.cpp:397] inception_4c/relu_5x5 -> inception_4c/5x5 (in-place)
I0312 02:13:05.385244 12026 net.cpp:150] Setting up inception_4c/relu_5x5
I0312 02:13:05.385262 12026 net.cpp:157] Top shape: 24 64 14 14 (301056)
I0312 02:13:05.385269 12026 net.cpp:165] Memory required for data: 1050975364
I0312 02:13:05.385277 12026 layer_factory.hpp:77] Creating layer inception_4c/pool
I0312 02:13:05.385288 12026 net.cpp:106] Creating Layer inception_4c/pool
I0312 02:13:05.385294 12026 net.cpp:454] inception_4c/pool <- inception_4b/output_inception_4b/output_0_split_3
I0312 02:13:05.385306 12026 net.cpp:411] inception_4c/pool -> inception_4c/pool
I0312 02:13:05.385385 12026 net.cpp:150] Setting up inception_4c/pool
I0312 02:13:05.385403 12026 net.cpp:157] Top shape: 24 512 14 14 (2408448)
I0312 02:13:05.385409 12026 net.cpp:165] Memory required for data: 1060609156
I0312 02:13:05.385416 12026 layer_factory.hpp:77] Creating layer inception_4c/pool_proj
I0312 02:13:05.385429 12026 net.cpp:106] Creating Layer inception_4c/pool_proj
I0312 02:13:05.385437 12026 net.cpp:454] inception_4c/pool_proj <- inception_4c/pool
I0312 02:13:05.385452 12026 net.cpp:411] inception_4c/pool_proj -> inception_4c/pool_proj
I0312 02:13:05.386605 12026 net.cpp:150] Setting up inception_4c/pool_proj
I0312 02:13:05.386623 12026 net.cpp:157] Top shape: 24 64 14 14 (301056)
I0312 02:13:05.386631 12026 net.cpp:165] Memory required for data: 1061813380
I0312 02:13:05.386641 12026 layer_factory.hpp:77] Creating layer inception_4c/relu_pool_proj
I0312 02:13:05.386652 12026 net.cpp:106] Creating Layer inception_4c/relu_pool_proj
I0312 02:13:05.386659 12026 net.cpp:454] inception_4c/relu_pool_proj <- inception_4c/pool_proj
I0312 02:13:05.386674 12026 net.cpp:397] inception_4c/relu_pool_proj -> inception_4c/pool_proj (in-place)
I0312 02:13:05.386986 12026 net.cpp:150] Setting up inception_4c/relu_pool_proj
I0312 02:13:05.387002 12026 net.cpp:157] Top shape: 24 64 14 14 (301056)
I0312 02:13:05.387008 12026 net.cpp:165] Memory required for data: 1063017604
I0312 02:13:05.387015 12026 layer_factory.hpp:77] Creating layer inception_4c/output
I0312 02:13:05.387025 12026 net.cpp:106] Creating Layer inception_4c/output
I0312 02:13:05.387032 12026 net.cpp:454] inception_4c/output <- inception_4c/1x1
I0312 02:13:05.387040 12026 net.cpp:454] inception_4c/output <- inception_4c/3x3
I0312 02:13:05.387048 12026 net.cpp:454] inception_4c/output <- inception_4c/5x5
I0312 02:13:05.387054 12026 net.cpp:454] inception_4c/output <- inception_4c/pool_proj
I0312 02:13:05.387065 12026 net.cpp:411] inception_4c/output -> inception_4c/output
I0312 02:13:05.387110 12026 net.cpp:150] Setting up inception_4c/output
I0312 02:13:05.387122 12026 net.cpp:157] Top shape: 24 512 14 14 (2408448)
I0312 02:13:05.387128 12026 net.cpp:165] Memory required for data: 1072651396
I0312 02:13:05.387135 12026 layer_factory.hpp:77] Creating layer inception_4c/output_inception_4c/output_0_split
I0312 02:13:05.387145 12026 net.cpp:106] Creating Layer inception_4c/output_inception_4c/output_0_split
I0312 02:13:05.387151 12026 net.cpp:454] inception_4c/output_inception_4c/output_0_split <- inception_4c/output
I0312 02:13:05.387159 12026 net.cpp:411] inception_4c/output_inception_4c/output_0_split -> inception_4c/output_inception_4c/output_0_split_0
I0312 02:13:05.387172 12026 net.cpp:411] inception_4c/output_inception_4c/output_0_split -> inception_4c/output_inception_4c/output_0_split_1
I0312 02:13:05.387184 12026 net.cpp:411] inception_4c/output_inception_4c/output_0_split -> inception_4c/output_inception_4c/output_0_split_2
I0312 02:13:05.387194 12026 net.cpp:411] inception_4c/output_inception_4c/output_0_split -> inception_4c/output_inception_4c/output_0_split_3
I0312 02:13:05.387279 12026 net.cpp:150] Setting up inception_4c/output_inception_4c/output_0_split
I0312 02:13:05.387292 12026 net.cpp:157] Top shape: 24 512 14 14 (2408448)
I0312 02:13:05.387300 12026 net.cpp:157] Top shape: 24 512 14 14 (2408448)
I0312 02:13:05.387307 12026 net.cpp:157] Top shape: 24 512 14 14 (2408448)
I0312 02:13:05.387315 12026 net.cpp:157] Top shape: 24 512 14 14 (2408448)
I0312 02:13:05.387320 12026 net.cpp:165] Memory required for data: 1111186564
I0312 02:13:05.387326 12026 layer_factory.hpp:77] Creating layer inception_4d/1x1
I0312 02:13:05.387343 12026 net.cpp:106] Creating Layer inception_4d/1x1
I0312 02:13:05.387353 12026 net.cpp:454] inception_4d/1x1 <- inception_4c/output_inception_4c/output_0_split_0
I0312 02:13:05.387364 12026 net.cpp:411] inception_4d/1x1 -> inception_4d/1x1
I0312 02:13:05.388818 12026 net.cpp:150] Setting up inception_4d/1x1
I0312 02:13:05.388836 12026 net.cpp:157] Top shape: 24 112 14 14 (526848)
I0312 02:13:05.388844 12026 net.cpp:165] Memory required for data: 1113293956
I0312 02:13:05.388854 12026 layer_factory.hpp:77] Creating layer inception_4d/relu_1x1
I0312 02:13:05.388865 12026 net.cpp:106] Creating Layer inception_4d/relu_1x1
I0312 02:13:05.388872 12026 net.cpp:454] inception_4d/relu_1x1 <- inception_4d/1x1
I0312 02:13:05.388883 12026 net.cpp:397] inception_4d/relu_1x1 -> inception_4d/1x1 (in-place)
I0312 02:13:05.389056 12026 net.cpp:150] Setting up inception_4d/relu_1x1
I0312 02:13:05.389071 12026 net.cpp:157] Top shape: 24 112 14 14 (526848)
I0312 02:13:05.389078 12026 net.cpp:165] Memory required for data: 1115401348
I0312 02:13:05.389084 12026 layer_factory.hpp:77] Creating layer inception_4d/3x3_reduce
I0312 02:13:05.389101 12026 net.cpp:106] Creating Layer inception_4d/3x3_reduce
I0312 02:13:05.389108 12026 net.cpp:454] inception_4d/3x3_reduce <- inception_4c/output_inception_4c/output_0_split_1
I0312 02:13:05.389118 12026 net.cpp:411] inception_4d/3x3_reduce -> inception_4d/3x3_reduce
I0312 02:13:05.390807 12026 net.cpp:150] Setting up inception_4d/3x3_reduce
I0312 02:13:05.390836 12026 net.cpp:157] Top shape: 24 144 14 14 (677376)
I0312 02:13:05.390851 12026 net.cpp:165] Memory required for data: 1118110852
I0312 02:13:05.390862 12026 layer_factory.hpp:77] Creating layer inception_4d/relu_3x3_reduce
I0312 02:13:05.390875 12026 net.cpp:106] Creating Layer inception_4d/relu_3x3_reduce
I0312 02:13:05.390883 12026 net.cpp:454] inception_4d/relu_3x3_reduce <- inception_4d/3x3_reduce
I0312 02:13:05.390893 12026 net.cpp:397] inception_4d/relu_3x3_reduce -> inception_4d/3x3_reduce (in-place)
I0312 02:13:05.391188 12026 net.cpp:150] Setting up inception_4d/relu_3x3_reduce
I0312 02:13:05.391206 12026 net.cpp:157] Top shape: 24 144 14 14 (677376)
I0312 02:13:05.391212 12026 net.cpp:165] Memory required for data: 1120820356
I0312 02:13:05.391218 12026 layer_factory.hpp:77] Creating layer inception_4d/3x3
I0312 02:13:05.391235 12026 net.cpp:106] Creating Layer inception_4d/3x3
I0312 02:13:05.391243 12026 net.cpp:454] inception_4d/3x3 <- inception_4d/3x3_reduce
I0312 02:13:05.391257 12026 net.cpp:411] inception_4d/3x3 -> inception_4d/3x3
I0312 02:13:05.395800 12026 net.cpp:150] Setting up inception_4d/3x3
I0312 02:13:05.395826 12026 net.cpp:157] Top shape: 24 288 14 14 (1354752)
I0312 02:13:05.395833 12026 net.cpp:165] Memory required for data: 1126239364
I0312 02:13:05.395845 12026 layer_factory.hpp:77] Creating layer inception_4d/relu_3x3
I0312 02:13:05.395858 12026 net.cpp:106] Creating Layer inception_4d/relu_3x3
I0312 02:13:05.395864 12026 net.cpp:454] inception_4d/relu_3x3 <- inception_4d/3x3
I0312 02:13:05.395876 12026 net.cpp:397] inception_4d/relu_3x3 -> inception_4d/3x3 (in-place)
I0312 02:13:05.396163 12026 net.cpp:150] Setting up inception_4d/relu_3x3
I0312 02:13:05.396179 12026 net.cpp:157] Top shape: 24 288 14 14 (1354752)
I0312 02:13:05.396185 12026 net.cpp:165] Memory required for data: 1131658372
I0312 02:13:05.396193 12026 layer_factory.hpp:77] Creating layer inception_4d/5x5_reduce
I0312 02:13:05.396211 12026 net.cpp:106] Creating Layer inception_4d/5x5_reduce
I0312 02:13:05.396219 12026 net.cpp:454] inception_4d/5x5_reduce <- inception_4c/output_inception_4c/output_0_split_2
I0312 02:13:05.396230 12026 net.cpp:411] inception_4d/5x5_reduce -> inception_4d/5x5_reduce
I0312 02:13:05.397424 12026 net.cpp:150] Setting up inception_4d/5x5_reduce
I0312 02:13:05.397444 12026 net.cpp:157] Top shape: 24 32 14 14 (150528)
I0312 02:13:05.397450 12026 net.cpp:165] Memory required for data: 1132260484
I0312 02:13:05.397461 12026 layer_factory.hpp:77] Creating layer inception_4d/relu_5x5_reduce
I0312 02:13:05.397475 12026 net.cpp:106] Creating Layer inception_4d/relu_5x5_reduce
I0312 02:13:05.397482 12026 net.cpp:454] inception_4d/relu_5x5_reduce <- inception_4d/5x5_reduce
I0312 02:13:05.397495 12026 net.cpp:397] inception_4d/relu_5x5_reduce -> inception_4d/5x5_reduce (in-place)
I0312 02:13:05.397670 12026 net.cpp:150] Setting up inception_4d/relu_5x5_reduce
I0312 02:13:05.397685 12026 net.cpp:157] Top shape: 24 32 14 14 (150528)
I0312 02:13:05.397691 12026 net.cpp:165] Memory required for data: 1132862596
I0312 02:13:05.397698 12026 layer_factory.hpp:77] Creating layer inception_4d/5x5
I0312 02:13:05.397716 12026 net.cpp:106] Creating Layer inception_4d/5x5
I0312 02:13:05.397723 12026 net.cpp:454] inception_4d/5x5 <- inception_4d/5x5_reduce
I0312 02:13:05.397734 12026 net.cpp:411] inception_4d/5x5 -> inception_4d/5x5
I0312 02:13:05.399335 12026 net.cpp:150] Setting up inception_4d/5x5
I0312 02:13:05.399354 12026 net.cpp:157] Top shape: 24 64 14 14 (301056)
I0312 02:13:05.399361 12026 net.cpp:165] Memory required for data: 1134066820
I0312 02:13:05.399372 12026 layer_factory.hpp:77] Creating layer inception_4d/relu_5x5
I0312 02:13:05.399385 12026 net.cpp:106] Creating Layer inception_4d/relu_5x5
I0312 02:13:05.399394 12026 net.cpp:454] inception_4d/relu_5x5 <- inception_4d/5x5
I0312 02:13:05.399402 12026 net.cpp:397] inception_4d/relu_5x5 -> inception_4d/5x5 (in-place)
I0312 02:13:05.399684 12026 net.cpp:150] Setting up inception_4d/relu_5x5
I0312 02:13:05.399710 12026 net.cpp:157] Top shape: 24 64 14 14 (301056)
I0312 02:13:05.399718 12026 net.cpp:165] Memory required for data: 1135271044
I0312 02:13:05.399734 12026 layer_factory.hpp:77] Creating layer inception_4d/pool
I0312 02:13:05.399749 12026 net.cpp:106] Creating Layer inception_4d/pool
I0312 02:13:05.399756 12026 net.cpp:454] inception_4d/pool <- inception_4c/output_inception_4c/output_0_split_3
I0312 02:13:05.399765 12026 net.cpp:411] inception_4d/pool -> inception_4d/pool
I0312 02:13:05.399857 12026 net.cpp:150] Setting up inception_4d/pool
I0312 02:13:05.399870 12026 net.cpp:157] Top shape: 24 512 14 14 (2408448)
I0312 02:13:05.399878 12026 net.cpp:165] Memory required for data: 1144904836
I0312 02:13:05.399883 12026 layer_factory.hpp:77] Creating layer inception_4d/pool_proj
I0312 02:13:05.399899 12026 net.cpp:106] Creating Layer inception_4d/pool_proj
I0312 02:13:05.399907 12026 net.cpp:454] inception_4d/pool_proj <- inception_4d/pool
I0312 02:13:05.399919 12026 net.cpp:411] inception_4d/pool_proj -> inception_4d/pool_proj
I0312 02:13:05.401118 12026 net.cpp:150] Setting up inception_4d/pool_proj
I0312 02:13:05.401136 12026 net.cpp:157] Top shape: 24 64 14 14 (301056)
I0312 02:13:05.401144 12026 net.cpp:165] Memory required for data: 1146109060
I0312 02:13:05.401154 12026 layer_factory.hpp:77] Creating layer inception_4d/relu_pool_proj
I0312 02:13:05.401165 12026 net.cpp:106] Creating Layer inception_4d/relu_pool_proj
I0312 02:13:05.401171 12026 net.cpp:454] inception_4d/relu_pool_proj <- inception_4d/pool_proj
I0312 02:13:05.401183 12026 net.cpp:397] inception_4d/relu_pool_proj -> inception_4d/pool_proj (in-place)
I0312 02:13:05.401463 12026 net.cpp:150] Setting up inception_4d/relu_pool_proj
I0312 02:13:05.401479 12026 net.cpp:157] Top shape: 24 64 14 14 (301056)
I0312 02:13:05.401485 12026 net.cpp:165] Memory required for data: 1147313284
I0312 02:13:05.401492 12026 layer_factory.hpp:77] Creating layer inception_4d/output
I0312 02:13:05.401505 12026 net.cpp:106] Creating Layer inception_4d/output
I0312 02:13:05.401513 12026 net.cpp:454] inception_4d/output <- inception_4d/1x1
I0312 02:13:05.401521 12026 net.cpp:454] inception_4d/output <- inception_4d/3x3
I0312 02:13:05.401530 12026 net.cpp:454] inception_4d/output <- inception_4d/5x5
I0312 02:13:05.401536 12026 net.cpp:454] inception_4d/output <- inception_4d/pool_proj
I0312 02:13:05.401545 12026 net.cpp:411] inception_4d/output -> inception_4d/output
I0312 02:13:05.401593 12026 net.cpp:150] Setting up inception_4d/output
I0312 02:13:05.401607 12026 net.cpp:157] Top shape: 24 528 14 14 (2483712)
I0312 02:13:05.401612 12026 net.cpp:165] Memory required for data: 1157248132
I0312 02:13:05.401619 12026 layer_factory.hpp:77] Creating layer inception_4d/output_inception_4d/output_0_split
I0312 02:13:05.401629 12026 net.cpp:106] Creating Layer inception_4d/output_inception_4d/output_0_split
I0312 02:13:05.401635 12026 net.cpp:454] inception_4d/output_inception_4d/output_0_split <- inception_4d/output
I0312 02:13:05.401648 12026 net.cpp:411] inception_4d/output_inception_4d/output_0_split -> inception_4d/output_inception_4d/output_0_split_0
I0312 02:13:05.401659 12026 net.cpp:411] inception_4d/output_inception_4d/output_0_split -> inception_4d/output_inception_4d/output_0_split_1
I0312 02:13:05.401669 12026 net.cpp:411] inception_4d/output_inception_4d/output_0_split -> inception_4d/output_inception_4d/output_0_split_2
I0312 02:13:05.401680 12026 net.cpp:411] inception_4d/output_inception_4d/output_0_split -> inception_4d/output_inception_4d/output_0_split_3
I0312 02:13:05.401690 12026 net.cpp:411] inception_4d/output_inception_4d/output_0_split -> inception_4d/output_inception_4d/output_0_split_4
I0312 02:13:05.401798 12026 net.cpp:150] Setting up inception_4d/output_inception_4d/output_0_split
I0312 02:13:05.401811 12026 net.cpp:157] Top shape: 24 528 14 14 (2483712)
I0312 02:13:05.401818 12026 net.cpp:157] Top shape: 24 528 14 14 (2483712)
I0312 02:13:05.401826 12026 net.cpp:157] Top shape: 24 528 14 14 (2483712)
I0312 02:13:05.401834 12026 net.cpp:157] Top shape: 24 528 14 14 (2483712)
I0312 02:13:05.401846 12026 net.cpp:157] Top shape: 24 528 14 14 (2483712)
I0312 02:13:05.401859 12026 net.cpp:165] Memory required for data: 1206922372
I0312 02:13:05.401866 12026 layer_factory.hpp:77] Creating layer loss2/ave_pool
I0312 02:13:05.401876 12026 net.cpp:106] Creating Layer loss2/ave_pool
I0312 02:13:05.401883 12026 net.cpp:454] loss2/ave_pool <- inception_4d/output_inception_4d/output_0_split_0
I0312 02:13:05.401895 12026 net.cpp:411] loss2/ave_pool -> loss2/ave_pool
I0312 02:13:05.402097 12026 net.cpp:150] Setting up loss2/ave_pool
I0312 02:13:05.402113 12026 net.cpp:157] Top shape: 24 528 4 4 (202752)
I0312 02:13:05.402119 12026 net.cpp:165] Memory required for data: 1207733380
I0312 02:13:05.402127 12026 layer_factory.hpp:77] Creating layer loss2/conv
I0312 02:13:05.402144 12026 net.cpp:106] Creating Layer loss2/conv
I0312 02:13:05.402153 12026 net.cpp:454] loss2/conv <- loss2/ave_pool
I0312 02:13:05.402163 12026 net.cpp:411] loss2/conv -> loss2/conv
I0312 02:13:05.404429 12026 net.cpp:150] Setting up loss2/conv
I0312 02:13:05.404450 12026 net.cpp:157] Top shape: 24 128 4 4 (49152)
I0312 02:13:05.404458 12026 net.cpp:165] Memory required for data: 1207929988
I0312 02:13:05.404469 12026 layer_factory.hpp:77] Creating layer loss2/relu_conv
I0312 02:13:05.404484 12026 net.cpp:106] Creating Layer loss2/relu_conv
I0312 02:13:05.404494 12026 net.cpp:454] loss2/relu_conv <- loss2/conv
I0312 02:13:05.404503 12026 net.cpp:397] loss2/relu_conv -> loss2/conv (in-place)
I0312 02:13:05.404783 12026 net.cpp:150] Setting up loss2/relu_conv
I0312 02:13:05.404799 12026 net.cpp:157] Top shape: 24 128 4 4 (49152)
I0312 02:13:05.404806 12026 net.cpp:165] Memory required for data: 1208126596
I0312 02:13:05.404814 12026 layer_factory.hpp:77] Creating layer loss2/fc
I0312 02:13:05.404827 12026 net.cpp:106] Creating Layer loss2/fc
I0312 02:13:05.404835 12026 net.cpp:454] loss2/fc <- loss2/conv
I0312 02:13:05.404845 12026 net.cpp:411] loss2/fc -> loss2/fc
I0312 02:13:05.424788 12026 net.cpp:150] Setting up loss2/fc
I0312 02:13:05.424839 12026 net.cpp:157] Top shape: 24 1024 (24576)
I0312 02:13:05.424845 12026 net.cpp:165] Memory required for data: 1208224900
I0312 02:13:05.424861 12026 layer_factory.hpp:77] Creating layer loss2/relu_fc
I0312 02:13:05.424877 12026 net.cpp:106] Creating Layer loss2/relu_fc
I0312 02:13:05.424887 12026 net.cpp:454] loss2/relu_fc <- loss2/fc
I0312 02:13:05.424901 12026 net.cpp:397] loss2/relu_fc -> loss2/fc (in-place)
I0312 02:13:05.425140 12026 net.cpp:150] Setting up loss2/relu_fc
I0312 02:13:05.425155 12026 net.cpp:157] Top shape: 24 1024 (24576)
I0312 02:13:05.425163 12026 net.cpp:165] Memory required for data: 1208323204
I0312 02:13:05.425169 12026 layer_factory.hpp:77] Creating layer loss2/drop_fc
I0312 02:13:05.425182 12026 net.cpp:106] Creating Layer loss2/drop_fc
I0312 02:13:05.425190 12026 net.cpp:454] loss2/drop_fc <- loss2/fc
I0312 02:13:05.425201 12026 net.cpp:397] loss2/drop_fc -> loss2/fc (in-place)
I0312 02:13:05.425251 12026 net.cpp:150] Setting up loss2/drop_fc
I0312 02:13:05.425262 12026 net.cpp:157] Top shape: 24 1024 (24576)
I0312 02:13:05.425268 12026 net.cpp:165] Memory required for data: 1208421508
I0312 02:13:05.425276 12026 layer_factory.hpp:77] Creating layer myloss2/classifier
I0312 02:13:05.425290 12026 net.cpp:106] Creating Layer myloss2/classifier
I0312 02:13:05.425297 12026 net.cpp:454] myloss2/classifier <- loss2/fc
I0312 02:13:05.425307 12026 net.cpp:411] myloss2/classifier -> myloss2/classifier
I0312 02:13:05.427552 12026 net.cpp:150] Setting up myloss2/classifier
I0312 02:13:05.427570 12026 net.cpp:157] Top shape: 24 200 (4800)
I0312 02:13:05.427577 12026 net.cpp:165] Memory required for data: 1208440708
I0312 02:13:05.427587 12026 layer_factory.hpp:77] Creating layer loss2/loss
I0312 02:13:05.427599 12026 net.cpp:106] Creating Layer loss2/loss
I0312 02:13:05.427608 12026 net.cpp:454] loss2/loss <- myloss2/classifier
I0312 02:13:05.427615 12026 net.cpp:454] loss2/loss <- label_data_1_split_1
I0312 02:13:05.427624 12026 net.cpp:411] loss2/loss -> loss2/loss1
I0312 02:13:05.427649 12026 layer_factory.hpp:77] Creating layer loss2/loss
I0312 02:13:05.428112 12026 net.cpp:150] Setting up loss2/loss
I0312 02:13:05.428128 12026 net.cpp:157] Top shape: (1)
I0312 02:13:05.428134 12026 net.cpp:160]     with loss weight 0.3
I0312 02:13:05.428153 12026 net.cpp:165] Memory required for data: 1208440712
I0312 02:13:05.428159 12026 layer_factory.hpp:77] Creating layer inception_4e/1x1
I0312 02:13:05.428179 12026 net.cpp:106] Creating Layer inception_4e/1x1
I0312 02:13:05.428187 12026 net.cpp:454] inception_4e/1x1 <- inception_4d/output_inception_4d/output_0_split_1
I0312 02:13:05.428200 12026 net.cpp:411] inception_4e/1x1 -> inception_4e/1x1
I0312 02:13:05.430420 12026 net.cpp:150] Setting up inception_4e/1x1
I0312 02:13:05.430439 12026 net.cpp:157] Top shape: 24 256 14 14 (1204224)
I0312 02:13:05.430446 12026 net.cpp:165] Memory required for data: 1213257608
I0312 02:13:05.430460 12026 layer_factory.hpp:77] Creating layer inception_4e/relu_1x1
I0312 02:13:05.430474 12026 net.cpp:106] Creating Layer inception_4e/relu_1x1
I0312 02:13:05.430481 12026 net.cpp:454] inception_4e/relu_1x1 <- inception_4e/1x1
I0312 02:13:05.430490 12026 net.cpp:397] inception_4e/relu_1x1 -> inception_4e/1x1 (in-place)
I0312 02:13:05.430672 12026 net.cpp:150] Setting up inception_4e/relu_1x1
I0312 02:13:05.430687 12026 net.cpp:157] Top shape: 24 256 14 14 (1204224)
I0312 02:13:05.430693 12026 net.cpp:165] Memory required for data: 1218074504
I0312 02:13:05.430701 12026 layer_factory.hpp:77] Creating layer inception_4e/3x3_reduce
I0312 02:13:05.430716 12026 net.cpp:106] Creating Layer inception_4e/3x3_reduce
I0312 02:13:05.430723 12026 net.cpp:454] inception_4e/3x3_reduce <- inception_4d/output_inception_4d/output_0_split_2
I0312 02:13:05.430737 12026 net.cpp:411] inception_4e/3x3_reduce -> inception_4e/3x3_reduce
I0312 02:13:05.433061 12026 net.cpp:150] Setting up inception_4e/3x3_reduce
I0312 02:13:05.433082 12026 net.cpp:157] Top shape: 24 160 14 14 (752640)
I0312 02:13:05.433089 12026 net.cpp:165] Memory required for data: 1221085064
I0312 02:13:05.433100 12026 layer_factory.hpp:77] Creating layer inception_4e/relu_3x3_reduce
I0312 02:13:05.433111 12026 net.cpp:106] Creating Layer inception_4e/relu_3x3_reduce
I0312 02:13:05.433120 12026 net.cpp:454] inception_4e/relu_3x3_reduce <- inception_4e/3x3_reduce
I0312 02:13:05.433128 12026 net.cpp:397] inception_4e/relu_3x3_reduce -> inception_4e/3x3_reduce (in-place)
I0312 02:13:05.433411 12026 net.cpp:150] Setting up inception_4e/relu_3x3_reduce
I0312 02:13:05.433428 12026 net.cpp:157] Top shape: 24 160 14 14 (752640)
I0312 02:13:05.433434 12026 net.cpp:165] Memory required for data: 1224095624
I0312 02:13:05.433441 12026 layer_factory.hpp:77] Creating layer inception_4e/3x3
I0312 02:13:05.433457 12026 net.cpp:106] Creating Layer inception_4e/3x3
I0312 02:13:05.433468 12026 net.cpp:454] inception_4e/3x3 <- inception_4e/3x3_reduce
I0312 02:13:05.433480 12026 net.cpp:411] inception_4e/3x3 -> inception_4e/3x3
I0312 02:13:05.438604 12026 net.cpp:150] Setting up inception_4e/3x3
I0312 02:13:05.438637 12026 net.cpp:157] Top shape: 24 320 14 14 (1505280)
I0312 02:13:05.438644 12026 net.cpp:165] Memory required for data: 1230116744
I0312 02:13:05.438657 12026 layer_factory.hpp:77] Creating layer inception_4e/relu_3x3
I0312 02:13:05.438673 12026 net.cpp:106] Creating Layer inception_4e/relu_3x3
I0312 02:13:05.438681 12026 net.cpp:454] inception_4e/relu_3x3 <- inception_4e/3x3
I0312 02:13:05.438690 12026 net.cpp:397] inception_4e/relu_3x3 -> inception_4e/3x3 (in-place)
I0312 02:13:05.439003 12026 net.cpp:150] Setting up inception_4e/relu_3x3
I0312 02:13:05.439021 12026 net.cpp:157] Top shape: 24 320 14 14 (1505280)
I0312 02:13:05.439028 12026 net.cpp:165] Memory required for data: 1236137864
I0312 02:13:05.439035 12026 layer_factory.hpp:77] Creating layer inception_4e/5x5_reduce
I0312 02:13:05.439052 12026 net.cpp:106] Creating Layer inception_4e/5x5_reduce
I0312 02:13:05.439060 12026 net.cpp:454] inception_4e/5x5_reduce <- inception_4d/output_inception_4d/output_0_split_3
I0312 02:13:05.439095 12026 net.cpp:411] inception_4e/5x5_reduce -> inception_4e/5x5_reduce
I0312 02:13:05.440395 12026 net.cpp:150] Setting up inception_4e/5x5_reduce
I0312 02:13:05.440414 12026 net.cpp:157] Top shape: 24 32 14 14 (150528)
I0312 02:13:05.440421 12026 net.cpp:165] Memory required for data: 1236739976
I0312 02:13:05.440433 12026 layer_factory.hpp:77] Creating layer inception_4e/relu_5x5_reduce
I0312 02:13:05.440443 12026 net.cpp:106] Creating Layer inception_4e/relu_5x5_reduce
I0312 02:13:05.440451 12026 net.cpp:454] inception_4e/relu_5x5_reduce <- inception_4e/5x5_reduce
I0312 02:13:05.440462 12026 net.cpp:397] inception_4e/relu_5x5_reduce -> inception_4e/5x5_reduce (in-place)
I0312 02:13:05.440641 12026 net.cpp:150] Setting up inception_4e/relu_5x5_reduce
I0312 02:13:05.440656 12026 net.cpp:157] Top shape: 24 32 14 14 (150528)
I0312 02:13:05.440664 12026 net.cpp:165] Memory required for data: 1237342088
I0312 02:13:05.440670 12026 layer_factory.hpp:77] Creating layer inception_4e/5x5
I0312 02:13:05.440707 12026 net.cpp:106] Creating Layer inception_4e/5x5
I0312 02:13:05.440716 12026 net.cpp:454] inception_4e/5x5 <- inception_4e/5x5_reduce
I0312 02:13:05.440727 12026 net.cpp:411] inception_4e/5x5 -> inception_4e/5x5
I0312 02:13:05.442719 12026 net.cpp:150] Setting up inception_4e/5x5
I0312 02:13:05.442737 12026 net.cpp:157] Top shape: 24 128 14 14 (602112)
I0312 02:13:05.442760 12026 net.cpp:165] Memory required for data: 1239750536
I0312 02:13:05.442773 12026 layer_factory.hpp:77] Creating layer inception_4e/relu_5x5
I0312 02:13:05.442785 12026 net.cpp:106] Creating Layer inception_4e/relu_5x5
I0312 02:13:05.442792 12026 net.cpp:454] inception_4e/relu_5x5 <- inception_4e/5x5
I0312 02:13:05.442803 12026 net.cpp:397] inception_4e/relu_5x5 -> inception_4e/5x5 (in-place)
I0312 02:13:05.443083 12026 net.cpp:150] Setting up inception_4e/relu_5x5
I0312 02:13:05.443102 12026 net.cpp:157] Top shape: 24 128 14 14 (602112)
I0312 02:13:05.443109 12026 net.cpp:165] Memory required for data: 1242158984
I0312 02:13:05.443116 12026 layer_factory.hpp:77] Creating layer inception_4e/pool
I0312 02:13:05.443128 12026 net.cpp:106] Creating Layer inception_4e/pool
I0312 02:13:05.443135 12026 net.cpp:454] inception_4e/pool <- inception_4d/output_inception_4d/output_0_split_4
I0312 02:13:05.443145 12026 net.cpp:411] inception_4e/pool -> inception_4e/pool
I0312 02:13:05.443215 12026 net.cpp:150] Setting up inception_4e/pool
I0312 02:13:05.443228 12026 net.cpp:157] Top shape: 24 528 14 14 (2483712)
I0312 02:13:05.443234 12026 net.cpp:165] Memory required for data: 1252093832
I0312 02:13:05.443241 12026 layer_factory.hpp:77] Creating layer inception_4e/pool_proj
I0312 02:13:05.443256 12026 net.cpp:106] Creating Layer inception_4e/pool_proj
I0312 02:13:05.443264 12026 net.cpp:454] inception_4e/pool_proj <- inception_4e/pool
I0312 02:13:05.443280 12026 net.cpp:411] inception_4e/pool_proj -> inception_4e/pool_proj
I0312 02:13:05.444778 12026 net.cpp:150] Setting up inception_4e/pool_proj
I0312 02:13:05.444797 12026 net.cpp:157] Top shape: 24 128 14 14 (602112)
I0312 02:13:05.444803 12026 net.cpp:165] Memory required for data: 1254502280
I0312 02:13:05.444814 12026 layer_factory.hpp:77] Creating layer inception_4e/relu_pool_proj
I0312 02:13:05.444828 12026 net.cpp:106] Creating Layer inception_4e/relu_pool_proj
I0312 02:13:05.444835 12026 net.cpp:454] inception_4e/relu_pool_proj <- inception_4e/pool_proj
I0312 02:13:05.444844 12026 net.cpp:397] inception_4e/relu_pool_proj -> inception_4e/pool_proj (in-place)
I0312 02:13:05.445132 12026 net.cpp:150] Setting up inception_4e/relu_pool_proj
I0312 02:13:05.445149 12026 net.cpp:157] Top shape: 24 128 14 14 (602112)
I0312 02:13:05.445155 12026 net.cpp:165] Memory required for data: 1256910728
I0312 02:13:05.445163 12026 layer_factory.hpp:77] Creating layer inception_4e/output
I0312 02:13:05.445178 12026 net.cpp:106] Creating Layer inception_4e/output
I0312 02:13:05.445186 12026 net.cpp:454] inception_4e/output <- inception_4e/1x1
I0312 02:13:05.445194 12026 net.cpp:454] inception_4e/output <- inception_4e/3x3
I0312 02:13:05.445209 12026 net.cpp:454] inception_4e/output <- inception_4e/5x5
I0312 02:13:05.445225 12026 net.cpp:454] inception_4e/output <- inception_4e/pool_proj
I0312 02:13:05.445233 12026 net.cpp:411] inception_4e/output -> inception_4e/output
I0312 02:13:05.445284 12026 net.cpp:150] Setting up inception_4e/output
I0312 02:13:05.445297 12026 net.cpp:157] Top shape: 24 832 14 14 (3913728)
I0312 02:13:05.445303 12026 net.cpp:165] Memory required for data: 1272565640
I0312 02:13:05.445309 12026 layer_factory.hpp:77] Creating layer pool4/3x3_s2
I0312 02:13:05.445318 12026 net.cpp:106] Creating Layer pool4/3x3_s2
I0312 02:13:05.445325 12026 net.cpp:454] pool4/3x3_s2 <- inception_4e/output
I0312 02:13:05.445338 12026 net.cpp:411] pool4/3x3_s2 -> pool4/3x3_s2
I0312 02:13:05.445405 12026 net.cpp:150] Setting up pool4/3x3_s2
I0312 02:13:05.445420 12026 net.cpp:157] Top shape: 24 832 7 7 (978432)
I0312 02:13:05.445426 12026 net.cpp:165] Memory required for data: 1276479368
I0312 02:13:05.445433 12026 layer_factory.hpp:77] Creating layer pool4/3x3_s2_pool4/3x3_s2_0_split
I0312 02:13:05.445443 12026 net.cpp:106] Creating Layer pool4/3x3_s2_pool4/3x3_s2_0_split
I0312 02:13:05.445451 12026 net.cpp:454] pool4/3x3_s2_pool4/3x3_s2_0_split <- pool4/3x3_s2
I0312 02:13:05.445458 12026 net.cpp:411] pool4/3x3_s2_pool4/3x3_s2_0_split -> pool4/3x3_s2_pool4/3x3_s2_0_split_0
I0312 02:13:05.445468 12026 net.cpp:411] pool4/3x3_s2_pool4/3x3_s2_0_split -> pool4/3x3_s2_pool4/3x3_s2_0_split_1
I0312 02:13:05.445478 12026 net.cpp:411] pool4/3x3_s2_pool4/3x3_s2_0_split -> pool4/3x3_s2_pool4/3x3_s2_0_split_2
I0312 02:13:05.445490 12026 net.cpp:411] pool4/3x3_s2_pool4/3x3_s2_0_split -> pool4/3x3_s2_pool4/3x3_s2_0_split_3
I0312 02:13:05.445586 12026 net.cpp:150] Setting up pool4/3x3_s2_pool4/3x3_s2_0_split
I0312 02:13:05.445598 12026 net.cpp:157] Top shape: 24 832 7 7 (978432)
I0312 02:13:05.445606 12026 net.cpp:157] Top shape: 24 832 7 7 (978432)
I0312 02:13:05.445613 12026 net.cpp:157] Top shape: 24 832 7 7 (978432)
I0312 02:13:05.445621 12026 net.cpp:157] Top shape: 24 832 7 7 (978432)
I0312 02:13:05.445626 12026 net.cpp:165] Memory required for data: 1292134280
I0312 02:13:05.445632 12026 layer_factory.hpp:77] Creating layer inception_5a/1x1
I0312 02:13:05.445652 12026 net.cpp:106] Creating Layer inception_5a/1x1
I0312 02:13:05.445662 12026 net.cpp:454] inception_5a/1x1 <- pool4/3x3_s2_pool4/3x3_s2_0_split_0
I0312 02:13:05.445674 12026 net.cpp:411] inception_5a/1x1 -> inception_5a/1x1
I0312 02:13:05.448878 12026 net.cpp:150] Setting up inception_5a/1x1
I0312 02:13:05.448899 12026 net.cpp:157] Top shape: 24 256 7 7 (301056)
I0312 02:13:05.448906 12026 net.cpp:165] Memory required for data: 1293338504
I0312 02:13:05.448917 12026 layer_factory.hpp:77] Creating layer inception_5a/relu_1x1
I0312 02:13:05.448930 12026 net.cpp:106] Creating Layer inception_5a/relu_1x1
I0312 02:13:05.448938 12026 net.cpp:454] inception_5a/relu_1x1 <- inception_5a/1x1
I0312 02:13:05.448947 12026 net.cpp:397] inception_5a/relu_1x1 -> inception_5a/1x1 (in-place)
I0312 02:13:05.449129 12026 net.cpp:150] Setting up inception_5a/relu_1x1
I0312 02:13:05.449144 12026 net.cpp:157] Top shape: 24 256 7 7 (301056)
I0312 02:13:05.449151 12026 net.cpp:165] Memory required for data: 1294542728
I0312 02:13:05.449157 12026 layer_factory.hpp:77] Creating layer inception_5a/3x3_reduce
I0312 02:13:05.449175 12026 net.cpp:106] Creating Layer inception_5a/3x3_reduce
I0312 02:13:05.449189 12026 net.cpp:454] inception_5a/3x3_reduce <- pool4/3x3_s2_pool4/3x3_s2_0_split_1
I0312 02:13:05.449211 12026 net.cpp:411] inception_5a/3x3_reduce -> inception_5a/3x3_reduce
I0312 02:13:05.452085 12026 net.cpp:150] Setting up inception_5a/3x3_reduce
I0312 02:13:05.452111 12026 net.cpp:157] Top shape: 24 160 7 7 (188160)
I0312 02:13:05.452117 12026 net.cpp:165] Memory required for data: 1295295368
I0312 02:13:05.452129 12026 layer_factory.hpp:77] Creating layer inception_5a/relu_3x3_reduce
I0312 02:13:05.452143 12026 net.cpp:106] Creating Layer inception_5a/relu_3x3_reduce
I0312 02:13:05.452163 12026 net.cpp:454] inception_5a/relu_3x3_reduce <- inception_5a/3x3_reduce
I0312 02:13:05.452183 12026 net.cpp:397] inception_5a/relu_3x3_reduce -> inception_5a/3x3_reduce (in-place)
I0312 02:13:05.452471 12026 net.cpp:150] Setting up inception_5a/relu_3x3_reduce
I0312 02:13:05.452487 12026 net.cpp:157] Top shape: 24 160 7 7 (188160)
I0312 02:13:05.452493 12026 net.cpp:165] Memory required for data: 1296048008
I0312 02:13:05.452500 12026 layer_factory.hpp:77] Creating layer inception_5a/3x3
I0312 02:13:05.452517 12026 net.cpp:106] Creating Layer inception_5a/3x3
I0312 02:13:05.452525 12026 net.cpp:454] inception_5a/3x3 <- inception_5a/3x3_reduce
I0312 02:13:05.452540 12026 net.cpp:411] inception_5a/3x3 -> inception_5a/3x3
I0312 02:13:05.458021 12026 net.cpp:150] Setting up inception_5a/3x3
I0312 02:13:05.458050 12026 net.cpp:157] Top shape: 24 320 7 7 (376320)
I0312 02:13:05.458057 12026 net.cpp:165] Memory required for data: 1297553288
I0312 02:13:05.458070 12026 layer_factory.hpp:77] Creating layer inception_5a/relu_3x3
I0312 02:13:05.458083 12026 net.cpp:106] Creating Layer inception_5a/relu_3x3
I0312 02:13:05.458092 12026 net.cpp:454] inception_5a/relu_3x3 <- inception_5a/3x3
I0312 02:13:05.458101 12026 net.cpp:397] inception_5a/relu_3x3 -> inception_5a/3x3 (in-place)
I0312 02:13:05.458428 12026 net.cpp:150] Setting up inception_5a/relu_3x3
I0312 02:13:05.458444 12026 net.cpp:157] Top shape: 24 320 7 7 (376320)
I0312 02:13:05.458451 12026 net.cpp:165] Memory required for data: 1299058568
I0312 02:13:05.458458 12026 layer_factory.hpp:77] Creating layer inception_5a/5x5_reduce
I0312 02:13:05.458482 12026 net.cpp:106] Creating Layer inception_5a/5x5_reduce
I0312 02:13:05.458490 12026 net.cpp:454] inception_5a/5x5_reduce <- pool4/3x3_s2_pool4/3x3_s2_0_split_2
I0312 02:13:05.458504 12026 net.cpp:411] inception_5a/5x5_reduce -> inception_5a/5x5_reduce
I0312 02:13:05.459903 12026 net.cpp:150] Setting up inception_5a/5x5_reduce
I0312 02:13:05.459923 12026 net.cpp:157] Top shape: 24 32 7 7 (37632)
I0312 02:13:05.459931 12026 net.cpp:165] Memory required for data: 1299209096
I0312 02:13:05.459942 12026 layer_factory.hpp:77] Creating layer inception_5a/relu_5x5_reduce
I0312 02:13:05.459954 12026 net.cpp:106] Creating Layer inception_5a/relu_5x5_reduce
I0312 02:13:05.459960 12026 net.cpp:454] inception_5a/relu_5x5_reduce <- inception_5a/5x5_reduce
I0312 02:13:05.459969 12026 net.cpp:397] inception_5a/relu_5x5_reduce -> inception_5a/5x5_reduce (in-place)
I0312 02:13:05.460153 12026 net.cpp:150] Setting up inception_5a/relu_5x5_reduce
I0312 02:13:05.460170 12026 net.cpp:157] Top shape: 24 32 7 7 (37632)
I0312 02:13:05.460175 12026 net.cpp:165] Memory required for data: 1299359624
I0312 02:13:05.460182 12026 layer_factory.hpp:77] Creating layer inception_5a/5x5
I0312 02:13:05.460197 12026 net.cpp:106] Creating Layer inception_5a/5x5
I0312 02:13:05.460206 12026 net.cpp:454] inception_5a/5x5 <- inception_5a/5x5_reduce
I0312 02:13:05.460218 12026 net.cpp:411] inception_5a/5x5 -> inception_5a/5x5
I0312 02:13:05.462133 12026 net.cpp:150] Setting up inception_5a/5x5
I0312 02:13:05.462157 12026 net.cpp:157] Top shape: 24 128 7 7 (150528)
I0312 02:13:05.462164 12026 net.cpp:165] Memory required for data: 1299961736
I0312 02:13:05.462175 12026 layer_factory.hpp:77] Creating layer inception_5a/relu_5x5
I0312 02:13:05.462185 12026 net.cpp:106] Creating Layer inception_5a/relu_5x5
I0312 02:13:05.462193 12026 net.cpp:454] inception_5a/relu_5x5 <- inception_5a/5x5
I0312 02:13:05.462203 12026 net.cpp:397] inception_5a/relu_5x5 -> inception_5a/5x5 (in-place)
I0312 02:13:05.462532 12026 net.cpp:150] Setting up inception_5a/relu_5x5
I0312 02:13:05.462548 12026 net.cpp:157] Top shape: 24 128 7 7 (150528)
I0312 02:13:05.462554 12026 net.cpp:165] Memory required for data: 1300563848
I0312 02:13:05.462560 12026 layer_factory.hpp:77] Creating layer inception_5a/pool
I0312 02:13:05.462573 12026 net.cpp:106] Creating Layer inception_5a/pool
I0312 02:13:05.462579 12026 net.cpp:454] inception_5a/pool <- pool4/3x3_s2_pool4/3x3_s2_0_split_3
I0312 02:13:05.462602 12026 net.cpp:411] inception_5a/pool -> inception_5a/pool
I0312 02:13:05.462688 12026 net.cpp:150] Setting up inception_5a/pool
I0312 02:13:05.462702 12026 net.cpp:157] Top shape: 24 832 7 7 (978432)
I0312 02:13:05.462708 12026 net.cpp:165] Memory required for data: 1304477576
I0312 02:13:05.462715 12026 layer_factory.hpp:77] Creating layer inception_5a/pool_proj
I0312 02:13:05.462733 12026 net.cpp:106] Creating Layer inception_5a/pool_proj
I0312 02:13:05.462755 12026 net.cpp:454] inception_5a/pool_proj <- inception_5a/pool
I0312 02:13:05.462769 12026 net.cpp:411] inception_5a/pool_proj -> inception_5a/pool_proj
I0312 02:13:05.465215 12026 net.cpp:150] Setting up inception_5a/pool_proj
I0312 02:13:05.465236 12026 net.cpp:157] Top shape: 24 128 7 7 (150528)
I0312 02:13:05.465243 12026 net.cpp:165] Memory required for data: 1305079688
I0312 02:13:05.465255 12026 layer_factory.hpp:77] Creating layer inception_5a/relu_pool_proj
I0312 02:13:05.465265 12026 net.cpp:106] Creating Layer inception_5a/relu_pool_proj
I0312 02:13:05.465273 12026 net.cpp:454] inception_5a/relu_pool_proj <- inception_5a/pool_proj
I0312 02:13:05.465286 12026 net.cpp:397] inception_5a/relu_pool_proj -> inception_5a/pool_proj (in-place)
I0312 02:13:05.465581 12026 net.cpp:150] Setting up inception_5a/relu_pool_proj
I0312 02:13:05.465598 12026 net.cpp:157] Top shape: 24 128 7 7 (150528)
I0312 02:13:05.465605 12026 net.cpp:165] Memory required for data: 1305681800
I0312 02:13:05.465611 12026 layer_factory.hpp:77] Creating layer inception_5a/output
I0312 02:13:05.465627 12026 net.cpp:106] Creating Layer inception_5a/output
I0312 02:13:05.465636 12026 net.cpp:454] inception_5a/output <- inception_5a/1x1
I0312 02:13:05.465644 12026 net.cpp:454] inception_5a/output <- inception_5a/3x3
I0312 02:13:05.465651 12026 net.cpp:454] inception_5a/output <- inception_5a/5x5
I0312 02:13:05.465658 12026 net.cpp:454] inception_5a/output <- inception_5a/pool_proj
I0312 02:13:05.465668 12026 net.cpp:411] inception_5a/output -> inception_5a/output
I0312 02:13:05.465716 12026 net.cpp:150] Setting up inception_5a/output
I0312 02:13:05.465728 12026 net.cpp:157] Top shape: 24 832 7 7 (978432)
I0312 02:13:05.465734 12026 net.cpp:165] Memory required for data: 1309595528
I0312 02:13:05.465741 12026 layer_factory.hpp:77] Creating layer inception_5a/output_inception_5a/output_0_split
I0312 02:13:05.465780 12026 net.cpp:106] Creating Layer inception_5a/output_inception_5a/output_0_split
I0312 02:13:05.465795 12026 net.cpp:454] inception_5a/output_inception_5a/output_0_split <- inception_5a/output
I0312 02:13:05.465806 12026 net.cpp:411] inception_5a/output_inception_5a/output_0_split -> inception_5a/output_inception_5a/output_0_split_0
I0312 02:13:05.465816 12026 net.cpp:411] inception_5a/output_inception_5a/output_0_split -> inception_5a/output_inception_5a/output_0_split_1
I0312 02:13:05.465827 12026 net.cpp:411] inception_5a/output_inception_5a/output_0_split -> inception_5a/output_inception_5a/output_0_split_2
I0312 02:13:05.465842 12026 net.cpp:411] inception_5a/output_inception_5a/output_0_split -> inception_5a/output_inception_5a/output_0_split_3
I0312 02:13:05.465944 12026 net.cpp:150] Setting up inception_5a/output_inception_5a/output_0_split
I0312 02:13:05.465956 12026 net.cpp:157] Top shape: 24 832 7 7 (978432)
I0312 02:13:05.465963 12026 net.cpp:157] Top shape: 24 832 7 7 (978432)
I0312 02:13:05.465970 12026 net.cpp:157] Top shape: 24 832 7 7 (978432)
I0312 02:13:05.465977 12026 net.cpp:157] Top shape: 24 832 7 7 (978432)
I0312 02:13:05.465983 12026 net.cpp:165] Memory required for data: 1325250440
I0312 02:13:05.465991 12026 layer_factory.hpp:77] Creating layer inception_5b/1x1
I0312 02:13:05.466006 12026 net.cpp:106] Creating Layer inception_5b/1x1
I0312 02:13:05.466013 12026 net.cpp:454] inception_5b/1x1 <- inception_5a/output_inception_5a/output_0_split_0
I0312 02:13:05.466025 12026 net.cpp:411] inception_5b/1x1 -> inception_5b/1x1
I0312 02:13:05.470413 12026 net.cpp:150] Setting up inception_5b/1x1
I0312 02:13:05.470434 12026 net.cpp:157] Top shape: 24 384 7 7 (451584)
I0312 02:13:05.470449 12026 net.cpp:165] Memory required for data: 1327056776
I0312 02:13:05.470470 12026 layer_factory.hpp:77] Creating layer inception_5b/relu_1x1
I0312 02:13:05.470480 12026 net.cpp:106] Creating Layer inception_5b/relu_1x1
I0312 02:13:05.470489 12026 net.cpp:454] inception_5b/relu_1x1 <- inception_5b/1x1
I0312 02:13:05.470497 12026 net.cpp:397] inception_5b/relu_1x1 -> inception_5b/1x1 (in-place)
I0312 02:13:05.470685 12026 net.cpp:150] Setting up inception_5b/relu_1x1
I0312 02:13:05.470700 12026 net.cpp:157] Top shape: 24 384 7 7 (451584)
I0312 02:13:05.470710 12026 net.cpp:165] Memory required for data: 1328863112
I0312 02:13:05.470717 12026 layer_factory.hpp:77] Creating layer inception_5b/3x3_reduce
I0312 02:13:05.470731 12026 net.cpp:106] Creating Layer inception_5b/3x3_reduce
I0312 02:13:05.470738 12026 net.cpp:454] inception_5b/3x3_reduce <- inception_5a/output_inception_5a/output_0_split_1
I0312 02:13:05.470768 12026 net.cpp:411] inception_5b/3x3_reduce -> inception_5b/3x3_reduce
I0312 02:13:05.473711 12026 net.cpp:150] Setting up inception_5b/3x3_reduce
I0312 02:13:05.473729 12026 net.cpp:157] Top shape: 24 192 7 7 (225792)
I0312 02:13:05.473737 12026 net.cpp:165] Memory required for data: 1329766280
I0312 02:13:05.473747 12026 layer_factory.hpp:77] Creating layer inception_5b/relu_3x3_reduce
I0312 02:13:05.473757 12026 net.cpp:106] Creating Layer inception_5b/relu_3x3_reduce
I0312 02:13:05.473765 12026 net.cpp:454] inception_5b/relu_3x3_reduce <- inception_5b/3x3_reduce
I0312 02:13:05.473779 12026 net.cpp:397] inception_5b/relu_3x3_reduce -> inception_5b/3x3_reduce (in-place)
I0312 02:13:05.474067 12026 net.cpp:150] Setting up inception_5b/relu_3x3_reduce
I0312 02:13:05.474083 12026 net.cpp:157] Top shape: 24 192 7 7 (225792)
I0312 02:13:05.474089 12026 net.cpp:165] Memory required for data: 1330669448
I0312 02:13:05.474097 12026 layer_factory.hpp:77] Creating layer inception_5b/3x3
I0312 02:13:05.474115 12026 net.cpp:106] Creating Layer inception_5b/3x3
I0312 02:13:05.474123 12026 net.cpp:454] inception_5b/3x3 <- inception_5b/3x3_reduce
I0312 02:13:05.474134 12026 net.cpp:411] inception_5b/3x3 -> inception_5b/3x3
I0312 02:13:05.481735 12026 net.cpp:150] Setting up inception_5b/3x3
I0312 02:13:05.481777 12026 net.cpp:157] Top shape: 24 384 7 7 (451584)
I0312 02:13:05.481784 12026 net.cpp:165] Memory required for data: 1332475784
I0312 02:13:05.481798 12026 layer_factory.hpp:77] Creating layer inception_5b/relu_3x3
I0312 02:13:05.481812 12026 net.cpp:106] Creating Layer inception_5b/relu_3x3
I0312 02:13:05.481820 12026 net.cpp:454] inception_5b/relu_3x3 <- inception_5b/3x3
I0312 02:13:05.481832 12026 net.cpp:397] inception_5b/relu_3x3 -> inception_5b/3x3 (in-place)
I0312 02:13:05.482163 12026 net.cpp:150] Setting up inception_5b/relu_3x3
I0312 02:13:05.482182 12026 net.cpp:157] Top shape: 24 384 7 7 (451584)
I0312 02:13:05.482192 12026 net.cpp:165] Memory required for data: 1334282120
I0312 02:13:05.482199 12026 layer_factory.hpp:77] Creating layer inception_5b/5x5_reduce
I0312 02:13:05.482221 12026 net.cpp:106] Creating Layer inception_5b/5x5_reduce
I0312 02:13:05.482230 12026 net.cpp:454] inception_5b/5x5_reduce <- inception_5a/output_inception_5a/output_0_split_2
I0312 02:13:05.482241 12026 net.cpp:411] inception_5b/5x5_reduce -> inception_5b/5x5_reduce
I0312 02:13:05.484444 12026 net.cpp:150] Setting up inception_5b/5x5_reduce
I0312 02:13:05.484467 12026 net.cpp:157] Top shape: 24 48 7 7 (56448)
I0312 02:13:05.484474 12026 net.cpp:165] Memory required for data: 1334507912
I0312 02:13:05.484486 12026 layer_factory.hpp:77] Creating layer inception_5b/relu_5x5_reduce
I0312 02:13:05.484498 12026 net.cpp:106] Creating Layer inception_5b/relu_5x5_reduce
I0312 02:13:05.484505 12026 net.cpp:454] inception_5b/relu_5x5_reduce <- inception_5b/5x5_reduce
I0312 02:13:05.484515 12026 net.cpp:397] inception_5b/relu_5x5_reduce -> inception_5b/5x5_reduce (in-place)
I0312 02:13:05.484699 12026 net.cpp:150] Setting up inception_5b/relu_5x5_reduce
I0312 02:13:05.484714 12026 net.cpp:157] Top shape: 24 48 7 7 (56448)
I0312 02:13:05.484730 12026 net.cpp:165] Memory required for data: 1334733704
I0312 02:13:05.484747 12026 layer_factory.hpp:77] Creating layer inception_5b/5x5
I0312 02:13:05.484765 12026 net.cpp:106] Creating Layer inception_5b/5x5
I0312 02:13:05.484772 12026 net.cpp:454] inception_5b/5x5 <- inception_5b/5x5_reduce
I0312 02:13:05.484783 12026 net.cpp:411] inception_5b/5x5 -> inception_5b/5x5
I0312 02:13:05.487174 12026 net.cpp:150] Setting up inception_5b/5x5
I0312 02:13:05.487197 12026 net.cpp:157] Top shape: 24 128 7 7 (150528)
I0312 02:13:05.487205 12026 net.cpp:165] Memory required for data: 1335335816
I0312 02:13:05.487216 12026 layer_factory.hpp:77] Creating layer inception_5b/relu_5x5
I0312 02:13:05.487227 12026 net.cpp:106] Creating Layer inception_5b/relu_5x5
I0312 02:13:05.487239 12026 net.cpp:454] inception_5b/relu_5x5 <- inception_5b/5x5
I0312 02:13:05.487251 12026 net.cpp:397] inception_5b/relu_5x5 -> inception_5b/5x5 (in-place)
I0312 02:13:05.487550 12026 net.cpp:150] Setting up inception_5b/relu_5x5
I0312 02:13:05.487568 12026 net.cpp:157] Top shape: 24 128 7 7 (150528)
I0312 02:13:05.487574 12026 net.cpp:165] Memory required for data: 1335937928
I0312 02:13:05.487581 12026 layer_factory.hpp:77] Creating layer inception_5b/pool
I0312 02:13:05.487593 12026 net.cpp:106] Creating Layer inception_5b/pool
I0312 02:13:05.487601 12026 net.cpp:454] inception_5b/pool <- inception_5a/output_inception_5a/output_0_split_3
I0312 02:13:05.487612 12026 net.cpp:411] inception_5b/pool -> inception_5b/pool
I0312 02:13:05.487686 12026 net.cpp:150] Setting up inception_5b/pool
I0312 02:13:05.487700 12026 net.cpp:157] Top shape: 24 832 7 7 (978432)
I0312 02:13:05.487706 12026 net.cpp:165] Memory required for data: 1339851656
I0312 02:13:05.487712 12026 layer_factory.hpp:77] Creating layer inception_5b/pool_proj
I0312 02:13:05.487728 12026 net.cpp:106] Creating Layer inception_5b/pool_proj
I0312 02:13:05.487736 12026 net.cpp:454] inception_5b/pool_proj <- inception_5b/pool
I0312 02:13:05.487748 12026 net.cpp:411] inception_5b/pool_proj -> inception_5b/pool_proj
I0312 02:13:05.490190 12026 net.cpp:150] Setting up inception_5b/pool_proj
I0312 02:13:05.490212 12026 net.cpp:157] Top shape: 24 128 7 7 (150528)
I0312 02:13:05.490219 12026 net.cpp:165] Memory required for data: 1340453768
I0312 02:13:05.490231 12026 layer_factory.hpp:77] Creating layer inception_5b/relu_pool_proj
I0312 02:13:05.490242 12026 net.cpp:106] Creating Layer inception_5b/relu_pool_proj
I0312 02:13:05.490249 12026 net.cpp:454] inception_5b/relu_pool_proj <- inception_5b/pool_proj
I0312 02:13:05.490258 12026 net.cpp:397] inception_5b/relu_pool_proj -> inception_5b/pool_proj (in-place)
I0312 02:13:05.490576 12026 net.cpp:150] Setting up inception_5b/relu_pool_proj
I0312 02:13:05.490600 12026 net.cpp:157] Top shape: 24 128 7 7 (150528)
I0312 02:13:05.490608 12026 net.cpp:165] Memory required for data: 1341055880
I0312 02:13:05.490615 12026 layer_factory.hpp:77] Creating layer inception_5b/output
I0312 02:13:05.490627 12026 net.cpp:106] Creating Layer inception_5b/output
I0312 02:13:05.490633 12026 net.cpp:454] inception_5b/output <- inception_5b/1x1
I0312 02:13:05.490648 12026 net.cpp:454] inception_5b/output <- inception_5b/3x3
I0312 02:13:05.490658 12026 net.cpp:454] inception_5b/output <- inception_5b/5x5
I0312 02:13:05.490664 12026 net.cpp:454] inception_5b/output <- inception_5b/pool_proj
I0312 02:13:05.490672 12026 net.cpp:411] inception_5b/output -> inception_5b/output
I0312 02:13:05.490731 12026 net.cpp:150] Setting up inception_5b/output
I0312 02:13:05.490759 12026 net.cpp:157] Top shape: 24 1024 7 7 (1204224)
I0312 02:13:05.490767 12026 net.cpp:165] Memory required for data: 1345872776
I0312 02:13:05.490774 12026 layer_factory.hpp:77] Creating layer pool5/7x7_s1
I0312 02:13:05.490784 12026 net.cpp:106] Creating Layer pool5/7x7_s1
I0312 02:13:05.490792 12026 net.cpp:454] pool5/7x7_s1 <- inception_5b/output
I0312 02:13:05.490805 12026 net.cpp:411] pool5/7x7_s1 -> pool5/7x7_s1
I0312 02:13:05.491015 12026 net.cpp:150] Setting up pool5/7x7_s1
I0312 02:13:05.491041 12026 net.cpp:157] Top shape: 24 1024 1 1 (24576)
I0312 02:13:05.491057 12026 net.cpp:165] Memory required for data: 1345971080
I0312 02:13:05.491065 12026 layer_factory.hpp:77] Creating layer pool5/drop_7x7_s1
I0312 02:13:05.491075 12026 net.cpp:106] Creating Layer pool5/drop_7x7_s1
I0312 02:13:05.491081 12026 net.cpp:454] pool5/drop_7x7_s1 <- pool5/7x7_s1
I0312 02:13:05.491092 12026 net.cpp:397] pool5/drop_7x7_s1 -> pool5/7x7_s1 (in-place)
I0312 02:13:05.491137 12026 net.cpp:150] Setting up pool5/drop_7x7_s1
I0312 02:13:05.491149 12026 net.cpp:157] Top shape: 24 1024 1 1 (24576)
I0312 02:13:05.491155 12026 net.cpp:165] Memory required for data: 1346069384
I0312 02:13:05.491161 12026 layer_factory.hpp:77] Creating layer myloss3/classifier
I0312 02:13:05.491176 12026 net.cpp:106] Creating Layer myloss3/classifier
I0312 02:13:05.491183 12026 net.cpp:454] myloss3/classifier <- pool5/7x7_s1
I0312 02:13:05.491196 12026 net.cpp:411] myloss3/classifier -> myloss3/classifier
I0312 02:13:05.493357 12026 net.cpp:150] Setting up myloss3/classifier
I0312 02:13:05.493374 12026 net.cpp:157] Top shape: 24 200 (4800)
I0312 02:13:05.493381 12026 net.cpp:165] Memory required for data: 1346088584
I0312 02:13:05.493391 12026 layer_factory.hpp:77] Creating layer loss3/loss3
I0312 02:13:05.493403 12026 net.cpp:106] Creating Layer loss3/loss3
I0312 02:13:05.493410 12026 net.cpp:454] loss3/loss3 <- myloss3/classifier
I0312 02:13:05.493418 12026 net.cpp:454] loss3/loss3 <- label_data_1_split_2
I0312 02:13:05.493430 12026 net.cpp:411] loss3/loss3 -> loss3/loss3
…
I0312 02:13:05.500159 12026 net.cpp:322] The NetState phase (1) differed from the phase (0) specified by a rule in layer data
I0312 02:13:05.501397 12026 net.cpp:49] Initializing net from parameters: 
name: "GoogleNet"
state {
  phase: TEST
}
layer {
  name: "data"
  type: "Data"
  top: "data"
  top: "label"
  include {
    phase: TEST
  }
  transform_param {
    mirror: false
    crop_size: 224
    mean_value: 104
    mean_value: 117
    mean_value: 123
  }
  data_param {
    source: "/data/tinyimage32_val_lmdb"
    batch_size: 50
    backend: LMDB
  }
}
layer {
  name: "conv1/7x7_s2"
  type: "Convolution"
  bottom: "data"
  top: "conv1/7x7_s2"
  param {
    lr_mult: 1
    decay_mult: 1
  }
  param {
    lr_mult: 2
    decay_mult: 0
  }
  convolution_param {
    num_output: 64
    pad: 3
    kernel_size: 7
    stride: 2
    weight_filler {
      type: "xavier"
    }
    bias_filler {
      type: "constant"
      value: 0.2
    }
  }
}
layer {
  name: "conv1/relu_7x7"
  type: "ReLU"
  bottom: "conv1/7x7_s2"
  top: "conv1/7x7_s2"
}
layer {
  name: "pool1/3x3_s2"
  type: "Pooling"
  bottom: "conv1/7x7_s2"
  top: "pool1/3x3_s2"
  pooling_param {
    pool: MAX
    kernel_size: 3
    stride: 2
  }
}
layer {
  name: "pool1/norm1"
  type: "LRN"
  bottom: "pool1/3x3_s2"
  top: "pool1/norm1"
  lrn_param {
    local_size: 5
    alpha: 0.0001
    beta: 0.75
  }
}
layer {
  name: "conv2/3x3_reduce"
  type: "Convolution"
  bottom: "pool1/norm1"
  top: "conv2/3x3_reduce"
  param {
    lr_mult: 1
    decay_mult: 1
  }
  param {
    lr_mult: 2
    decay_mult: 0
  }
  convolution_param {
    num_output: 64
    kernel_size: 1
    weight_filler {
      type: "xavier"
    }
    bias_filler {
      type: "constant"
      value: 0.2
    }
  }
}
layer {
  name: "conv2/relu_3x3_reduce"
  type: "ReLU"
  bottom: "conv2/3x3_reduce"
  top: "conv2/3x3_reduce"
}
layer {
  name: "conv2/3x3"
  type: "Convolution"
  bottom: "conv2/3x3_reduce"
  top: "conv2/3x3"
  param {
    lr_mult: 1
    decay_mult: 1
  }
  param {
    lr_mult: 2
    decay_mult: 0
  }
  convolution_param {
    num_output: 192
    pad: 1
    kernel_size: 3
    weight_filler {
      type: "xavier"
    }
    bias_filler {
      type: "constant"
      value: 0.2
    }
  }
}
layer {
  name: "conv2/relu_3x3"
  type: "ReLU"
  bottom: "conv2/3x3"
  top: "conv2/3x3"
}
layer {
  name: "conv2/norm2"
  type: "LRN"
  bottom: "conv2/3x3"
  top: "conv2/norm2"
  lrn_param {
    local_size: 5
    alpha: 0.0001
    beta: 0.75
  }
}
layer {
  name: "pool2/3x3_s2"
  type: "Pooling"
  bottom: "conv2/norm2"
  top: "pool2/3x3_s2"
  pooling_param {
    pool: MAX
    kernel_size: 3
    stride: 2
  }
}
layer {
  name: "inception_3a/1x1"
  type: "Convolution"
  bottom: "pool2/3x3_s2"
  top: "inception_3a/1x1"
  param {
    lr_mult: 1
    decay_mult: 1
  }
  param {
    lr_mult: 2
    decay_mult: 0
  }
  convolution_param {
    num_output: 64
    kernel_size: 1
    weight_filler {
      type: "xavier"
    }
    bias_filler {
      type: "constant"
      value: 0.2
    }
  }
}
layer {
  name: "inception_3a/relu_1x1"
  type: "ReLU"
  bottom: "inception_3a/1x1"
  top: "inception_3a/1x1"
}
layer {
  name: "inception_3a/3x3_reduce"
  type: "Convolution"
  bottom: "pool2/3x3_s2"
  top: "inception_3a/3x3_reduce"
  param {
    lr_mult: 1
    decay_mult: 1
  }
  param {
    lr_mult: 2
    decay_mult: 0
  }
  convolution_param {
    num_output: 96
    kernel_size: 1
    weight_filler {
      type: "xavier"
    }
    bias_filler {
      type: "constant"
      value: 0.2
    }
  }
}
layer {
  name: "inception_3a/relu_3x3_reduce"
  type: "ReLU"
  bottom: "inception_3a/3x3_reduce"
  top: "inception_3a/3x3_reduce"
}
layer {
  name: "inception_3a/3x3"
  type: "Convolution"
  bottom: "inception_3a/3x3_reduce"
  top: "inception_3a/3x3"
  param {
    lr_mult: 1
    decay_mult: 1
  }
  param {
    lr_mult: 2
    decay_mult: 0
  }
  convolution_param {
    num_output: 128
    pad: 1
    kernel_size: 3
    weight_filler {
      type: "xavier"
    }
    bias_filler {
      type: "constant"
      value: 0.2
    }
  }
}
layer {
  name: "inception_3a/relu_3x3"
  type: "ReLU"
  bottom: "inception_3a/3x3"
  top: "inception_3a/3x3"
}
layer {
  name: "inception_3a/5x5_reduce"
  type: "Convolution"
  bottom: "pool2/3x3_s2"
  top: "inception_3a/5x5_reduce"
  param {
    lr_mult: 1
    decay_mult: 1
  }
  param {
    lr_mult: 2
    decay_mult: 0
  }
  convolution_param {
    num_output: 16
    kernel_size: 1
    weight_filler {
      type: "xavier"
    }
    bias_filler {
      type: "constant"
      value: 0.2
    }
  }
}
layer {
  name: "inception_3a/relu_5x5_reduce"
  type: "ReLU"
  bottom: "inception_3a/5x5_reduce"
  top: "inception_3a/5x5_reduce"
}
layer {
  name: "inception_3a/5x5"
  type: "Convolution"
  bottom: "inception_3a/5x5_reduce"
  top: "inception_3a/5x5"
  param {
    lr_mult: 1
    decay_mult: 1
  }
  param {
    lr_mult: 2
    decay_mult: 0
  }
  convolution_param {
    num_output: 32
    pad: 2
    kernel_size: 5
    weight_filler {
      type: "xavier"
    }
    bias_filler {
      type: "constant"
      value: 0.2
    }
  }
}
layer {
  name: "inception_3a/relu_5x5"
  type: "ReLU"
  bottom: "inception_3a/5x5"
  top: "inception_3a/5x5"
}
layer {
  name: "inception_3a/pool"
  type: "Pooling"
  bottom: "pool2/3x3_s2"
  top: "inception_3a/pool"
  pooling_param {
    pool: MAX
    kernel_size: 3
    stride: 1
    pad: 1
  }
}
layer {
  name: "inception_3a/pool_proj"
  type: "Convolution"
  bottom: "inception_3a/pool"
  top: "inception_3a/pool_proj"
  param {
    lr_mult: 1
    decay_mult: 1
  }
  param {
    lr_mult: 2
    decay_mult: 0
  }
  convolution_param {
    num_output: 32
    kernel_size: 1
    weight_filler {
      type: "xavier"
    }
    bias_filler {
      type: "constant"
      value: 0.2
    }
  }
}
layer {
  name: "inception_3a/relu_pool_proj"
  type: "ReLU"
  bottom: "inception_3a/pool_proj"
  top: "inception_3a/pool_proj"
}
layer {
  name: "inception_3a/output"
  type: "Concat"
  bottom: "inception_3a/1x1"
  bottom: "inception_3a/3x3"
  bottom: "inception_3a/5x5"
  bottom: "inception_3a/pool_proj"
  top: "inception_3a/output"
}
layer {
  name: "inception_3b/1x1"
  type: "Convolution"
  bottom: "inception_3a/output"
  top: "inception_3b/1x1"
  param {
    lr_mult: 1
    decay_mult: 1
  }
  param {
    lr_mult: 2
    decay_mult: 0
  }
  convolution_param {
    num_output: 128
    kernel_size: 1
    weight_filler {
      type: "xavier"
    }
    bias_filler {
      type: "constant"
      value: 0.2
    }
  }
}
layer {
  name: "inception_3b/relu_1x1"
  type: "ReLU"
  bottom: "inception_3b/1x1"
  top: "inception_3b/1x1"
}
layer {
  name: "inception_3b/3x3_reduce"
  type: "Convolution"
  bottom: "inception_3a/output"
  top: "inception_3b/3x3_reduce"
  param {
    lr_mult: 1
    decay_mult: 1
  }
  param {
    lr_mult: 2
    decay_mult: 0
  }
  convolution_param {
    num_output: 128
    kernel_size: 1
    weight_filler {
      type: "xavier"
    }
    bias_filler {
      type: "constant"
      value: 0.2
    }
  }
}
layer {
  name: "inception_3b/relu_3x3_reduce"
  type: "ReLU"
  bottom: "inception_3b/3x3_reduce"
  top: "inception_3b/3x3_reduce"
}
layer {
  name: "inception_3b/3x3"
  type: "Convolution"
  bottom: "inception_3b/3x3_reduce"
  top: "inception_3b/3x3"
  param {
    lr_mult: 1
    decay_mult: 1
  }
  param {
    lr_mult: 2
    decay_mult: 0
  }
  convolution_param {
    num_output: 192
    pad: 1
    kernel_size: 3
    weight_filler {
      type: "xavier"
    }
    bias_filler {
      type: "constant"
      value: 0.2
    }
  }
}
layer {
  name: "inception_3b/relu_3x3"
  type: "ReLU"
  bottom: "inception_3b/3x3"
  top: "inception_3b/3x3"
}
layer {
  name: "inception_3b/5x5_reduce"
  type: "Convolution"
  bottom: "inception_3a/output"
  top: "inception_3b/5x5_reduce"
  param {
    lr_mult: 1
    decay_mult: 1
  }
  param {
    lr_mult: 2
    decay_mult: 0
  }
  convolution_param {
    num_output: 32
    kernel_size: 1
    weight_filler {
      type: "xavier"
    }
    bias_filler {
      type: "constant"
      value: 0.2
    }
  }
}
layer {
  name: "inception_3b/relu_5x5_reduce"
  type: "ReLU"
  bottom: "inception_3b/5x5_reduce"
  top: "inception_3b/5x5_reduce"
}
layer {
  name: "inception_3b/5x5"
  type: "Convolution"
  bottom: "inception_3b/5x5_reduce"
  top: "inception_3b/5x5"
  param {
    lr_mult: 1
    decay_mult: 1
  }
  param {
    lr_mult: 2
    decay_mult: 0
  }
  convolution_param {
    num_output: 96
    pad: 2
    kernel_size: 5
    weight_filler {
      type: "xavier"
    }
    bias_filler {
      type: "constant"
      value: 0.2
    }
  }
}
layer {
  name: "inception_3b/relu_5x5"
  type: "ReLU"
  bottom: "inception_3b/5x5"
  top: "inception_3b/5x5"
}
layer {
  name: "inception_3b/pool"
  type: "Pooling"
  bottom: "inception_3a/output"
  top: "inception_3b/pool"
  pooling_param {
    pool: MAX
    kernel_size: 3
    stride: 1
    pad: 1
  }
}
layer {
  name: "inception_3b/pool_proj"
  type: "Convolution"
  bottom: "inception_3b/pool"
  top: "inception_3b/pool_proj"
  param {
    lr_mult: 1
    decay_mult: 1
  }
  param {
    lr_mult: 2
    decay_mult: 0
  }
  convolution_param {
    num_output: 64
    kernel_size: 1
    weight_filler {
      type: "xavier"
    }
    bias_filler {
      type: "constant"
      value: 0.2
    }
  }
}
layer {
  name: "inception_3b/relu_pool_proj"
  type: "ReLU"
  bottom: "inception_3b/pool_proj"
  top: "inception_3b/pool_proj"
}
layer {
  name: "inception_3b/output"
  type: "Concat"
  bottom: "inception_3b/1x1"
  bottom: "inception_3b/3x3"
  bottom: "inception_3b/5x5"
  bottom: "inception_3b/pool_proj"
  top: "inception_3b/output"
}
layer {
  name: "pool3/3x3_s2"
  type: "Pooling"
  bottom: "inception_3b/output"
  top: "pool3/3x3_s2"
  pooling_param {
    pool: MAX
    kernel_size: 3
    stride: 2
  }
}
layer {
  name: "inception_4a/1x1"
  type: "Convolution"
  bottom: "pool3/3x3_s2"
  top: "inception_4a/1x1"
  param {
    lr_mult: 1
    decay_mult: 1
  }
  param {
    lr_mult: 2
    decay_mult: 0
  }
  convolution_param {
    num_output: 192
    kernel_size: 1
    weight_filler {
      type: "xavier"
    }
    bias_filler {
      type: "constant"
      value: 0.2
    }
  }
}
layer {
  name: "inception_4a/relu_1x1"
  type: "ReLU"
  bottom: "inception_4a/1x1"
  top: "inception_4a/1x1"
}
layer {
  name: "inception_4a/3x3_reduce"
  type: "Convolution"
  bottom: "pool3/3x3_s2"
  top: "inception_4a/3x3_reduce"
  param {
    lr_mult: 1
    decay_mult: 1
  }
  param {
    lr_mult: 2
    decay_mult: 0
  }
  convolution_param {
    num_output: 96
    kernel_size: 1
    weight_filler {
      type: "xavier"
    }
    bias_filler {
      type: "constant"
      value: 0.2
    }
  }
}
layer {
  name: "inception_4a/relu_3x3_reduce"
  type: "ReLU"
  bottom: "inception_4a/3x3_reduce"
  top: "inception_4a/3x3_reduce"
}
layer {
  name: "inception_4a/3x3"
  type: "Convolution"
  bottom: "inception_4a/3x3_reduce"
  top: "inception_4a/3x3"
  param {
    lr_mult: 1
    decay_mult: 1
  }
  param {
    lr_mult: 2
    decay_mult: 0
  }
  convolution_param {
    num_output: 208
    pad: 1
    kernel_size: 3
    weight_filler {
      type: "xavier"
    }
    bias_filler {
      type: "constant"
      value: 0.2
    }
  }
}
layer {
  name: "inception_4a/relu_3x3"
  type: "ReLU"
  bottom: "inception_4a/3x3"
  top: "inception_4a/3x3"
}
layer {
  name: "inception_4a/5x5_reduce"
  type: "Convolution"
  bottom: "pool3/3x3_s2"
  top: "inception_4a/5x5_reduce"
  param {
    lr_mult: 1
    decay_mult: 1
  }
  param {
    lr_mult: 2
    decay_mult: 0
  }
  convolution_param {
    num_output: 16
    kernel_size: 1
    weight_filler {
      type: "xavier"
    }
    bias_filler {
      type: "constant"
      value: 0.2
    }
  }
}
layer {
  name: "inception_4a/relu_5x5_reduce"
  type: "ReLU"
  bottom: "inception_4a/5x5_reduce"
  top: "inception_4a/5x5_reduce"
}
layer {
  name: "inception_4a/5x5"
  type: "Convolution"
  bottom: "inception_4a/5x5_reduce"
  top: "inception_4a/5x5"
  param {
    lr_mult: 1
    decay_mult: 1
  }
  param {
    lr_mult: 2
    decay_mult: 0
  }
  convolution_param {
    num_output: 48
    pad: 2
    kernel_size: 5
    weight_filler {
      type: "xavier"
    }
    bias_filler {
      type: "constant"
      value: 0.2
    }
  }
}
layer {
  name: "inception_4a/relu_5x5"
  type: "ReLU"
  bottom: "inception_4a/5x5"
  top: "inception_4a/5x5"
}
layer {
  name: "inception_4a/pool"
  type: "Pooling"
  bottom: "pool3/3x3_s2"
  top: "inception_4a/pool"
  pooling_param {
    pool: MAX
    kernel_size: 3
    stride: 1
    pad: 1
  }
}
layer {
  name: "inception_4a/pool_proj"
  type: "Convolution"
  bottom: "inception_4a/pool"
  top: "inception_4a/pool_proj"
  param {
    lr_mult: 1
    decay_mult: 1
  }
  param {
    lr_mult: 2
    decay_mult: 0
  }
  convolution_param {
    num_output: 64
    kernel_size: 1
    weight_filler {
      type: "xavier"
    }
    bias_filler {
      type: "constant"
      value: 0.2
    }
  }
}
layer {
  name: "inception_4a/relu_pool_proj"
  type: "ReLU"
  bottom: "inception_4a/pool_proj"
  top: "inception_4a/pool_proj"
}
layer {
  name: "inception_4a/output"
  type: "Concat"
  bottom: "inception_4a/1x1"
  bottom: "inception_4a/3x3"
  bottom: "inception_4a/5x5"
  bottom: "inception_4a/pool_proj"
  top: "inception_4a/output"
}
layer {
  name: "loss1/ave_pool"
  type: "Pooling"
  bottom: "inception_4a/output"
  top: "loss1/ave_pool"
  pooling_param {
    pool: AVE
    kernel_size: 5
    stride: 3
  }
}
layer {
  name: "loss1/conv"
  type: "Convolution"
  bottom: "loss1/ave_pool"
  top: "loss1/conv"
  param {
    lr_mult: 1
    decay_mult: 1
  }
  param {
    lr_mult: 2
    decay_mult: 0
  }
  convolution_param {
    num_output: 128
    kernel_size: 1
    weight_filler {
      type: "xavier"
    }
    bias_filler {
      type: "constant"
      value: 0.2
    }
  }
}
layer {
  name: "loss1/relu_conv"
  type: "ReLU"
  bottom: "loss1/conv"
  top: "loss1/conv"
}
layer {
  name: "loss1/fc"
  type: "InnerProduct"
  bottom: "loss1/conv"
  top: "loss1/fc"
  param {
    lr_mult: 1
    decay_mult: 1
  }
  param {
    lr_mult: 2
    decay_mult: 0
  }
  inner_product_param {
    num_output: 1024
    weight_filler {
      type: "xavier"
    }
    bias_filler {
      type: "constant"
      value: 0.2
    }
  }
}
layer {
  name: "loss1/relu_fc"
  type: "ReLU"
  bottom: "loss1/fc"
  top: "loss1/fc"
}
layer {
  name: "loss1/drop_fc"
  type: "Dropout"
  bottom: "loss1/fc"
  top: "loss1/fc"
  dropout_param {
    dropout_ratio: 0.7
  }
}
layer {
  name: "myloss1/classifier"
  type: "InnerProduct"
…
I0312 02:13:05.677312 12026 net.cpp:106] Creating Layer inception_4c/pool
I0312 02:13:05.677320 12026 net.cpp:454] inception_4c/pool <- inception_4b/output_inception_4b/output_0_split_3
I0312 02:13:05.677330 12026 net.cpp:411] inception_4c/pool -> inception_4c/pool
I0312 02:13:05.677438 12026 net.cpp:150] Setting up inception_4c/pool
I0312 02:13:05.677454 12026 net.cpp:157] Top shape: 50 512 14 14 (5017600)
I0312 02:13:05.677460 12026 net.cpp:165] Memory required for data: 2209723612
I0312 02:13:05.677466 12026 layer_factory.hpp:77] Creating layer inception_4c/pool_proj
I0312 02:13:05.677482 12026 net.cpp:106] Creating Layer inception_4c/pool_proj
I0312 02:13:05.677491 12026 net.cpp:454] inception_4c/pool_proj <- inception_4c/pool
I0312 02:13:05.677505 12026 net.cpp:411] inception_4c/pool_proj -> inception_4c/pool_proj
I0312 02:13:05.679131 12026 net.cpp:150] Setting up inception_4c/pool_proj
I0312 02:13:05.679150 12026 net.cpp:157] Top shape: 50 64 14 14 (627200)
I0312 02:13:05.679157 12026 net.cpp:165] Memory required for data: 2212232412
I0312 02:13:05.679168 12026 layer_factory.hpp:77] Creating layer inception_4c/relu_pool_proj
I0312 02:13:05.679182 12026 net.cpp:106] Creating Layer inception_4c/relu_pool_proj
I0312 02:13:05.679190 12026 net.cpp:454] inception_4c/relu_pool_proj <- inception_4c/pool_proj
I0312 02:13:05.679203 12026 net.cpp:397] inception_4c/relu_pool_proj -> inception_4c/pool_proj (in-place)
I0312 02:13:05.679538 12026 net.cpp:150] Setting up inception_4c/relu_pool_proj
I0312 02:13:05.679554 12026 net.cpp:157] Top shape: 50 64 14 14 (627200)
I0312 02:13:05.679560 12026 net.cpp:165] Memory required for data: 2214741212
I0312 02:13:05.679568 12026 layer_factory.hpp:77] Creating layer inception_4c/output
I0312 02:13:05.679580 12026 net.cpp:106] Creating Layer inception_4c/output
I0312 02:13:05.679589 12026 net.cpp:454] inception_4c/output <- inception_4c/1x1
I0312 02:13:05.679596 12026 net.cpp:454] inception_4c/output <- inception_4c/3x3
I0312 02:13:05.679605 12026 net.cpp:454] inception_4c/output <- inception_4c/5x5
I0312 02:13:05.679612 12026 net.cpp:454] inception_4c/output <- inception_4c/pool_proj
I0312 02:13:05.679623 12026 net.cpp:411] inception_4c/output -> inception_4c/output
I0312 02:13:05.679692 12026 net.cpp:150] Setting up inception_4c/output
I0312 02:13:05.679715 12026 net.cpp:157] Top shape: 50 512 14 14 (5017600)
I0312 02:13:05.679721 12026 net.cpp:165] Memory required for data: 2234811612
I0312 02:13:05.679728 12026 layer_factory.hpp:77] Creating layer inception_4c/output_inception_4c/output_0_split
I0312 02:13:05.679743 12026 net.cpp:106] Creating Layer inception_4c/output_inception_4c/output_0_split
I0312 02:13:05.679749 12026 net.cpp:454] inception_4c/output_inception_4c/output_0_split <- inception_4c/output
I0312 02:13:05.679760 12026 net.cpp:411] inception_4c/output_inception_4c/output_0_split -> inception_4c/output_inception_4c/output_0_split_0
I0312 02:13:05.679772 12026 net.cpp:411] inception_4c/output_inception_4c/output_0_split -> inception_4c/output_inception_4c/output_0_split_1
I0312 02:13:05.679782 12026 net.cpp:411] inception_4c/output_inception_4c/output_0_split -> inception_4c/output_inception_4c/output_0_split_2
I0312 02:13:05.679792 12026 net.cpp:411] inception_4c/output_inception_4c/output_0_split -> inception_4c/output_inception_4c/output_0_split_3
I0312 02:13:05.679927 12026 net.cpp:150] Setting up inception_4c/output_inception_4c/output_0_split
I0312 02:13:05.679944 12026 net.cpp:157] Top shape: 50 512 14 14 (5017600)
I0312 02:13:05.679952 12026 net.cpp:157] Top shape: 50 512 14 14 (5017600)
I0312 02:13:05.679960 12026 net.cpp:157] Top shape: 50 512 14 14 (5017600)
I0312 02:13:05.679966 12026 net.cpp:157] Top shape: 50 512 14 14 (5017600)
I0312 02:13:05.679972 12026 net.cpp:165] Memory required for data: 2315093212
I0312 02:13:05.679978 12026 layer_factory.hpp:77] Creating layer inception_4d/1x1
I0312 02:13:05.679996 12026 net.cpp:106] Creating Layer inception_4d/1x1
I0312 02:13:05.680003 12026 net.cpp:454] inception_4d/1x1 <- inception_4c/output_inception_4c/output_0_split_0
I0312 02:13:05.680013 12026 net.cpp:411] inception_4d/1x1 -> inception_4d/1x1
I0312 02:13:05.681913 12026 net.cpp:150] Setting up inception_4d/1x1
I0312 02:13:05.681934 12026 net.cpp:157] Top shape: 50 112 14 14 (1097600)
I0312 02:13:05.681941 12026 net.cpp:165] Memory required for data: 2319483612
I0312 02:13:05.681954 12026 layer_factory.hpp:77] Creating layer inception_4d/relu_1x1
I0312 02:13:05.681968 12026 net.cpp:106] Creating Layer inception_4d/relu_1x1
I0312 02:13:05.681977 12026 net.cpp:454] inception_4d/relu_1x1 <- inception_4d/1x1
I0312 02:13:05.681985 12026 net.cpp:397] inception_4d/relu_1x1 -> inception_4d/1x1 (in-place)
I0312 02:13:05.682193 12026 net.cpp:150] Setting up inception_4d/relu_1x1
I0312 02:13:05.682209 12026 net.cpp:157] Top shape: 50 112 14 14 (1097600)
I0312 02:13:05.682215 12026 net.cpp:165] Memory required for data: 2323874012
I0312 02:13:05.682221 12026 layer_factory.hpp:77] Creating layer inception_4d/3x3_reduce
I0312 02:13:05.682241 12026 net.cpp:106] Creating Layer inception_4d/3x3_reduce
I0312 02:13:05.682250 12026 net.cpp:454] inception_4d/3x3_reduce <- inception_4c/output_inception_4c/output_0_split_1
I0312 02:13:05.682260 12026 net.cpp:411] inception_4d/3x3_reduce -> inception_4d/3x3_reduce
I0312 02:13:05.684303 12026 net.cpp:150] Setting up inception_4d/3x3_reduce
I0312 02:13:05.684325 12026 net.cpp:157] Top shape: 50 144 14 14 (1411200)
I0312 02:13:05.684332 12026 net.cpp:165] Memory required for data: 2329518812
I0312 02:13:05.684343 12026 layer_factory.hpp:77] Creating layer inception_4d/relu_3x3_reduce
I0312 02:13:05.684355 12026 net.cpp:106] Creating Layer inception_4d/relu_3x3_reduce
I0312 02:13:05.684363 12026 net.cpp:454] inception_4d/relu_3x3_reduce <- inception_4d/3x3_reduce
I0312 02:13:05.684372 12026 net.cpp:397] inception_4d/relu_3x3_reduce -> inception_4d/3x3_reduce (in-place)
I0312 02:13:05.684703 12026 net.cpp:150] Setting up inception_4d/relu_3x3_reduce
I0312 02:13:05.684720 12026 net.cpp:157] Top shape: 50 144 14 14 (1411200)
I0312 02:13:05.684727 12026 net.cpp:165] Memory required for data: 2335163612
I0312 02:13:05.684734 12026 layer_factory.hpp:77] Creating layer inception_4d/3x3
I0312 02:13:05.684754 12026 net.cpp:106] Creating Layer inception_4d/3x3
I0312 02:13:05.684772 12026 net.cpp:454] inception_4d/3x3 <- inception_4d/3x3_reduce
I0312 02:13:05.684792 12026 net.cpp:411] inception_4d/3x3 -> inception_4d/3x3
I0312 02:13:05.689530 12026 net.cpp:150] Setting up inception_4d/3x3
I0312 02:13:05.689554 12026 net.cpp:157] Top shape: 50 288 14 14 (2822400)
I0312 02:13:05.689561 12026 net.cpp:165] Memory required for data: 2346453212
I0312 02:13:05.689574 12026 layer_factory.hpp:77] Creating layer inception_4d/relu_3x3
I0312 02:13:05.689589 12026 net.cpp:106] Creating Layer inception_4d/relu_3x3
I0312 02:13:05.689601 12026 net.cpp:454] inception_4d/relu_3x3 <- inception_4d/3x3
I0312 02:13:05.689617 12026 net.cpp:397] inception_4d/relu_3x3 -> inception_4d/3x3 (in-place)
I0312 02:13:05.689944 12026 net.cpp:150] Setting up inception_4d/relu_3x3
I0312 02:13:05.689960 12026 net.cpp:157] Top shape: 50 288 14 14 (2822400)
I0312 02:13:05.689966 12026 net.cpp:165] Memory required for data: 2357742812
I0312 02:13:05.689973 12026 layer_factory.hpp:77] Creating layer inception_4d/5x5_reduce
I0312 02:13:05.689990 12026 net.cpp:106] Creating Layer inception_4d/5x5_reduce
I0312 02:13:05.689999 12026 net.cpp:454] inception_4d/5x5_reduce <- inception_4c/output_inception_4c/output_0_split_2
I0312 02:13:05.690012 12026 net.cpp:411] inception_4d/5x5_reduce -> inception_4d/5x5_reduce
I0312 02:13:05.692160 12026 net.cpp:150] Setting up inception_4d/5x5_reduce
I0312 02:13:05.692180 12026 net.cpp:157] Top shape: 50 32 14 14 (313600)
I0312 02:13:05.692189 12026 net.cpp:165] Memory required for data: 2358997212
I0312 02:13:05.692201 12026 layer_factory.hpp:77] Creating layer inception_4d/relu_5x5_reduce
I0312 02:13:05.692212 12026 net.cpp:106] Creating Layer inception_4d/relu_5x5_reduce
I0312 02:13:05.692220 12026 net.cpp:454] inception_4d/relu_5x5_reduce <- inception_4d/5x5_reduce
I0312 02:13:05.692231 12026 net.cpp:397] inception_4d/relu_5x5_reduce -> inception_4d/5x5_reduce (in-place)
I0312 02:13:05.692441 12026 net.cpp:150] Setting up inception_4d/relu_5x5_reduce
I0312 02:13:05.692456 12026 net.cpp:157] Top shape: 50 32 14 14 (313600)
I0312 02:13:05.692463 12026 net.cpp:165] Memory required for data: 2360251612
I0312 02:13:05.692471 12026 layer_factory.hpp:77] Creating layer inception_4d/5x5
I0312 02:13:05.692487 12026 net.cpp:106] Creating Layer inception_4d/5x5
I0312 02:13:05.692494 12026 net.cpp:454] inception_4d/5x5 <- inception_4d/5x5_reduce
I0312 02:13:05.692507 12026 net.cpp:411] inception_4d/5x5 -> inception_4d/5x5
I0312 02:13:05.694345 12026 net.cpp:150] Setting up inception_4d/5x5
I0312 02:13:05.694363 12026 net.cpp:157] Top shape: 50 64 14 14 (627200)
I0312 02:13:05.694370 12026 net.cpp:165] Memory required for data: 2362760412
I0312 02:13:05.694381 12026 layer_factory.hpp:77] Creating layer inception_4d/relu_5x5
I0312 02:13:05.694392 12026 net.cpp:106] Creating Layer inception_4d/relu_5x5
I0312 02:13:05.694401 12026 net.cpp:454] inception_4d/relu_5x5 <- inception_4d/5x5
I0312 02:13:05.694411 12026 net.cpp:397] inception_4d/relu_5x5 -> inception_4d/5x5 (in-place)
I0312 02:13:05.694761 12026 net.cpp:150] Setting up inception_4d/relu_5x5
I0312 02:13:05.694778 12026 net.cpp:157] Top shape: 50 64 14 14 (627200)
I0312 02:13:05.694784 12026 net.cpp:165] Memory required for data: 2365269212
I0312 02:13:05.694792 12026 layer_factory.hpp:77] Creating layer inception_4d/pool
I0312 02:13:05.694803 12026 net.cpp:106] Creating Layer inception_4d/pool
I0312 02:13:05.694811 12026 net.cpp:454] inception_4d/pool <- inception_4c/output_inception_4c/output_0_split_3
I0312 02:13:05.694825 12026 net.cpp:411] inception_4d/pool -> inception_4d/pool
I0312 02:13:05.694917 12026 net.cpp:150] Setting up inception_4d/pool
I0312 02:13:05.694933 12026 net.cpp:157] Top shape: 50 512 14 14 (5017600)
I0312 02:13:05.694941 12026 net.cpp:165] Memory required for data: 2385339612
I0312 02:13:05.694947 12026 layer_factory.hpp:77] Creating layer inception_4d/pool_proj
I0312 02:13:05.694959 12026 net.cpp:106] Creating Layer inception_4d/pool_proj
I0312 02:13:05.694967 12026 net.cpp:454] inception_4d/pool_proj <- inception_4d/pool
I0312 02:13:05.694990 12026 net.cpp:411] inception_4d/pool_proj -> inception_4d/pool_proj
I0312 02:13:05.696588 12026 net.cpp:150] Setting up inception_4d/pool_proj
I0312 02:13:05.696609 12026 net.cpp:157] Top shape: 50 64 14 14 (627200)
I0312 02:13:05.696615 12026 net.cpp:165] Memory required for data: 2387848412
I0312 02:13:05.696626 12026 layer_factory.hpp:77] Creating layer inception_4d/relu_pool_proj
I0312 02:13:05.696637 12026 net.cpp:106] Creating Layer inception_4d/relu_pool_proj
I0312 02:13:05.696645 12026 net.cpp:454] inception_4d/relu_pool_proj <- inception_4d/pool_proj
I0312 02:13:05.696655 12026 net.cpp:397] inception_4d/relu_pool_proj -> inception_4d/pool_proj (in-place)
I0312 02:13:05.697095 12026 net.cpp:150] Setting up inception_4d/relu_pool_proj
I0312 02:13:05.697111 12026 net.cpp:157] Top shape: 50 64 14 14 (627200)
I0312 02:13:05.697118 12026 net.cpp:165] Memory required for data: 2390357212
I0312 02:13:05.697125 12026 layer_factory.hpp:77] Creating layer inception_4d/output
I0312 02:13:05.697136 12026 net.cpp:106] Creating Layer inception_4d/output
I0312 02:13:05.697144 12026 net.cpp:454] inception_4d/output <- inception_4d/1x1
I0312 02:13:05.697152 12026 net.cpp:454] inception_4d/output <- inception_4d/3x3
I0312 02:13:05.697160 12026 net.cpp:454] inception_4d/output <- inception_4d/5x5
I0312 02:13:05.697167 12026 net.cpp:454] inception_4d/output <- inception_4d/pool_proj
I0312 02:13:05.697177 12026 net.cpp:411] inception_4d/output -> inception_4d/output
I0312 02:13:05.697235 12026 net.cpp:150] Setting up inception_4d/output
I0312 02:13:05.697248 12026 net.cpp:157] Top shape: 50 528 14 14 (5174400)
I0312 02:13:05.697254 12026 net.cpp:165] Memory required for data: 2411054812
I0312 02:13:05.697262 12026 layer_factory.hpp:77] Creating layer inception_4d/output_inception_4d/output_0_split
I0312 02:13:05.697275 12026 net.cpp:106] Creating Layer inception_4d/output_inception_4d/output_0_split
I0312 02:13:05.697283 12026 net.cpp:454] inception_4d/output_inception_4d/output_0_split <- inception_4d/output
I0312 02:13:05.697291 12026 net.cpp:411] inception_4d/output_inception_4d/output_0_split -> inception_4d/output_inception_4d/output_0_split_0
I0312 02:13:05.697304 12026 net.cpp:411] inception_4d/output_inception_4d/output_0_split -> inception_4d/output_inception_4d/output_0_split_1
I0312 02:13:05.697315 12026 net.cpp:411] inception_4d/output_inception_4d/output_0_split -> inception_4d/output_inception_4d/output_0_split_2
I0312 02:13:05.697326 12026 net.cpp:411] inception_4d/output_inception_4d/output_0_split -> inception_4d/output_inception_4d/output_0_split_3
I0312 02:13:05.697335 12026 net.cpp:411] inception_4d/output_inception_4d/output_0_split -> inception_4d/output_inception_4d/output_0_split_4
I0312 02:13:05.697510 12026 net.cpp:150] Setting up inception_4d/output_inception_4d/output_0_split
I0312 02:13:05.697525 12026 net.cpp:157] Top shape: 50 528 14 14 (5174400)
I0312 02:13:05.697532 12026 net.cpp:157] Top shape: 50 528 14 14 (5174400)
I0312 02:13:05.697540 12026 net.cpp:157] Top shape: 50 528 14 14 (5174400)
I0312 02:13:05.697547 12026 net.cpp:157] Top shape: 50 528 14 14 (5174400)
I0312 02:13:05.697554 12026 net.cpp:157] Top shape: 50 528 14 14 (5174400)
I0312 02:13:05.697561 12026 net.cpp:165] Memory required for data: 2514542812
I0312 02:13:05.697567 12026 layer_factory.hpp:77] Creating layer loss2/ave_pool
I0312 02:13:05.697579 12026 net.cpp:106] Creating Layer loss2/ave_pool
I0312 02:13:05.697587 12026 net.cpp:454] loss2/ave_pool <- inception_4d/output_inception_4d/output_0_split_0
I0312 02:13:05.697597 12026 net.cpp:411] loss2/ave_pool -> loss2/ave_pool
I0312 02:13:05.697981 12026 net.cpp:150] Setting up loss2/ave_pool
I0312 02:13:05.697998 12026 net.cpp:157] Top shape: 50 528 4 4 (422400)
I0312 02:13:05.698004 12026 net.cpp:165] Memory required for data: 2516232412
I0312 02:13:05.698011 12026 layer_factory.hpp:77] Creating layer loss2/conv
I0312 02:13:05.698027 12026 net.cpp:106] Creating Layer loss2/conv
I0312 02:13:05.698035 12026 net.cpp:454] loss2/conv <- loss2/ave_pool
I0312 02:13:05.698055 12026 net.cpp:411] loss2/conv -> loss2/conv
I0312 02:13:05.700436 12026 net.cpp:150] Setting up loss2/conv
I0312 02:13:05.700455 12026 net.cpp:157] Top shape: 50 128 4 4 (102400)
I0312 02:13:05.700462 12026 net.cpp:165] Memory required for data: 2516642012
I0312 02:13:05.700474 12026 layer_factory.hpp:77] Creating layer loss2/relu_conv
I0312 02:13:05.700490 12026 net.cpp:106] Creating Layer loss2/relu_conv
I0312 02:13:05.700498 12026 net.cpp:454] loss2/relu_conv <- loss2/conv
I0312 02:13:05.700507 12026 net.cpp:397] loss2/relu_conv -> loss2/conv (in-place)
I0312 02:13:05.700857 12026 net.cpp:150] Setting up loss2/relu_conv
I0312 02:13:05.700873 12026 net.cpp:157] Top shape: 50 128 4 4 (102400)
I0312 02:13:05.700881 12026 net.cpp:165] Memory required for data: 2517051612
I0312 02:13:05.700887 12026 layer_factory.hpp:77] Creating layer loss2/fc
I0312 02:13:05.700899 12026 net.cpp:106] Creating Layer loss2/fc
I0312 02:13:05.700906 12026 net.cpp:454] loss2/fc <- loss2/conv
I0312 02:13:05.700919 12026 net.cpp:411] loss2/fc -> loss2/fc
I0312 02:13:05.720233 12026 net.cpp:150] Setting up loss2/fc
I0312 02:13:05.720276 12026 net.cpp:157] Top shape: 50 1024 (51200)
I0312 02:13:05.720283 12026 net.cpp:165] Memory required for data: 2517256412
I0312 02:13:05.720299 12026 layer_factory.hpp:77] Creating layer loss2/relu_fc
I0312 02:13:05.720315 12026 net.cpp:106] Creating Layer loss2/relu_fc
I0312 02:13:05.720325 12026 net.cpp:454] loss2/relu_fc <- loss2/fc
I0312 02:13:05.720337 12026 net.cpp:397] loss2/relu_fc -> loss2/fc (in-place)
I0312 02:13:05.720597 12026 net.cpp:150] Setting up loss2/relu_fc
I0312 02:13:05.720615 12026 net.cpp:157] Top shape: 50 1024 (51200)
I0312 02:13:05.720630 12026 net.cpp:165] Memory required for data: 2517461212
I0312 02:13:05.720640 12026 layer_factory.hpp:77] Creating layer loss2/drop_fc
I0312 02:13:05.720652 12026 net.cpp:106] Creating Layer loss2/drop_fc
I0312 02:13:05.720659 12026 net.cpp:454] loss2/drop_fc <- loss2/fc
I0312 02:13:05.720667 12026 net.cpp:397] loss2/drop_fc -> loss2/fc (in-place)
I0312 02:13:05.720731 12026 net.cpp:150] Setting up loss2/drop_fc
I0312 02:13:05.720748 12026 net.cpp:157] Top shape: 50 1024 (51200)
I0312 02:13:05.720754 12026 net.cpp:165] Memory required for data: 2517666012
I0312 02:13:05.720762 12026 layer_factory.hpp:77] Creating layer myloss2/classifier
I0312 02:13:05.720777 12026 net.cpp:106] Creating Layer myloss2/classifier
I0312 02:13:05.720783 12026 net.cpp:454] myloss2/classifier <- loss2/fc
I0312 02:13:05.720793 12026 net.cpp:411] myloss2/classifier -> myloss2/classifier
I0312 02:13:05.723304 12026 net.cpp:150] Setting up myloss2/classifier
I0312 02:13:05.723323 12026 net.cpp:157] Top shape: 50 200 (10000)
I0312 02:13:05.723330 12026 net.cpp:165] Memory required for data: 2517706012
I0312 02:13:05.723341 12026 layer_factory.hpp:77] Creating layer myloss2/classifier_myloss2/classifier_0_split
I0312 02:13:05.723356 12026 net.cpp:106] Creating Layer myloss2/classifier_myloss2/classifier_0_split
I0312 02:13:05.723363 12026 net.cpp:454] myloss2/classifier_myloss2/classifier_0_split <- myloss2/classifier
I0312 02:13:05.723373 12026 net.cpp:411] myloss2/classifier_myloss2/classifier_0_split -> myloss2/classifier_myloss2/classifier_0_split_0
I0312 02:13:05.723384 12026 net.cpp:411] myloss2/classifier_myloss2/classifier_0_split -> myloss2/classifier_myloss2/classifier_0_split_1
I0312 02:13:05.723397 12026 net.cpp:411] myloss2/classifier_myloss2/classifier_0_split -> myloss2/classifier_myloss2/classifier_0_split_2
I0312 02:13:05.723527 12026 net.cpp:150] Setting up myloss2/classifier_myloss2/classifier_0_split
I0312 02:13:05.723542 12026 net.cpp:157] Top shape: 50 200 (10000)
I0312 02:13:05.723551 12026 net.cpp:157] Top shape: 50 200 (10000)
I0312 02:13:05.723557 12026 net.cpp:157] Top shape: 50 200 (10000)
I0312 02:13:05.723563 12026 net.cpp:165] Memory required for data: 2517826012
I0312 02:13:05.723570 12026 layer_factory.hpp:77] Creating layer loss2/loss
I0312 02:13:05.723580 12026 net.cpp:106] Creating Layer loss2/loss
I0312 02:13:05.723598 12026 net.cpp:454] loss2/loss <- myloss2/classifier_myloss2/classifier_0_split_0
I0312 02:13:05.723618 12026 net.cpp:454] loss2/loss <- label_data_1_split_3
…
I0312 02:13:05.724445 12026 net.cpp:150] Setting up loss2/top-5
I0312 02:13:05.724453 12026 net.cpp:157] Top shape: (1)
I0312 02:13:05.724459 12026 net.cpp:165] Memory required for data: 2517826024
I0312 02:13:05.724465 12026 layer_factory.hpp:77] Creating layer inception_4e/1x1
I0312 02:13:05.724485 12026 net.cpp:106] Creating Layer inception_4e/1x1
I0312 02:13:05.724493 12026 net.cpp:454] inception_4e/1x1 <- inception_4d/output_inception_4d/output_0_split_1
I0312 02:13:05.724503 12026 net.cpp:411] inception_4e/1x1 -> inception_4e/1x1
I0312 02:13:05.727219 12026 net.cpp:150] Setting up inception_4e/1x1
I0312 02:13:05.727246 12026 net.cpp:157] Top shape: 50 256 14 14 (2508800)
I0312 02:13:05.727252 12026 net.cpp:165] Memory required for data: 2527861224
I0312 02:13:05.727265 12026 layer_factory.hpp:77] Creating layer inception_4e/relu_1x1
I0312 02:13:05.727277 12026 net.cpp:106] Creating Layer inception_4e/relu_1x1
I0312 02:13:05.727285 12026 net.cpp:454] inception_4e/relu_1x1 <- inception_4e/1x1
I0312 02:13:05.727294 12026 net.cpp:397] inception_4e/relu_1x1 -> inception_4e/1x1 (in-place)
I0312 02:13:05.727514 12026 net.cpp:150] Setting up inception_4e/relu_1x1
I0312 02:13:05.727531 12026 net.cpp:157] Top shape: 50 256 14 14 (2508800)
I0312 02:13:05.727538 12026 net.cpp:165] Memory required for data: 2537896424
I0312 02:13:05.727545 12026 layer_factory.hpp:77] Creating layer inception_4e/3x3_reduce
I0312 02:13:05.727581 12026 net.cpp:106] Creating Layer inception_4e/3x3_reduce
I0312 02:13:05.727591 12026 net.cpp:454] inception_4e/3x3_reduce <- inception_4d/output_inception_4d/output_0_split_2
I0312 02:13:05.727604 12026 net.cpp:411] inception_4e/3x3_reduce -> inception_4e/3x3_reduce
I0312 02:13:05.730895 12026 net.cpp:150] Setting up inception_4e/3x3_reduce
I0312 02:13:05.730918 12026 net.cpp:157] Top shape: 50 160 14 14 (1568000)
I0312 02:13:05.730926 12026 net.cpp:165] Memory required for data: 2544168424
I0312 02:13:05.730938 12026 layer_factory.hpp:77] Creating layer inception_4e/relu_3x3_reduce
I0312 02:13:05.730952 12026 net.cpp:106] Creating Layer inception_4e/relu_3x3_reduce
I0312 02:13:05.730965 12026 net.cpp:454] inception_4e/relu_3x3_reduce <- inception_4e/3x3_reduce
I0312 02:13:05.730981 12026 net.cpp:397] inception_4e/relu_3x3_reduce -> inception_4e/3x3_reduce (in-place)
I0312 02:13:05.731324 12026 net.cpp:150] Setting up inception_4e/relu_3x3_reduce
I0312 02:13:05.731340 12026 net.cpp:157] Top shape: 50 160 14 14 (1568000)
I0312 02:13:05.731348 12026 net.cpp:165] Memory required for data: 2550440424
I0312 02:13:05.731364 12026 layer_factory.hpp:77] Creating layer inception_4e/3x3
I0312 02:13:05.731390 12026 net.cpp:106] Creating Layer inception_4e/3x3
I0312 02:13:05.731398 12026 net.cpp:454] inception_4e/3x3 <- inception_4e/3x3_reduce
I0312 02:13:05.731411 12026 net.cpp:411] inception_4e/3x3 -> inception_4e/3x3
I0312 02:13:05.736865 12026 net.cpp:150] Setting up inception_4e/3x3
I0312 02:13:05.736887 12026 net.cpp:157] Top shape: 50 320 14 14 (3136000)
I0312 02:13:05.736894 12026 net.cpp:165] Memory required for data: 2562984424
I0312 02:13:05.736906 12026 layer_factory.hpp:77] Creating layer inception_4e/relu_3x3
I0312 02:13:05.736919 12026 net.cpp:106] Creating Layer inception_4e/relu_3x3
I0312 02:13:05.736927 12026 net.cpp:454] inception_4e/relu_3x3 <- inception_4e/3x3
I0312 02:13:05.736937 12026 net.cpp:397] inception_4e/relu_3x3 -> inception_4e/3x3 (in-place)
I0312 02:13:05.737275 12026 net.cpp:150] Setting up inception_4e/relu_3x3
I0312 02:13:05.737295 12026 net.cpp:157] Top shape: 50 320 14 14 (3136000)
I0312 02:13:05.737303 12026 net.cpp:165] Memory required for data: 2575528424
I0312 02:13:05.737309 12026 layer_factory.hpp:77] Creating layer inception_4e/5x5_reduce
I0312 02:13:05.737326 12026 net.cpp:106] Creating Layer inception_4e/5x5_reduce
I0312 02:13:05.737334 12026 net.cpp:454] inception_4e/5x5_reduce <- inception_4d/output_inception_4d/output_0_split_3
I0312 02:13:05.737347 12026 net.cpp:411] inception_4e/5x5_reduce -> inception_4e/5x5_reduce
I0312 02:13:05.738621 12026 net.cpp:150] Setting up inception_4e/5x5_reduce
I0312 02:13:05.738639 12026 net.cpp:157] Top shape: 50 32 14 14 (313600)
I0312 02:13:05.738646 12026 net.cpp:165] Memory required for data: 2576782824
I0312 02:13:05.738656 12026 layer_factory.hpp:77] Creating layer inception_4e/relu_5x5_reduce
I0312 02:13:05.738667 12026 net.cpp:106] Creating Layer inception_4e/relu_5x5_reduce
I0312 02:13:05.738675 12026 net.cpp:454] inception_4e/relu_5x5_reduce <- inception_4e/5x5_reduce
I0312 02:13:05.738684 12026 net.cpp:397] inception_4e/relu_5x5_reduce -> inception_4e/5x5_reduce (in-place)
I0312 02:13:05.738924 12026 net.cpp:150] Setting up inception_4e/relu_5x5_reduce
I0312 02:13:05.738945 12026 net.cpp:157] Top shape: 50 32 14 14 (313600)
I0312 02:13:05.738951 12026 net.cpp:165] Memory required for data: 2578037224
I0312 02:13:05.738958 12026 layer_factory.hpp:77] Creating layer inception_4e/5x5
I0312 02:13:05.738975 12026 net.cpp:106] Creating Layer inception_4e/5x5
I0312 02:13:05.738982 12026 net.cpp:454] inception_4e/5x5 <- inception_4e/5x5_reduce
I0312 02:13:05.738993 12026 net.cpp:411] inception_4e/5x5 -> inception_4e/5x5
I0312 02:13:05.740949 12026 net.cpp:150] Setting up inception_4e/5x5
I0312 02:13:05.740969 12026 net.cpp:157] Top shape: 50 128 14 14 (1254400)
I0312 02:13:05.740977 12026 net.cpp:165] Memory required for data: 2583054824
I0312 02:13:05.740988 12026 layer_factory.hpp:77] Creating layer inception_4e/relu_5x5
I0312 02:13:05.741001 12026 net.cpp:106] Creating Layer inception_4e/relu_5x5
I0312 02:13:05.741009 12026 net.cpp:454] inception_4e/relu_5x5 <- inception_4e/5x5
I0312 02:13:05.741019 12026 net.cpp:397] inception_4e/relu_5x5 -> inception_4e/5x5 (in-place)
I0312 02:13:05.741394 12026 net.cpp:150] Setting up inception_4e/relu_5x5
I0312 02:13:05.741411 12026 net.cpp:157] Top shape: 50 128 14 14 (1254400)
I0312 02:13:05.741420 12026 net.cpp:165] Memory required for data: 2588072424
I0312 02:13:05.741432 12026 layer_factory.hpp:77] Creating layer inception_4e/pool
I0312 02:13:05.741451 12026 net.cpp:106] Creating Layer inception_4e/pool
I0312 02:13:05.741459 12026 net.cpp:454] inception_4e/pool <- inception_4d/output_inception_4d/output_0_split_4
I0312 02:13:05.741469 12026 net.cpp:411] inception_4e/pool -> inception_4e/pool
I0312 02:13:05.741528 12026 net.cpp:150] Setting up inception_4e/pool
I0312 02:13:05.741540 12026 net.cpp:157] Top shape: 50 528 14 14 (5174400)
I0312 02:13:05.741546 12026 net.cpp:165] Memory required for data: 2608770024
I0312 02:13:05.741554 12026 layer_factory.hpp:77] Creating layer inception_4e/pool_proj
I0312 02:13:05.741580 12026 net.cpp:106] Creating Layer inception_4e/pool_proj
I0312 02:13:05.741597 12026 net.cpp:454] inception_4e/pool_proj <- inception_4e/pool
I0312 02:13:05.741608 12026 net.cpp:411] inception_4e/pool_proj -> inception_4e/pool_proj
I0312 02:13:05.743257 12026 net.cpp:150] Setting up inception_4e/pool_proj
I0312 02:13:05.743276 12026 net.cpp:157] Top shape: 50 128 14 14 (1254400)
I0312 02:13:05.743283 12026 net.cpp:165] Memory required for data: 2613787624
I0312 02:13:05.743294 12026 layer_factory.hpp:77] Creating layer inception_4e/relu_pool_proj
I0312 02:13:05.743305 12026 net.cpp:106] Creating Layer inception_4e/relu_pool_proj
I0312 02:13:05.743314 12026 net.cpp:454] inception_4e/relu_pool_proj <- inception_4e/pool_proj
I0312 02:13:05.743324 12026 net.cpp:397] inception_4e/relu_pool_proj -> inception_4e/pool_proj (in-place)
I0312 02:13:05.743690 12026 net.cpp:150] Setting up inception_4e/relu_pool_proj
I0312 02:13:05.743706 12026 net.cpp:157] Top shape: 50 128 14 14 (1254400)
I0312 02:13:05.743713 12026 net.cpp:165] Memory required for data: 2618805224
I0312 02:13:05.743721 12026 layer_factory.hpp:77] Creating layer inception_4e/output
I0312 02:13:05.743736 12026 net.cpp:106] Creating Layer inception_4e/output
I0312 02:13:05.743746 12026 net.cpp:454] inception_4e/output <- inception_4e/1x1
I0312 02:13:05.743757 12026 net.cpp:454] inception_4e/output <- inception_4e/3x3
I0312 02:13:05.743764 12026 net.cpp:454] inception_4e/output <- inception_4e/5x5
I0312 02:13:05.743772 12026 net.cpp:454] inception_4e/output <- inception_4e/pool_proj
I0312 02:13:05.743780 12026 net.cpp:411] inception_4e/output -> inception_4e/output
I0312 02:13:05.743823 12026 net.cpp:150] Setting up inception_4e/output
I0312 02:13:05.743834 12026 net.cpp:157] Top shape: 50 832 14 14 (8153600)
I0312 02:13:05.743839 12026 net.cpp:165] Memory required for data: 2651419624
I0312 02:13:05.743846 12026 layer_factory.hpp:77] Creating layer pool4/3x3_s2
I0312 02:13:05.743856 12026 net.cpp:106] Creating Layer pool4/3x3_s2
I0312 02:13:05.743863 12026 net.cpp:454] pool4/3x3_s2 <- inception_4e/output
I0312 02:13:05.743878 12026 net.cpp:411] pool4/3x3_s2 -> pool4/3x3_s2
I0312 02:13:05.743939 12026 net.cpp:150] Setting up pool4/3x3_s2
I0312 02:13:05.743957 12026 net.cpp:157] Top shape: 50 832 7 7 (2038400)
I0312 02:13:05.743968 12026 net.cpp:165] Memory required for data: 2659573224
I0312 02:13:05.743974 12026 layer_factory.hpp:77] Creating layer pool4/3x3_s2_pool4/3x3_s2_0_split
I0312 02:13:05.743989 12026 net.cpp:106] Creating Layer pool4/3x3_s2_pool4/3x3_s2_0_split
I0312 02:13:05.743996 12026 net.cpp:454] pool4/3x3_s2_pool4/3x3_s2_0_split <- pool4/3x3_s2
I0312 02:13:05.744006 12026 net.cpp:411] pool4/3x3_s2_pool4/3x3_s2_0_split -> pool4/3x3_s2_pool4/3x3_s2_0_split_0
I0312 02:13:05.744017 12026 net.cpp:411] pool4/3x3_s2_pool4/3x3_s2_0_split -> pool4/3x3_s2_pool4/3x3_s2_0_split_1
I0312 02:13:05.744027 12026 net.cpp:411] pool4/3x3_s2_pool4/3x3_s2_0_split -> pool4/3x3_s2_pool4/3x3_s2_0_split_2
I0312 02:13:05.744058 12026 net.cpp:411] pool4/3x3_s2_pool4/3x3_s2_0_split -> pool4/3x3_s2_pool4/3x3_s2_0_split_3
I0312 02:13:05.744132 12026 net.cpp:150] Setting up pool4/3x3_s2_pool4/3x3_s2_0_split
I0312 02:13:05.744143 12026 net.cpp:157] Top shape: 50 832 7 7 (2038400)
I0312 02:13:05.744151 12026 net.cpp:157] Top shape: 50 832 7 7 (2038400)
I0312 02:13:05.744159 12026 net.cpp:157] Top shape: 50 832 7 7 (2038400)
I0312 02:13:05.744168 12026 net.cpp:157] Top shape: 50 832 7 7 (2038400)
I0312 02:13:05.744174 12026 net.cpp:165] Memory required for data: 2692187624
I0312 02:13:05.744179 12026 layer_factory.hpp:77] Creating layer inception_5a/1x1
I0312 02:13:05.744195 12026 net.cpp:106] Creating Layer inception_5a/1x1
I0312 02:13:05.744202 12026 net.cpp:454] inception_5a/1x1 <- pool4/3x3_s2_pool4/3x3_s2_0_split_0
I0312 02:13:05.744215 12026 net.cpp:411] inception_5a/1x1 -> inception_5a/1x1
I0312 02:13:05.747784 12026 net.cpp:150] Setting up inception_5a/1x1
I0312 02:13:05.747817 12026 net.cpp:157] Top shape: 50 256 7 7 (627200)
I0312 02:13:05.747833 12026 net.cpp:165] Memory required for data: 2694696424
I0312 02:13:05.747855 12026 layer_factory.hpp:77] Creating layer inception_5a/relu_1x1
I0312 02:13:05.747867 12026 net.cpp:106] Creating Layer inception_5a/relu_1x1
I0312 02:13:05.747875 12026 net.cpp:454] inception_5a/relu_1x1 <- inception_5a/1x1
I0312 02:13:05.747884 12026 net.cpp:397] inception_5a/relu_1x1 -> inception_5a/1x1 (in-place)
I0312 02:13:05.748101 12026 net.cpp:150] Setting up inception_5a/relu_1x1
I0312 02:13:05.748119 12026 net.cpp:157] Top shape: 50 256 7 7 (627200)
I0312 02:13:05.748126 12026 net.cpp:165] Memory required for data: 2697205224
I0312 02:13:05.748132 12026 layer_factory.hpp:77] Creating layer inception_5a/3x3_reduce
I0312 02:13:05.748149 12026 net.cpp:106] Creating Layer inception_5a/3x3_reduce
I0312 02:13:05.748158 12026 net.cpp:454] inception_5a/3x3_reduce <- pool4/3x3_s2_pool4/3x3_s2_0_split_1
I0312 02:13:05.748169 12026 net.cpp:411] inception_5a/3x3_reduce -> inception_5a/3x3_reduce
I0312 02:13:05.751001 12026 net.cpp:150] Setting up inception_5a/3x3_reduce
I0312 02:13:05.751025 12026 net.cpp:157] Top shape: 50 160 7 7 (392000)
I0312 02:13:05.751032 12026 net.cpp:165] Memory required for data: 2698773224
I0312 02:13:05.751044 12026 layer_factory.hpp:77] Creating layer inception_5a/relu_3x3_reduce
I0312 02:13:05.751056 12026 net.cpp:106] Creating Layer inception_5a/relu_3x3_reduce
I0312 02:13:05.751065 12026 net.cpp:454] inception_5a/relu_3x3_reduce <- inception_5a/3x3_reduce
I0312 02:13:05.751080 12026 net.cpp:397] inception_5a/relu_3x3_reduce -> inception_5a/3x3_reduce (in-place)
I0312 02:13:05.751426 12026 net.cpp:150] Setting up inception_5a/relu_3x3_reduce
I0312 02:13:05.751442 12026 net.cpp:157] Top shape: 50 160 7 7 (392000)
I0312 02:13:05.751449 12026 net.cpp:165] Memory required for data: 2700341224
I0312 02:13:05.751456 12026 layer_factory.hpp:77] Creating layer inception_5a/3x3
I0312 02:13:05.751477 12026 net.cpp:106] Creating Layer inception_5a/3x3
I0312 02:13:05.751485 12026 net.cpp:454] inception_5a/3x3 <- inception_5a/3x3_reduce
I0312 02:13:05.751497 12026 net.cpp:411] inception_5a/3x3 -> inception_5a/3x3
I0312 02:13:05.757119 12026 net.cpp:150] Setting up inception_5a/3x3
I0312 02:13:05.757151 12026 net.cpp:157] Top shape: 50 320 7 7 (784000)
I0312 02:13:05.757159 12026 net.cpp:165] Memory required for data: 2703477224
I0312 02:13:05.757172 12026 layer_factory.hpp:77] Creating layer inception_5a/relu_3x3
I0312 02:13:05.757186 12026 net.cpp:106] Creating Layer inception_5a/relu_3x3
I0312 02:13:05.757196 12026 net.cpp:454] inception_5a/relu_3x3 <- inception_5a/3x3
I0312 02:13:05.757210 12026 net.cpp:397] inception_5a/relu_3x3 -> inception_5a/3x3 (in-place)
I0312 02:13:05.757593 12026 net.cpp:150] Setting up inception_5a/relu_3x3
I0312 02:13:05.757611 12026 net.cpp:157] Top shape: 50 320 7 7 (784000)
I0312 02:13:05.757618 12026 net.cpp:165] Memory required for data: 2706613224
I0312 02:13:05.757625 12026 layer_factory.hpp:77] Creating layer inception_5a/5x5_reduce
I0312 02:13:05.757644 12026 net.cpp:106] Creating Layer inception_5a/5x5_reduce
I0312 02:13:05.757653 12026 net.cpp:454] inception_5a/5x5_reduce <- pool4/3x3_s2_pool4/3x3_s2_0_split_2
I0312 02:13:05.757668 12026 net.cpp:411] inception_5a/5x5_reduce -> inception_5a/5x5_reduce
I0312 02:13:05.759672 12026 net.cpp:150] Setting up inception_5a/5x5_reduce
I0312 02:13:05.759691 12026 net.cpp:157] Top shape: 50 32 7 7 (78400)
I0312 02:13:05.759698 12026 net.cpp:165] Memory required for data: 2706926824
I0312 02:13:05.759711 12026 layer_factory.hpp:77] Creating layer inception_5a/relu_5x5_reduce
I0312 02:13:05.759723 12026 net.cpp:106] Creating Layer inception_5a/relu_5x5_reduce
I0312 02:13:05.759732 12026 net.cpp:454] inception_5a/relu_5x5_reduce <- inception_5a/5x5_reduce
I0312 02:13:05.759740 12026 net.cpp:397] inception_5a/relu_5x5_reduce -> inception_5a/5x5_reduce (in-place)
I0312 02:13:05.759953 12026 net.cpp:150] Setting up inception_5a/relu_5x5_reduce
I0312 02:13:05.759968 12026 net.cpp:157] Top shape: 50 32 7 7 (78400)
I0312 02:13:05.759989 12026 net.cpp:165] Memory required for data: 2707240424
I0312 02:13:05.759997 12026 layer_factory.hpp:77] Creating layer inception_5a/5x5
I0312 02:13:05.760025 12026 net.cpp:106] Creating Layer inception_5a/5x5
I0312 02:13:05.760035 12026 net.cpp:454] inception_5a/5x5 <- inception_5a/5x5_reduce
I0312 02:13:05.760047 12026 net.cpp:411] inception_5a/5x5 -> inception_5a/5x5
I0312 02:13:05.762228 12026 net.cpp:150] Setting up inception_5a/5x5
I0312 02:13:05.762248 12026 net.cpp:157] Top shape: 50 128 7 7 (313600)
I0312 02:13:05.762256 12026 net.cpp:165] Memory required for data: 2708494824
I0312 02:13:05.762267 12026 layer_factory.hpp:77] Creating layer inception_5a/relu_5x5
I0312 02:13:05.762282 12026 net.cpp:106] Creating Layer inception_5a/relu_5x5
I0312 02:13:05.762291 12026 net.cpp:454] inception_5a/relu_5x5 <- inception_5a/5x5
I0312 02:13:05.762300 12026 net.cpp:397] inception_5a/relu_5x5 -> inception_5a/5x5 (in-place)
I0312 02:13:05.762657 12026 net.cpp:150] Setting up inception_5a/relu_5x5
I0312 02:13:05.762676 12026 net.cpp:157] Top shape: 50 128 7 7 (313600)
I0312 02:13:05.762682 12026 net.cpp:165] Memory required for data: 2709749224
I0312 02:13:05.762691 12026 layer_factory.hpp:77] Creating layer inception_5a/pool
I0312 02:13:05.762706 12026 net.cpp:106] Creating Layer inception_5a/pool
I0312 02:13:05.762713 12026 net.cpp:454] inception_5a/pool <- pool4/3x3_s2_pool4/3x3_s2_0_split_3
I0312 02:13:05.762723 12026 net.cpp:411] inception_5a/pool -> inception_5a/pool
I0312 02:13:05.762804 12026 net.cpp:150] Setting up inception_5a/pool
I0312 02:13:05.762819 12026 net.cpp:157] Top shape: 50 832 7 7 (2038400)
I0312 02:13:05.762825 12026 net.cpp:165] Memory required for data: 2717902824
I0312 02:13:05.762831 12026 layer_factory.hpp:77] Creating layer inception_5a/pool_proj
I0312 02:13:05.762848 12026 net.cpp:106] Creating Layer inception_5a/pool_proj
I0312 02:13:05.762856 12026 net.cpp:454] inception_5a/pool_proj <- inception_5a/pool
I0312 02:13:05.762868 12026 net.cpp:411] inception_5a/pool_proj -> inception_5a/pool_proj
I0312 02:13:05.765460 12026 net.cpp:150] Setting up inception_5a/pool_proj
I0312 02:13:05.765480 12026 net.cpp:157] Top shape: 50 128 7 7 (313600)
I0312 02:13:05.765487 12026 net.cpp:165] Memory required for data: 2719157224
I0312 02:13:05.765499 12026 layer_factory.hpp:77] Creating layer inception_5a/relu_pool_proj
I0312 02:13:05.765513 12026 net.cpp:106] Creating Layer inception_5a/relu_pool_proj
I0312 02:13:05.765522 12026 net.cpp:454] inception_5a/relu_pool_proj <- inception_5a/pool_proj
I0312 02:13:05.765532 12026 net.cpp:397] inception_5a/relu_pool_proj -> inception_5a/pool_proj (in-place)
I0312 02:13:05.765887 12026 net.cpp:150] Setting up inception_5a/relu_pool_proj
I0312 02:13:05.765903 12026 net.cpp:157] Top shape: 50 128 7 7 (313600)
I0312 02:13:05.765910 12026 net.cpp:165] Memory required for data: 2720411624
I0312 02:13:05.765918 12026 layer_factory.hpp:77] Creating layer inception_5a/output
I0312 02:13:05.765928 12026 net.cpp:106] Creating Layer inception_5a/output
I0312 02:13:05.765935 12026 net.cpp:454] inception_5a/output <- inception_5a/1x1
I0312 02:13:05.765944 12026 net.cpp:454] inception_5a/output <- inception_5a/3x3
I0312 02:13:05.765955 12026 net.cpp:454] inception_5a/output <- inception_5a/5x5
I0312 02:13:05.765964 12026 net.cpp:454] inception_5a/output <- inception_5a/pool_proj
I0312 02:13:05.765974 12026 net.cpp:411] inception_5a/output -> inception_5a/output
I0312 02:13:05.766016 12026 net.cpp:150] Setting up inception_5a/output
I0312 02:13:05.766031 12026 net.cpp:157] Top shape: 50 832 7 7 (2038400)
I0312 02:13:05.766038 12026 net.cpp:165] Memory required for data: 2728565224
I0312 02:13:05.766044 12026 layer_factory.hpp:77] Creating layer inception_5a/output_inception_5a/output_0_split
I0312 02:13:05.766055 12026 net.cpp:106] Creating Layer inception_5a/output_inception_5a/output_0_split
I0312 02:13:05.766062 12026 net.cpp:454] inception_5a/output_inception_5a/output_0_split <- inception_5a/output
I0312 02:13:05.766070 12026 net.cpp:411] inception_5a/output_inception_5a/output_0_split -> inception_5a/output_inception_5a/output_0_split_0
I0312 02:13:05.766098 12026 net.cpp:411] inception_5a/output_inception_5a/output_0_split -> inception_5a/output_inception_5a/output_0_split_1
I0312 02:13:05.766109 12026 net.cpp:411] inception_5a/output_inception_5a/output_0_split -> inception_5a/output_inception_5a/output_0_split_2
I0312 02:13:05.766122 12026 net.cpp:411] inception_5a/output_inception_5a/output_0_split -> inception_5a/output_inception_5a/output_0_split_3
I0312 02:13:05.766197 12026 net.cpp:150] Setting up inception_5a/output_inception_5a/output_0_split
I0312 02:13:05.766209 12026 net.cpp:157] Top shape: 50 832 7 7 (2038400)
I0312 02:13:05.766216 12026 net.cpp:157] Top shape: 50 832 7 7 (2038400)
I0312 02:13:05.766224 12026 net.cpp:157] Top shape: 50 832 7 7 (2038400)
I0312 02:13:05.766232 12026 net.cpp:157] Top shape: 50 832 7 7 (2038400)
I0312 02:13:05.766237 12026 net.cpp:165] Memory required for data: 2761179624
I0312 02:13:05.766243 12026 layer_factory.hpp:77] Creating layer inception_5b/1x1
I0312 02:13:05.766260 12026 net.cpp:106] Creating Layer inception_5b/1x1
I0312 02:13:05.766268 12026 net.cpp:454] inception_5b/1x1 <- inception_5a/output_inception_5a/output_0_split_0
I0312 02:13:05.766280 12026 net.cpp:411] inception_5b/1x1 -> inception_5b/1x1
I0312 02:13:05.770897 12026 net.cpp:150] Setting up inception_5b/1x1
I0312 02:13:05.770921 12026 net.cpp:157] Top shape: 50 384 7 7 (940800)
I0312 02:13:05.770930 12026 net.cpp:165] Memory required for data: 2764942824
I0312 02:13:05.770941 12026 layer_factory.hpp:77] Creating layer inception_5b/relu_1x1
I0312 02:13:05.770957 12026 net.cpp:106] Creating Layer inception_5b/relu_1x1
I0312 02:13:05.770967 12026 net.cpp:454] inception_5b/relu_1x1 <- inception_5b/1x1
I0312 02:13:05.770977 12026 net.cpp:397] inception_5b/relu_1x1 -> inception_5b/1x1 (in-place)
I0312 02:13:05.771188 12026 net.cpp:150] Setting up inception_5b/relu_1x1
I0312 02:13:05.771204 12026 net.cpp:157] Top shape: 50 384 7 7 (940800)
I0312 02:13:05.771214 12026 net.cpp:165] Memory required for data: 2768706024
I0312 02:13:05.771221 12026 layer_factory.hpp:77] Creating layer inception_5b/3x3_reduce
I0312 02:13:05.771235 12026 net.cpp:106] Creating Layer inception_5b/3x3_reduce
I0312 02:13:05.771244 12026 net.cpp:454] inception_5b/3x3_reduce <- inception_5a/output_inception_5a/output_0_split_1
I0312 02:13:05.771255 12026 net.cpp:411] inception_5b/3x3_reduce -> inception_5b/3x3_reduce
I0312 02:13:05.774348 12026 net.cpp:150] Setting up inception_5b/3x3_reduce
I0312 02:13:05.774370 12026 net.cpp:157] Top shape: 50 192 7 7 (470400)
I0312 02:13:05.774379 12026 net.cpp:165] Memory required for data: 2770587624
I0312 02:13:05.774390 12026 layer_factory.hpp:77] Creating layer inception_5b/relu_3x3_reduce
I0312 02:13:05.774405 12026 net.cpp:106] Creating Layer inception_5b/relu_3x3_reduce
I0312 02:13:05.774413 12026 net.cpp:454] inception_5b/relu_3x3_reduce <- inception_5b/3x3_reduce
I0312 02:13:05.774423 12026 net.cpp:397] inception_5b/relu_3x3_reduce -> inception_5b/3x3_reduce (in-place)
I0312 02:13:05.774905 12026 net.cpp:150] Setting up inception_5b/relu_3x3_reduce
I0312 02:13:05.774924 12026 net.cpp:157] Top shape: 50 192 7 7 (470400)
I0312 02:13:05.774930 12026 net.cpp:165] Memory required for data: 2772469224
I0312 02:13:05.774936 12026 layer_factory.hpp:77] Creating layer inception_5b/3x3
I0312 02:13:05.774955 12026 net.cpp:106] Creating Layer inception_5b/3x3
I0312 02:13:05.774968 12026 net.cpp:454] inception_5b/3x3 <- inception_5b/3x3_reduce
I0312 02:13:05.774991 12026 net.cpp:411] inception_5b/3x3 -> inception_5b/3x3
I0312 02:13:05.782169 12026 net.cpp:150] Setting up inception_5b/3x3
I0312 02:13:05.782193 12026 net.cpp:157] Top shape: 50 384 7 7 (940800)
I0312 02:13:05.782201 12026 net.cpp:165] Memory required for data: 2776232424
I0312 02:13:05.782212 12026 layer_factory.hpp:77] Creating layer inception_5b/relu_3x3
I0312 02:13:05.782227 12026 net.cpp:106] Creating Layer inception_5b/relu_3x3
I0312 02:13:05.782237 12026 net.cpp:454] inception_5b/relu_3x3 <- inception_5b/3x3
I0312 02:13:05.782258 12026 net.cpp:397] inception_5b/relu_3x3 -> inception_5b/3x3 (in-place)
I0312 02:13:05.782625 12026 net.cpp:150] Setting up inception_5b/relu_3x3
I0312 02:13:05.782647 12026 net.cpp:157] Top shape: 50 384 7 7 (940800)
I0312 02:13:05.782655 12026 net.cpp:165] Memory required for data: 2779995624
I0312 02:13:05.782662 12026 layer_factory.hpp:77] Creating layer inception_5b/5x5_reduce
I0312 02:13:05.782680 12026 net.cpp:106] Creating Layer inception_5b/5x5_reduce
I0312 02:13:05.782688 12026 net.cpp:454] inception_5b/5x5_reduce <- inception_5a/output_inception_5a/output_0_split_2
I0312 02:13:05.782699 12026 net.cpp:411] inception_5b/5x5_reduce -> inception_5b/5x5_reduce
I0312 02:13:05.784286 12026 net.cpp:150] Setting up inception_5b/5x5_reduce
I0312 02:13:05.784306 12026 net.cpp:157] Top shape: 50 48 7 7 (117600)
I0312 02:13:05.784312 12026 net.cpp:165] Memory required for data: 2780466024
I0312 02:13:05.784323 12026 layer_factory.hpp:77] Creating layer inception_5b/relu_5x5_reduce
I0312 02:13:05.784337 12026 net.cpp:106] Creating Layer inception_5b/relu_5x5_reduce
I0312 02:13:05.784345 12026 net.cpp:454] inception_5b/relu_5x5_reduce <- inception_5b/5x5_reduce
I0312 02:13:05.784354 12026 net.cpp:397] inception_5b/relu_5x5_reduce -> inception_5b/5x5_reduce (in-place)
I0312 02:13:05.784579 12026 net.cpp:150] Setting up inception_5b/relu_5x5_reduce
I0312 02:13:05.784595 12026 net.cpp:157] Top shape: 50 48 7 7 (117600)
I0312 02:13:05.784601 12026 net.cpp:165] Memory required for data: 2780936424
I0312 02:13:05.784608 12026 layer_factory.hpp:77] Creating layer inception_5b/5x5
I0312 02:13:05.784631 12026 net.cpp:106] Creating Layer inception_5b/5x5
I0312 02:13:05.784639 12026 net.cpp:454] inception_5b/5x5 <- inception_5b/5x5_reduce
I0312 02:13:05.784651 12026 net.cpp:411] inception_5b/5x5 -> inception_5b/5x5
I0312 02:13:05.787142 12026 net.cpp:150] Setting up inception_5b/5x5
I0312 02:13:05.787161 12026 net.cpp:157] Top shape: 50 128 7 7 (313600)
I0312 02:13:05.787168 12026 net.cpp:165] Memory required for data: 2782190824
I0312 02:13:05.787179 12026 layer_factory.hpp:77] Creating layer inception_5b/relu_5x5
I0312 02:13:05.787190 12026 net.cpp:106] Creating Layer inception_5b/relu_5x5
I0312 02:13:05.787201 12026 net.cpp:454] inception_5b/relu_5x5 <- inception_5b/5x5
I0312 02:13:05.787210 12026 net.cpp:397] inception_5b/relu_5x5 -> inception_5b/5x5 (in-place)
I0312 02:13:05.787575 12026 net.cpp:150] Setting up inception_5b/relu_5x5
I0312 02:13:05.787592 12026 net.cpp:157] Top shape: 50 128 7 7 (313600)
I0312 02:13:05.787600 12026 net.cpp:165] Memory required for data: 2783445224
I0312 02:13:05.787609 12026 layer_factory.hpp:77] Creating layer inception_5b/pool
I0312 02:13:05.787621 12026 net.cpp:106] Creating Layer inception_5b/pool
I0312 02:13:05.787629 12026 net.cpp:454] inception_5b/pool <- inception_5a/output_inception_5a/output_0_split_3
I0312 02:13:05.787639 12026 net.cpp:411] inception_5b/pool -> inception_5b/pool
I0312 02:13:05.787700 12026 net.cpp:150] Setting up inception_5b/pool
I0312 02:13:05.787713 12026 net.cpp:157] Top shape: 50 832 7 7 (2038400)
I0312 02:13:05.787719 12026 net.cpp:165] Memory required for data: 2791598824
I0312 02:13:05.787725 12026 layer_factory.hpp:77] Creating layer inception_5b/pool_proj
I0312 02:13:05.787740 12026 net.cpp:106] Creating Layer inception_5b/pool_proj
I0312 02:13:05.787750 12026 net.cpp:454] inception_5b/pool_proj <- inception_5b/pool
I0312 02:13:05.787760 12026 net.cpp:411] inception_5b/pool_proj -> inception_5b/pool_proj
I0312 02:13:05.790290 12026 net.cpp:150] Setting up inception_5b/pool_proj
I0312 02:13:05.790310 12026 net.cpp:157] Top shape: 50 128 7 7 (313600)
I0312 02:13:05.790318 12026 net.cpp:165] Memory required for data: 2792853224
I0312 02:13:05.790329 12026 layer_factory.hpp:77] Creating layer inception_5b/relu_pool_proj
I0312 02:13:05.790343 12026 net.cpp:106] Creating Layer inception_5b/relu_pool_proj
I0312 02:13:05.790350 12026 net.cpp:454] inception_5b/relu_pool_proj <- inception_5b/pool_proj
I0312 02:13:05.790360 12026 net.cpp:397] inception_5b/relu_pool_proj -> inception_5b/pool_proj (in-place)
I0312 02:13:05.790735 12026 net.cpp:150] Setting up inception_5b/relu_pool_proj
I0312 02:13:05.790783 12026 net.cpp:157] Top shape: 50 128 7 7 (313600)
I0312 02:13:05.790791 12026 net.cpp:165] Memory required for data: 2794107624
I0312 02:13:05.790797 12026 layer_factory.hpp:77] Creating layer inception_5b/output
I0312 02:13:05.790808 12026 net.cpp:106] Creating Layer inception_5b/output
I0312 02:13:05.790817 12026 net.cpp:454] inception_5b/output <- inception_5b/1x1
I0312 02:13:05.790824 12026 net.cpp:454] inception_5b/output <- inception_5b/3x3
I0312 02:13:05.790832 12026 net.cpp:454] inception_5b/output <- inception_5b/5x5
I0312 02:13:05.790839 12026 net.cpp:454] inception_5b/output <- inception_5b/pool_proj
I0312 02:13:05.790873 12026 net.cpp:411] inception_5b/output -> inception_5b/output
I0312 02:13:05.790926 12026 net.cpp:150] Setting up inception_5b/output
I0312 02:13:05.790948 12026 net.cpp:157] Top shape: 50 1024 7 7 (2508800)
I0312 02:13:05.790956 12026 net.cpp:165] Memory required for data: 2804142824
I0312 02:13:05.790962 12026 layer_factory.hpp:77] Creating layer pool5/7x7_s1
I0312 02:13:05.790973 12026 net.cpp:106] Creating Layer pool5/7x7_s1
I0312 02:13:05.790980 12026 net.cpp:454] pool5/7x7_s1 <- inception_5b/output
I0312 02:13:05.790990 12026 net.cpp:411] pool5/7x7_s1 -> pool5/7x7_s1
I0312 02:13:05.791242 12026 net.cpp:150] Setting up pool5/7x7_s1
I0312 02:13:05.791257 12026 net.cpp:157] Top shape: 50 1024 1 1 (51200)
I0312 02:13:05.791263 12026 net.cpp:165] Memory required for data: 2804347624
I0312 02:13:05.791270 12026 layer_factory.hpp:77] Creating layer pool5/drop_7x7_s1
I0312 02:13:05.791283 12026 net.cpp:106] Creating Layer pool5/drop_7x7_s1
I0312 02:13:05.791291 12026 net.cpp:454] pool5/drop_7x7_s1 <- pool5/7x7_s1
I0312 02:13:05.791301 12026 net.cpp:397] pool5/drop_7x7_s1 -> pool5/7x7_s1 (in-place)
I0312 02:13:05.791337 12026 net.cpp:150] Setting up pool5/drop_7x7_s1
I0312 02:13:05.791349 12026 net.cpp:157] Top shape: 50 1024 1 1 (51200)
I0312 02:13:05.791359 12026 net.cpp:165] Memory required for data: 2804552424
I0312 02:13:05.791373 12026 layer_factory.hpp:77] Creating layer myloss3/classifier
I0312 02:13:05.791389 12026 net.cpp:106] Creating Layer myloss3/classifier
I0312 02:13:05.791396 12026 net.cpp:454] myloss3/classifier <- pool5/7x7_s1
I0312 02:13:05.791410 12026 net.cpp:411] myloss3/classifier -> myloss3/classifier
I0312 02:13:05.793705 12026 net.cpp:150] Setting up myloss3/classifier
I0312 02:13:05.793725 12026 net.cpp:157] Top shape: 50 200 (10000)
I0312 02:13:05.793731 12026 net.cpp:165] Memory required for data: 2804592424
I0312 02:13:05.793742 12026 layer_factory.hpp:77] Creating layer myloss3/classifier_myloss3/classifier_0_split
I0312 02:13:05.793753 12026 net.cpp:106] Creating Layer myloss3/classifier_myloss3/classifier_0_split
I0312 02:13:05.793761 12026 net.cpp:454] myloss3/classifier_myloss3/classifier_0_split <- myloss3/classifier
I0312 02:13:05.793771 12026 net.cpp:411] myloss3/classifier_myloss3/classifier_0_split -> myloss3/classifier_myloss3/classifier_0_split_0
I0312 02:13:05.793784 12026 net.cpp:411] myloss3/classifier_myloss3/classifier_0_split -> myloss3/classifier_myloss3/classifier_0_split_1
I0312 02:13:05.793795 12026 net.cpp:411] myloss3/classifier_myloss3/classifier_0_split -> myloss3/classifier_myloss3/classifier_0_split_2
I0312 02:13:05.793862 12026 net.cpp:150] Setting up myloss3/classifier_myloss3/classifier_0_split
I0312 02:13:05.793875 12026 net.cpp:157] Top shape: 50 200 (10000)
I0312 02:13:05.793882 12026 net.cpp:157] Top shape: 50 200 (10000)
I0312 02:13:05.793889 12026 net.cpp:157] Top shape: 50 200 (10000)
I0312 02:13:05.793900 12026 net.cpp:165] Memory required for data: 2804712424
I0312 02:13:05.793907 12026 layer_factory.hpp:77] Creating layer loss3/loss3
I0312 02:13:05.793917 12026 net.cpp:106] Creating Layer loss3/loss3
I0312 02:13:05.793925 12026 net.cpp:454] loss3/loss3 <- myloss3/classifier_myloss3/classifier_0_split_0
I0312 02:13:05.793932 12026 net.cpp:454] loss3/loss3 <- label_data_1_split_6
…
