…
I0311 00:55:43.090947  2965 net.cpp:322] The NetState phase (0) differed from the phase (1) specified by a rule in layer accuracy_top_5
I0311 00:55:43.091238  2965 net.cpp:49] Initializing net from parameters: 
name: "FlickrStyleCaffeNet"
state {
  phase: TRAIN
}
layer {
  name: "data"
  type: "Data"
  top: "data"
  top: "label"
  include {
    phase: TRAIN
  }
  transform_param {
    mirror: true
    crop_size: 227
    mean_value: 104
    mean_value: 117
    mean_value: 123
  }
  data_param {
    source: "/mnt/ilsvrc12_train_lmdb"
    batch_size: 150
    backend: LMDB
  }
}
layer {
  name: "conv1"
  type: "Convolution"
  bottom: "data"
  top: "conv1"
  param {
    lr_mult: 1
    decay_mult: 1
  }
  param {
    lr_mult: 2
    decay_mult: 0
  }
  convolution_param {
    num_output: 96
    kernel_size: 11
    stride: 4
    weight_filler {
      type: "gaussian"
      std: 0.01
    }
    bias_filler {
      type: "constant"
      value: 0
    }
  }
}
layer {
  name: "relu1"
  type: "ReLU"
  bottom: "conv1"
  top: "conv1"
}
layer {
  name: "pool1"
  type: "Pooling"
  bottom: "conv1"
  top: "pool1"
  pooling_param {
    pool: MAX
    kernel_size: 3
    stride: 2
  }
}
layer {
  name: "norm1"
  type: "LRN"
  bottom: "pool1"
  top: "norm1"
  lrn_param {
    local_size: 5
    alpha: 0.0001
    beta: 0.75
  }
}
layer {
  name: "conv2"
  type: "Convolution"
  bottom: "norm1"
  top: "conv2"
  param {
    lr_mult: 1
    decay_mult: 1
  }
  param {
    lr_mult: 2
    decay_mult: 0
  }
  convolution_param {
    num_output: 256
    pad: 2
    kernel_size: 5
    group: 2
    weight_filler {
      type: "gaussian"
      std: 0.01
    }
    bias_filler {
      type: "constant"
      value: 1
    }
  }
}
layer {
  name: "relu2"
  type: "ReLU"
  bottom: "conv2"
  top: "conv2"
}
layer {
  name: "pool2"
  type: "Pooling"
  bottom: "conv2"
  top: "pool2"
  pooling_param {
    pool: MAX
    kernel_size: 3
    stride: 2
  }
}
layer {
  name: "norm2"
  type: "LRN"
  bottom: "pool2"
  top: "norm2"
  lrn_param {
    local_size: 5
    alpha: 0.0001
    beta: 0.75
  }
}
layer {
  name: "conv3"
  type: "Convolution"
  bottom: "norm2"
  top: "conv3"
  param {
    lr_mult: 1
    decay_mult: 1
  }
  param {
    lr_mult: 2
    decay_mult: 0
  }
  convolution_param {
    num_output: 384
    pad: 1
    kernel_size: 3
    weight_filler {
      type: "gaussian"
      std: 0.01
    }
    bias_filler {
      type: "constant"
      value: 0
    }
  }
}
layer {
  name: "relu3"
  type: "ReLU"
  bottom: "conv3"
  top: "conv3"
}
layer {
  name: "conv4"
  type: "Convolution"
  bottom: "conv3"
  top: "conv4"
  param {
    lr_mult: 1
    decay_mult: 1
  }
  param {
    lr_mult: 2
    decay_mult: 0
  }
  convolution_param {
    num_output: 384
    pad: 1
    kernel_size: 3
    group: 2
    weight_filler {
      type: "gaussian"
      std: 0.01
    }
    bias_filler {
      type: "constant"
      value: 1
    }
  }
}
layer {
  name: "relu4"
  type: "ReLU"
  bottom: "conv4"
  top: "conv4"
}
layer {
  name: "conv5"
  type: "Convolution"
  bottom: "conv4"
  top: "conv5"
  param {
    lr_mult: 1
    decay_mult: 1
  }
  param {
    lr_mult: 2
    decay_mult: 0
  }
  convolution_param {
    num_output: 256
    pad: 1
    kernel_size: 3
    group: 2
    weight_filler {
      type: "gaussian"
      std: 0.01
    }
    bias_filler {
      type: "constant"
      value: 1
    }
  }
}
layer {
  name: "relu5"
  type: "ReLU"
  bottom: "conv5"
  top: "conv5"
}
layer {
  name: "pool5"
  type: "Pooling"
  bottom: "conv5"
  top: "pool5"
  pooling_param {
    pool: MAX
    kernel_size: 3
    stride: 2
  }
}
layer {
  name: "fc6"
  type: "InnerProduct"
  bottom: "pool5"
  top: "fc6"
  param {
    lr_mult: 1
    decay_mult: 1
  }
  param {
    lr_mult: 2
    decay_mult: 0
  }
  inner_product_param {
    num_output: 4096
    weight_filler {
      type: "gaussian"
      std: 0.005
    }
    bias_filler {
      type: "constant"
      value: 1
    }
  }
}
layer {
  name: "relu6"
  type: "ReLU"
  bottom: "fc6"
  top: "fc6"
}
layer {
  name: "drop6"
  type: "Dropout"
  bottom: "fc6"
  top: "fc6"
  dropout_param {
    dropout_ratio: 0.5
  }
}
layer {
  name: "fc7"
  type: "InnerProduct"
  bottom: "fc6"
  top: "fc7"
  param {
    lr_mult: 1
    decay_mult: 1
  }
  param {
    lr_mult: 2
    decay_mult: 0
  }
  inner_product_param {
    num_output: 4096
    weight_filler {
      type: "gaussian"
      std: 0.005
    }
    bias_filler {
      type: "constant"
      value: 1
    }
  }
}
layer {
  name: "relu7"
  type: "ReLU"
  bottom: "fc7"
  top: "fc7"
}
layer {
  name: "drop7"
  type: "Dropout"
  bottom: "fc7"
  top: "fc7"
  dropout_param {
    dropout_ratio: 0.5
  }
}
layer {
  name: "fc8_flickr"
  type: "InnerProduct"
  bottom: "fc7"
  top: "fc8_flickr"
  param {
    lr_mult: 10
    decay_mult: 1
  }
  param {
    lr_mult: 20
    decay_mult: 0
  }
  inner_product_param {
    num_output: 200
    weight_filler {
      type: "gaussian"
      std: 0.01
    }
    bias_filler {
      type: "constant"
      value: 0
    }
  }
}
layer {
  name: "loss"
  type: "SoftmaxWithLoss"
  bottom: "fc8_flickr"
  bottom: "label"
  top: "loss"
}
I0311 00:55:43.092587  2965 layer_factory.hpp:77] Creating layer data
I0311 00:55:43.093183  2965 net.cpp:106] Creating Layer data
I0311 00:55:43.093215  2965 net.cpp:411] data -> data
I0311 00:55:43.093272  2965 net.cpp:411] data -> label
I0311 00:55:43.093857  2971 db_lmdb.cpp:38] Opened lmdb /mnt/ilsvrc12_train_lmdb
I0311 00:55:43.105424  2965 data_layer.cpp:41] output data size: 150,3,227,227
I0311 00:55:43.272805  2965 net.cpp:150] Setting up data
I0311 00:55:43.272981  2965 net.cpp:157] Top shape: 150 3 227 227 (23188050)
I0311 00:55:43.273018  2965 net.cpp:157] Top shape: 150 (150)
I0311 00:55:43.273039  2965 net.cpp:165] Memory required for data: 92752800
I0311 00:55:43.273082  2965 layer_factory.hpp:77] Creating layer conv1
I0311 00:55:43.273147  2965 net.cpp:106] Creating Layer conv1
I0311 00:55:43.273195  2965 net.cpp:454] conv1 <- data
I0311 00:55:43.273267  2965 net.cpp:411] conv1 -> conv1
I0311 00:55:43.425664  2965 net.cpp:150] Setting up conv1
I0311 00:55:43.425734  2965 net.cpp:157] Top shape: 150 96 55 55 (43560000)
I0311 00:55:43.425747  2965 net.cpp:165] Memory required for data: 266992800
I0311 00:55:43.425783  2965 layer_factory.hpp:77] Creating layer relu1
I0311 00:55:43.425813  2965 net.cpp:106] Creating Layer relu1
I0311 00:55:43.425844  2965 net.cpp:454] relu1 <- conv1
I0311 00:55:43.425869  2965 net.cpp:397] relu1 -> conv1 (in-place)
I0311 00:55:43.426136  2965 net.cpp:150] Setting up relu1
I0311 00:55:43.426165  2965 net.cpp:157] Top shape: 150 96 55 55 (43560000)
I0311 00:55:43.426177  2965 net.cpp:165] Memory required for data: 441232800
I0311 00:55:43.426192  2965 layer_factory.hpp:77] Creating layer pool1
I0311 00:55:43.426234  2965 net.cpp:106] Creating Layer pool1
I0311 00:55:43.426285  2965 net.cpp:454] pool1 <- conv1
I0311 00:55:43.426331  2965 net.cpp:411] pool1 -> pool1
I0311 00:55:43.426453  2965 net.cpp:150] Setting up pool1
I0311 00:55:43.426481  2965 net.cpp:157] Top shape: 150 96 27 27 (10497600)
I0311 00:55:43.426491  2965 net.cpp:165] Memory required for data: 483223200
I0311 00:55:43.426506  2965 layer_factory.hpp:77] Creating layer norm1
I0311 00:55:43.426549  2965 net.cpp:106] Creating Layer norm1
I0311 00:55:43.426596  2965 net.cpp:454] norm1 <- pool1
I0311 00:55:43.426674  2965 net.cpp:411] norm1 -> norm1
I0311 00:55:43.426981  2965 net.cpp:150] Setting up norm1
I0311 00:55:43.427011  2965 net.cpp:157] Top shape: 150 96 27 27 (10497600)
I0311 00:55:43.427023  2965 net.cpp:165] Memory required for data: 525213600
I0311 00:55:43.427034  2965 layer_factory.hpp:77] Creating layer conv2
I0311 00:55:43.427060  2965 net.cpp:106] Creating Layer conv2
I0311 00:55:43.427078  2965 net.cpp:454] conv2 <- norm1
I0311 00:55:43.427093  2965 net.cpp:411] conv2 -> conv2
I0311 00:55:43.439388  2965 net.cpp:150] Setting up conv2
I0311 00:55:43.439442  2965 net.cpp:157] Top shape: 150 256 27 27 (27993600)
I0311 00:55:43.439455  2965 net.cpp:165] Memory required for data: 637188000
I0311 00:55:43.439482  2965 layer_factory.hpp:77] Creating layer relu2
I0311 00:55:43.439503  2965 net.cpp:106] Creating Layer relu2
I0311 00:55:43.439517  2965 net.cpp:454] relu2 <- conv2
I0311 00:55:43.439533  2965 net.cpp:397] relu2 -> conv2 (in-place)
I0311 00:55:43.439790  2965 net.cpp:150] Setting up relu2
I0311 00:55:43.439818  2965 net.cpp:157] Top shape: 150 256 27 27 (27993600)
I0311 00:55:43.439837  2965 net.cpp:165] Memory required for data: 749162400
I0311 00:55:43.439854  2965 layer_factory.hpp:77] Creating layer pool2
I0311 00:55:43.439872  2965 net.cpp:106] Creating Layer pool2
I0311 00:55:43.439888  2965 net.cpp:454] pool2 <- conv2
I0311 00:55:43.439903  2965 net.cpp:411] pool2 -> pool2
I0311 00:55:43.439965  2965 net.cpp:150] Setting up pool2
I0311 00:55:43.439990  2965 net.cpp:157] Top shape: 150 256 13 13 (6489600)
I0311 00:55:43.440001  2965 net.cpp:165] Memory required for data: 775120800
I0311 00:55:43.440011  2965 layer_factory.hpp:77] Creating layer norm2
I0311 00:55:43.440032  2965 net.cpp:106] Creating Layer norm2
I0311 00:55:43.440044  2965 net.cpp:454] norm2 <- pool2
I0311 00:55:43.440058  2965 net.cpp:411] norm2 -> norm2
I0311 00:55:43.440237  2965 net.cpp:150] Setting up norm2
I0311 00:55:43.440263  2965 net.cpp:157] Top shape: 150 256 13 13 (6489600)
I0311 00:55:43.440276  2965 net.cpp:165] Memory required for data: 801079200
I0311 00:55:43.440289  2965 layer_factory.hpp:77] Creating layer conv3
I0311 00:55:43.440311  2965 net.cpp:106] Creating Layer conv3
I0311 00:55:43.440328  2965 net.cpp:454] conv3 <- norm2
I0311 00:55:43.440345  2965 net.cpp:411] conv3 -> conv3
I0311 00:55:43.471385  2965 net.cpp:150] Setting up conv3
I0311 00:55:43.471448  2965 net.cpp:157] Top shape: 150 384 13 13 (9734400)
I0311 00:55:43.471462  2965 net.cpp:165] Memory required for data: 840016800
I0311 00:55:43.471490  2965 layer_factory.hpp:77] Creating layer relu3
I0311 00:55:43.471513  2965 net.cpp:106] Creating Layer relu3
I0311 00:55:43.471544  2965 net.cpp:454] relu3 <- conv3
I0311 00:55:43.471578  2965 net.cpp:397] relu3 -> conv3 (in-place)
I0311 00:55:43.471915  2965 net.cpp:150] Setting up relu3
I0311 00:55:43.471947  2965 net.cpp:157] Top shape: 150 384 13 13 (9734400)
I0311 00:55:43.471959  2965 net.cpp:165] Memory required for data: 878954400
I0311 00:55:43.471971  2965 layer_factory.hpp:77] Creating layer conv4
I0311 00:55:43.472007  2965 net.cpp:106] Creating Layer conv4
I0311 00:55:43.472050  2965 net.cpp:454] conv4 <- conv3
I0311 00:55:43.472096  2965 net.cpp:411] conv4 -> conv4
I0311 00:55:43.507519  2965 net.cpp:150] Setting up conv4
I0311 00:55:43.507577  2965 net.cpp:157] Top shape: 150 384 13 13 (9734400)
I0311 00:55:43.507591  2965 net.cpp:165] Memory required for data: 917892000
I0311 00:55:43.507609  2965 layer_factory.hpp:77] Creating layer relu4
I0311 00:55:43.507632  2965 net.cpp:106] Creating Layer relu4
I0311 00:55:43.507649  2965 net.cpp:454] relu4 <- conv4
I0311 00:55:43.507680  2965 net.cpp:397] relu4 -> conv4 (in-place)
I0311 00:55:43.508026  2965 net.cpp:150] Setting up relu4
I0311 00:55:43.508055  2965 net.cpp:157] Top shape: 150 384 13 13 (9734400)
I0311 00:55:43.508067  2965 net.cpp:165] Memory required for data: 956829600
I0311 00:55:43.508083  2965 layer_factory.hpp:77] Creating layer conv5
I0311 00:55:43.508147  2965 net.cpp:106] Creating Layer conv5
I0311 00:55:43.508173  2965 net.cpp:454] conv5 <- conv4
I0311 00:55:43.508226  2965 net.cpp:411] conv5 -> conv5
I0311 00:55:43.525216  2965 net.cpp:150] Setting up conv5
I0311 00:55:43.525286  2965 net.cpp:157] Top shape: 150 256 13 13 (6489600)
I0311 00:55:43.525300  2965 net.cpp:165] Memory required for data: 982788000
I0311 00:55:43.525329  2965 layer_factory.hpp:77] Creating layer relu5
I0311 00:55:43.525358  2965 net.cpp:106] Creating Layer relu5
I0311 00:55:43.525389  2965 net.cpp:454] relu5 <- conv5
I0311 00:55:43.525413  2965 net.cpp:397] relu5 -> conv5 (in-place)
I0311 00:55:43.525706  2965 net.cpp:150] Setting up relu5
I0311 00:55:43.525737  2965 net.cpp:157] Top shape: 150 256 13 13 (6489600)
I0311 00:55:43.525748  2965 net.cpp:165] Memory required for data: 1008746400
I0311 00:55:43.525763  2965 layer_factory.hpp:77] Creating layer pool5
I0311 00:55:43.525796  2965 net.cpp:106] Creating Layer pool5
I0311 00:55:43.525830  2965 net.cpp:454] pool5 <- conv5
I0311 00:55:43.525867  2965 net.cpp:411] pool5 -> pool5
I0311 00:55:43.525977  2965 net.cpp:150] Setting up pool5
I0311 00:55:43.526008  2965 net.cpp:157] Top shape: 150 256 6 6 (1382400)
I0311 00:55:43.526020  2965 net.cpp:165] Memory required for data: 1014276000
I0311 00:55:43.526034  2965 layer_factory.hpp:77] Creating layer fc6
I0311 00:55:43.526096  2965 net.cpp:106] Creating Layer fc6
I0311 00:55:43.526129  2965 net.cpp:454] fc6 <- pool5
I0311 00:55:43.526156  2965 net.cpp:411] fc6 -> fc6
I0311 00:55:44.788296  2965 net.cpp:150] Setting up fc6
I0311 00:55:44.788367  2965 net.cpp:157] Top shape: 150 4096 (614400)
I0311 00:55:44.788379  2965 net.cpp:165] Memory required for data: 1016733600
I0311 00:55:44.788400  2965 layer_factory.hpp:77] Creating layer relu6
I0311 00:55:44.788420  2965 net.cpp:106] Creating Layer relu6
I0311 00:55:44.788432  2965 net.cpp:454] relu6 <- fc6
I0311 00:55:44.788450  2965 net.cpp:397] relu6 -> fc6 (in-place)
I0311 00:55:44.788940  2965 net.cpp:150] Setting up relu6
I0311 00:55:44.788970  2965 net.cpp:157] Top shape: 150 4096 (614400)
I0311 00:55:44.788983  2965 net.cpp:165] Memory required for data: 1019191200
I0311 00:55:44.788995  2965 layer_factory.hpp:77] Creating layer drop6
I0311 00:55:44.789026  2965 net.cpp:106] Creating Layer drop6
I0311 00:55:44.789059  2965 net.cpp:454] drop6 <- fc6
I0311 00:55:44.789094  2965 net.cpp:397] drop6 -> fc6 (in-place)
I0311 00:55:44.789180  2965 net.cpp:150] Setting up drop6
I0311 00:55:44.789206  2965 net.cpp:157] Top shape: 150 4096 (614400)
I0311 00:55:44.789218  2965 net.cpp:165] Memory required for data: 1021648800
I0311 00:55:44.789228  2965 layer_factory.hpp:77] Creating layer fc7
I0311 00:55:44.789254  2965 net.cpp:106] Creating Layer fc7
I0311 00:55:44.789273  2965 net.cpp:454] fc7 <- fc6
I0311 00:55:44.789293  2965 net.cpp:411] fc7 -> fc7
I0311 00:55:45.349550  2965 net.cpp:150] Setting up fc7
I0311 00:55:45.349622  2965 net.cpp:157] Top shape: 150 4096 (614400)
I0311 00:55:45.349634  2965 net.cpp:165] Memory required for data: 1024106400
I0311 00:55:45.349654  2965 layer_factory.hpp:77] Creating layer relu7
I0311 00:55:45.349675  2965 net.cpp:106] Creating Layer relu7
I0311 00:55:45.349688  2965 net.cpp:454] relu7 <- fc7
I0311 00:55:45.349714  2965 net.cpp:397] relu7 -> fc7 (in-place)
I0311 00:55:45.350023  2965 net.cpp:150] Setting up relu7
I0311 00:55:45.350054  2965 net.cpp:157] Top shape: 150 4096 (614400)
I0311 00:55:45.350066  2965 net.cpp:165] Memory required for data: 1026564000
I0311 00:55:45.350083  2965 layer_factory.hpp:77] Creating layer drop7
I0311 00:55:45.350112  2965 net.cpp:106] Creating Layer drop7
I0311 00:55:45.350145  2965 net.cpp:454] drop7 <- fc7
I0311 00:55:45.350199  2965 net.cpp:397] drop7 -> fc7 (in-place)
I0311 00:55:45.350257  2965 net.cpp:150] Setting up drop7
I0311 00:55:45.350281  2965 net.cpp:157] Top shape: 150 4096 (614400)
I0311 00:55:45.350291  2965 net.cpp:165] Memory required for data: 1029021600
I0311 00:55:45.350306  2965 layer_factory.hpp:77] Creating layer fc8_flickr
I0311 00:55:45.350332  2965 net.cpp:106] Creating Layer fc8_flickr
I0311 00:55:45.350348  2965 net.cpp:454] fc8_flickr <- fc7
I0311 00:55:45.350402  2965 net.cpp:411] fc8_flickr -> fc8_flickr
I0311 00:55:45.377933  2965 net.cpp:150] Setting up fc8_flickr
I0311 00:55:45.377996  2965 net.cpp:157] Top shape: 150 200 (30000)
I0311 00:55:45.378007  2965 net.cpp:165] Memory required for data: 1029141600
I0311 00:55:45.378027  2965 layer_factory.hpp:77] Creating layer loss
I0311 00:55:45.378054  2965 net.cpp:106] Creating Layer loss
I0311 00:55:45.378073  2965 net.cpp:454] loss <- fc8_flickr
I0311 00:55:45.378088  2965 net.cpp:454] loss <- label
I0311 00:55:45.378108  2965 net.cpp:411] loss -> loss
I0311 00:55:45.378144  2965 layer_factory.hpp:77] Creating layer loss
…
I0311 00:55:45.380061  2965 net.cpp:322] The NetState phase (1) differed from the phase (0) specified by a rule in layer data
I0311 00:55:45.380321  2965 net.cpp:49] Initializing net from parameters: 
name: "FlickrStyleCaffeNet"
state {
  phase: TEST
}
layer {
  name: "data"
  type: "Data"
  top: "data"
  top: "label"
  include {
    phase: TEST
  }
  transform_param {
    mirror: false
    crop_size: 227
    mean_value: 104
    mean_value: 117
    mean_value: 123
  }
  data_param {
    source: "/mnt/ilsvrc12_val_lmdb"
    batch_size: 100
    backend: LMDB
  }
}
layer {
  name: "conv1"
  type: "Convolution"
  bottom: "data"
  top: "conv1"
  param {
    lr_mult: 1
    decay_mult: 1
  }
  param {
    lr_mult: 2
    decay_mult: 0
  }
  convolution_param {
    num_output: 96
    kernel_size: 11
    stride: 4
    weight_filler {
      type: "gaussian"
      std: 0.01
    }
    bias_filler {
      type: "constant"
      value: 0
    }
  }
}
layer {
  name: "relu1"
  type: "ReLU"
  bottom: "conv1"
  top: "conv1"
}
layer {
  name: "pool1"
  type: "Pooling"
  bottom: "conv1"
  top: "pool1"
  pooling_param {
    pool: MAX
    kernel_size: 3
    stride: 2
  }
}
layer {
  name: "norm1"
  type: "LRN"
  bottom: "pool1"
  top: "norm1"
  lrn_param {
    local_size: 5
    alpha: 0.0001
    beta: 0.75
  }
}
layer {
  name: "conv2"
  type: "Convolution"
  bottom: "norm1"
  top: "conv2"
  param {
    lr_mult: 1
    decay_mult: 1
  }
  param {
    lr_mult: 2
    decay_mult: 0
  }
  convolution_param {
    num_output: 256
    pad: 2
    kernel_size: 5
    group: 2
    weight_filler {
      type: "gaussian"
      std: 0.01
    }
    bias_filler {
      type: "constant"
      value: 1
    }
  }
}
layer {
  name: "relu2"
  type: "ReLU"
  bottom: "conv2"
  top: "conv2"
}
layer {
  name: "pool2"
  type: "Pooling"
  bottom: "conv2"
  top: "pool2"
  pooling_param {
    pool: MAX
    kernel_size: 3
    stride: 2
  }
}
layer {
  name: "norm2"
  type: "LRN"
  bottom: "pool2"
  top: "norm2"
  lrn_param {
    local_size: 5
    alpha: 0.0001
    beta: 0.75
  }
}
layer {
  name: "conv3"
  type: "Convolution"
  bottom: "norm2"
  top: "conv3"
  param {
    lr_mult: 1
    decay_mult: 1
  }
  param {
    lr_mult: 2
    decay_mult: 0
  }
  convolution_param {
    num_output: 384
    pad: 1
    kernel_size: 3
    weight_filler {
      type: "gaussian"
      std: 0.01
    }
    bias_filler {
      type: "constant"
      value: 0
    }
  }
}
layer {
  name: "relu3"
  type: "ReLU"
  bottom: "conv3"
  top: "conv3"
}
layer {
  name: "conv4"
  type: "Convolution"
  bottom: "conv3"
  top: "conv4"
  param {
    lr_mult: 1
    decay_mult: 1
  }
  param {
    lr_mult: 2
    decay_mult: 0
  }
  convolution_param {
    num_output: 384
    pad: 1
    kernel_size: 3
    group: 2
    weight_filler {
      type: "gaussian"
      std: 0.01
    }
    bias_filler {
      type: "constant"
      value: 1
    }
  }
}
layer {
  name: "relu4"
  type: "ReLU"
  bottom: "conv4"
  top: "conv4"
}
layer {
  name: "conv5"
  type: "Convolution"
  bottom: "conv4"
  top: "conv5"
  param {
    lr_mult: 1
    decay_mult: 1
  }
  param {
    lr_mult: 2
    decay_mult: 0
  }
  convolution_param {
    num_output: 256
    pad: 1
    kernel_size: 3
    group: 2
    weight_filler {
      type: "gaussian"
      std: 0.01
    }
    bias_filler {
      type: "constant"
      value: 1
    }
  }
}
layer {
  name: "relu5"
  type: "ReLU"
  bottom: "conv5"
  top: "conv5"
}
layer {
  name: "pool5"
  type: "Pooling"
  bottom: "conv5"
  top: "pool5"
  pooling_param {
    pool: MAX
    kernel_size: 3
    stride: 2
  }
}
layer {
  name: "fc6"
  type: "InnerProduct"
  bottom: "pool5"
  top: "fc6"
  param {
    lr_mult: 1
    decay_mult: 1
  }
  param {
    lr_mult: 2
    decay_mult: 0
  }
  inner_product_param {
    num_output: 4096
    weight_filler {
      type: "gaussian"
      std: 0.005
    }
    bias_filler {
      type: "constant"
      value: 1
    }
  }
}
layer {
  name: "relu6"
  type: "ReLU"
  bottom: "fc6"
  top: "fc6"
}
layer {
  name: "drop6"
  type: "Dropout"
  bottom: "fc6"
  top: "fc6"
  dropout_param {
    dropout_ratio: 0.5
  }
}
layer {
  name: "fc7"
  type: "InnerProduct"
  bottom: "fc6"
  top: "fc7"
  param {
    lr_mult: 1
    decay_mult: 1
  }
  param {
    lr_mult: 2
    decay_mult: 0
  }
  inner_product_param {
    num_output: 4096
    weight_filler {
      type: "gaussian"
      std: 0.005
    }
    bias_filler {
      type: "constant"
      value: 1
    }
  }
}
layer {
  name: "relu7"
  type: "ReLU"
  bottom: "fc7"
  top: "fc7"
}
layer {
  name: "drop7"
  type: "Dropout"
  bottom: "fc7"
  top: "fc7"
  dropout_param {
    dropout_ratio: 0.5
  }
}
layer {
  name: "fc8_flickr"
  type: "InnerProduct"
  bottom: "fc7"
  top: "fc8_flickr"
  param {
    lr_mult: 10
    decay_mult: 1
  }
  param {
    lr_mult: 20
    decay_mult: 0
  }
  inner_product_param {
    num_output: 200
    weight_filler {
      type: "gaussian"
      std: 0.01
    }
    bias_filler {
      type: "constant"
      value: 0
    }
  }
}
layer {
  name: "accuracy"
  type: "Accuracy"
  bottom: "fc8_flickr"
  bottom: "label"
  top: "accuracy"
  include {
    phase: TEST
  }
}
layer {
  name: "accuracy_top_5"
  type: "Accuracy"
  bottom: "fc8_flickr"
  bottom: "label"
  top: "accuracy_top_5"
  include {
    phase: TEST
  }
  accuracy_param {
    top_k: 5
  }
}
layer {
  name: "loss"
  type: "SoftmaxWithLoss"
  bottom: "fc8_flickr"
  bottom: "label"
  top: "loss"
}
I0311 00:55:45.381716  2965 layer_factory.hpp:77] Creating layer data
I0311 00:55:45.381880  2965 net.cpp:106] Creating Layer data
I0311 00:55:45.381903  2965 net.cpp:411] data -> data
I0311 00:55:45.381922  2965 net.cpp:411] data -> label
I0311 00:55:45.382592  2973 db_lmdb.cpp:38] Opened lmdb /mnt/ilsvrc12_val_lmdb
I0311 00:55:45.382998  2965 data_layer.cpp:41] output data size: 100,3,227,227
I0311 00:55:45.492210  2965 net.cpp:150] Setting up data
I0311 00:55:45.492275  2965 net.cpp:157] Top shape: 100 3 227 227 (15458700)
I0311 00:55:45.492291  2965 net.cpp:157] Top shape: 100 (100)
I0311 00:55:45.492302  2965 net.cpp:165] Memory required for data: 61835200
I0311 00:55:45.492319  2965 layer_factory.hpp:77] Creating layer label_data_1_split
I0311 00:55:45.492350  2965 net.cpp:106] Creating Layer label_data_1_split
I0311 00:55:45.492377  2965 net.cpp:454] label_data_1_split <- label
I0311 00:55:45.492405  2965 net.cpp:411] label_data_1_split -> label_data_1_split_0
I0311 00:55:45.492447  2965 net.cpp:411] label_data_1_split -> label_data_1_split_1
I0311 00:55:45.492492  2965 net.cpp:411] label_data_1_split -> label_data_1_split_2
I0311 00:55:45.492631  2965 net.cpp:150] Setting up label_data_1_split
I0311 00:55:45.492660  2965 net.cpp:157] Top shape: 100 (100)
I0311 00:55:45.492672  2965 net.cpp:157] Top shape: 100 (100)
I0311 00:55:45.492684  2965 net.cpp:157] Top shape: 100 (100)
I0311 00:55:45.492707  2965 net.cpp:165] Memory required for data: 61836400
I0311 00:55:45.492720  2965 layer_factory.hpp:77] Creating layer conv1
I0311 00:55:45.492746  2965 net.cpp:106] Creating Layer conv1
I0311 00:55:45.492769  2965 net.cpp:454] conv1 <- data
I0311 00:55:45.492786  2965 net.cpp:411] conv1 -> conv1
I0311 00:55:45.502934  2965 net.cpp:150] Setting up conv1
I0311 00:55:45.502986  2965 net.cpp:157] Top shape: 100 96 55 55 (29040000)
I0311 00:55:45.503000  2965 net.cpp:165] Memory required for data: 177996400
I0311 00:55:45.503026  2965 layer_factory.hpp:77] Creating layer relu1
I0311 00:55:45.503057  2965 net.cpp:106] Creating Layer relu1
I0311 00:55:45.503078  2965 net.cpp:454] relu1 <- conv1
I0311 00:55:45.503093  2965 net.cpp:397] relu1 -> conv1 (in-place)
I0311 00:55:45.503273  2965 net.cpp:150] Setting up relu1
I0311 00:55:45.503304  2965 net.cpp:157] Top shape: 100 96 55 55 (29040000)
I0311 00:55:45.503314  2965 net.cpp:165] Memory required for data: 294156400
I0311 00:55:45.503326  2965 layer_factory.hpp:77] Creating layer pool1
I0311 00:55:45.503347  2965 net.cpp:106] Creating Layer pool1
I0311 00:55:45.503366  2965 net.cpp:454] pool1 <- conv1
I0311 00:55:45.503381  2965 net.cpp:411] pool1 -> pool1
I0311 00:55:45.503443  2965 net.cpp:150] Setting up pool1
I0311 00:55:45.503468  2965 net.cpp:157] Top shape: 100 96 27 27 (6998400)
I0311 00:55:45.503479  2965 net.cpp:165] Memory required for data: 322150000
I0311 00:55:45.503490  2965 layer_factory.hpp:77] Creating layer norm1
I0311 00:55:45.503511  2965 net.cpp:106] Creating Layer norm1
I0311 00:55:45.503530  2965 net.cpp:454] norm1 <- pool1
I0311 00:55:45.503543  2965 net.cpp:411] norm1 -> norm1
I0311 00:55:45.503846  2965 net.cpp:150] Setting up norm1
I0311 00:55:45.503875  2965 net.cpp:157] Top shape: 100 96 27 27 (6998400)
I0311 00:55:45.503885  2965 net.cpp:165] Memory required for data: 350143600
I0311 00:55:45.503906  2965 layer_factory.hpp:77] Creating layer conv2
I0311 00:55:45.503931  2965 net.cpp:106] Creating Layer conv2
I0311 00:55:45.503948  2965 net.cpp:454] conv2 <- norm1
I0311 00:55:45.503967  2965 net.cpp:411] conv2 -> conv2
I0311 00:55:45.516243  2965 net.cpp:150] Setting up conv2
I0311 00:55:45.516309  2965 net.cpp:157] Top shape: 100 256 27 27 (18662400)
I0311 00:55:45.516322  2965 net.cpp:165] Memory required for data: 424793200
I0311 00:55:45.516347  2965 layer_factory.hpp:77] Creating layer relu2
I0311 00:55:45.516407  2965 net.cpp:106] Creating Layer relu2
I0311 00:55:45.516425  2965 net.cpp:454] relu2 <- conv2
I0311 00:55:45.516445  2965 net.cpp:397] relu2 -> conv2 (in-place)
I0311 00:55:45.516749  2965 net.cpp:150] Setting up relu2
I0311 00:55:45.516778  2965 net.cpp:157] Top shape: 100 256 27 27 (18662400)
I0311 00:55:45.516790  2965 net.cpp:165] Memory required for data: 499442800
I0311 00:55:45.516803  2965 layer_factory.hpp:77] Creating layer pool2
I0311 00:55:45.516825  2965 net.cpp:106] Creating Layer pool2
I0311 00:55:45.516844  2965 net.cpp:454] pool2 <- conv2
I0311 00:55:45.516858  2965 net.cpp:411] pool2 -> pool2
I0311 00:55:45.516923  2965 net.cpp:150] Setting up pool2
I0311 00:55:45.516947  2965 net.cpp:157] Top shape: 100 256 13 13 (4326400)
I0311 00:55:45.516963  2965 net.cpp:165] Memory required for data: 516748400
I0311 00:55:45.516974  2965 layer_factory.hpp:77] Creating layer norm2
I0311 00:55:45.516993  2965 net.cpp:106] Creating Layer norm2
I0311 00:55:45.517009  2965 net.cpp:454] norm2 <- pool2
I0311 00:55:45.517026  2965 net.cpp:411] norm2 -> norm2
I0311 00:55:45.517241  2965 net.cpp:150] Setting up norm2
I0311 00:55:45.517267  2965 net.cpp:157] Top shape: 100 256 13 13 (4326400)
I0311 00:55:45.517279  2965 net.cpp:165] Memory required for data: 534054000
I0311 00:55:45.517292  2965 layer_factory.hpp:77] Creating layer conv3
I0311 00:55:45.517319  2965 net.cpp:106] Creating Layer conv3
I0311 00:55:45.517338  2965 net.cpp:454] conv3 <- norm2
I0311 00:55:45.517355  2965 net.cpp:411] conv3 -> conv3
I0311 00:55:45.548948  2965 net.cpp:150] Setting up conv3
I0311 00:55:45.549011  2965 net.cpp:157] Top shape: 100 384 13 13 (6489600)
I0311 00:55:45.549023  2965 net.cpp:165] Memory required for data: 560012400
I0311 00:55:45.549048  2965 layer_factory.hpp:77] Creating layer relu3
I0311 00:55:45.549068  2965 net.cpp:106] Creating Layer relu3
I0311 00:55:45.549080  2965 net.cpp:454] relu3 <- conv3
I0311 00:55:45.549095  2965 net.cpp:397] relu3 -> conv3 (in-place)
I0311 00:55:45.549408  2965 net.cpp:150] Setting up relu3
I0311 00:55:45.549437  2965 net.cpp:157] Top shape: 100 384 13 13 (6489600)
I0311 00:55:45.549449  2965 net.cpp:165] Memory required for data: 585970800
I0311 00:55:45.549459  2965 layer_factory.hpp:77] Creating layer conv4
I0311 00:55:45.549486  2965 net.cpp:106] Creating Layer conv4
I0311 00:55:45.549499  2965 net.cpp:454] conv4 <- conv3
I0311 00:55:45.549516  2965 net.cpp:411] conv4 -> conv4
I0311 00:55:45.576794  2965 net.cpp:150] Setting up conv4
I0311 00:55:45.576851  2965 net.cpp:157] Top shape: 100 384 13 13 (6489600)
I0311 00:55:45.576877  2965 net.cpp:165] Memory required for data: 611929200
I0311 00:55:45.576902  2965 layer_factory.hpp:77] Creating layer relu4
I0311 00:55:45.576935  2965 net.cpp:106] Creating Layer relu4
I0311 00:55:45.576947  2965 net.cpp:454] relu4 <- conv4
I0311 00:55:45.576962  2965 net.cpp:397] relu4 -> conv4 (in-place)
I0311 00:55:45.577286  2965 net.cpp:150] Setting up relu4
I0311 00:55:45.577316  2965 net.cpp:157] Top shape: 100 384 13 13 (6489600)
I0311 00:55:45.577328  2965 net.cpp:165] Memory required for data: 637887600
I0311 00:55:45.577339  2965 layer_factory.hpp:77] Creating layer conv5
I0311 00:55:45.577360  2965 net.cpp:106] Creating Layer conv5
I0311 00:55:45.577373  2965 net.cpp:454] conv5 <- conv4
I0311 00:55:45.577391  2965 net.cpp:411] conv5 -> conv5
I0311 00:55:45.594332  2965 net.cpp:150] Setting up conv5
I0311 00:55:45.594396  2965 net.cpp:157] Top shape: 100 256 13 13 (4326400)
I0311 00:55:45.594409  2965 net.cpp:165] Memory required for data: 655193200
I0311 00:55:45.594439  2965 layer_factory.hpp:77] Creating layer relu5
I0311 00:55:45.594460  2965 net.cpp:106] Creating Layer relu5
I0311 00:55:45.594471  2965 net.cpp:454] relu5 <- conv5
I0311 00:55:45.594487  2965 net.cpp:397] relu5 -> conv5 (in-place)
I0311 00:55:45.594810  2965 net.cpp:150] Setting up relu5
I0311 00:55:45.594840  2965 net.cpp:157] Top shape: 100 256 13 13 (4326400)
I0311 00:55:45.594851  2965 net.cpp:165] Memory required for data: 672498800
I0311 00:55:45.594900  2965 layer_factory.hpp:77] Creating layer pool5
I0311 00:55:45.594938  2965 net.cpp:106] Creating Layer pool5
I0311 00:55:45.594954  2965 net.cpp:454] pool5 <- conv5
I0311 00:55:45.594969  2965 net.cpp:411] pool5 -> pool5
I0311 00:55:45.595065  2965 net.cpp:150] Setting up pool5
I0311 00:55:45.595091  2965 net.cpp:157] Top shape: 100 256 6 6 (921600)
I0311 00:55:45.595103  2965 net.cpp:165] Memory required for data: 676185200
I0311 00:55:45.595113  2965 layer_factory.hpp:77] Creating layer fc6
I0311 00:55:45.595129  2965 net.cpp:106] Creating Layer fc6
I0311 00:55:45.595140  2965 net.cpp:454] fc6 <- pool5
I0311 00:55:45.595156  2965 net.cpp:411] fc6 -> fc6
I0311 00:55:46.861744  2965 net.cpp:150] Setting up fc6
I0311 00:55:46.861816  2965 net.cpp:157] Top shape: 100 4096 (409600)
I0311 00:55:46.861829  2965 net.cpp:165] Memory required for data: 677823600
I0311 00:55:46.861855  2965 layer_factory.hpp:77] Creating layer relu6
I0311 00:55:46.861891  2965 net.cpp:106] Creating Layer relu6
I0311 00:55:46.861912  2965 net.cpp:454] relu6 <- fc6
I0311 00:55:46.861929  2965 net.cpp:397] relu6 -> fc6 (in-place)
I0311 00:55:46.862241  2965 net.cpp:150] Setting up relu6
I0311 00:55:46.862267  2965 net.cpp:157] Top shape: 100 4096 (409600)
I0311 00:55:46.862279  2965 net.cpp:165] Memory required for data: 679462000
I0311 00:55:46.862290  2965 layer_factory.hpp:77] Creating layer drop6
I0311 00:55:46.862309  2965 net.cpp:106] Creating Layer drop6
I0311 00:55:46.862321  2965 net.cpp:454] drop6 <- fc6
I0311 00:55:46.862334  2965 net.cpp:397] drop6 -> fc6 (in-place)
I0311 00:55:46.862399  2965 net.cpp:150] Setting up drop6
I0311 00:55:46.862423  2965 net.cpp:157] Top shape: 100 4096 (409600)
I0311 00:55:46.862435  2965 net.cpp:165] Memory required for data: 681100400
I0311 00:55:46.862447  2965 layer_factory.hpp:77] Creating layer fc7
I0311 00:55:46.862467  2965 net.cpp:106] Creating Layer fc7
I0311 00:55:46.862479  2965 net.cpp:454] fc7 <- fc6
I0311 00:55:46.862498  2965 net.cpp:411] fc7 -> fc7
I0311 00:55:47.425848  2965 net.cpp:150] Setting up fc7
I0311 00:55:47.425916  2965 net.cpp:157] Top shape: 100 4096 (409600)
I0311 00:55:47.425928  2965 net.cpp:165] Memory required for data: 682738800
I0311 00:55:47.425948  2965 layer_factory.hpp:77] Creating layer relu7
I0311 00:55:47.425971  2965 net.cpp:106] Creating Layer relu7
I0311 00:55:47.425984  2965 net.cpp:454] relu7 <- fc7
I0311 00:55:47.425999  2965 net.cpp:397] relu7 -> fc7 (in-place)
I0311 00:55:47.426429  2965 net.cpp:150] Setting up relu7
I0311 00:55:47.426457  2965 net.cpp:157] Top shape: 100 4096 (409600)
I0311 00:55:47.426470  2965 net.cpp:165] Memory required for data: 684377200
I0311 00:55:47.426484  2965 layer_factory.hpp:77] Creating layer drop7
I0311 00:55:47.426501  2965 net.cpp:106] Creating Layer drop7
I0311 00:55:47.426512  2965 net.cpp:454] drop7 <- fc7
I0311 00:55:47.426527  2965 net.cpp:397] drop7 -> fc7 (in-place)
I0311 00:55:47.426570  2965 net.cpp:150] Setting up drop7
I0311 00:55:47.426604  2965 net.cpp:157] Top shape: 100 4096 (409600)
I0311 00:55:47.426620  2965 net.cpp:165] Memory required for data: 686015600
I0311 00:55:47.426630  2965 layer_factory.hpp:77] Creating layer fc8_flickr
I0311 00:55:47.426650  2965 net.cpp:106] Creating Layer fc8_flickr
I0311 00:55:47.426666  2965 net.cpp:454] fc8_flickr <- fc7
I0311 00:55:47.426681  2965 net.cpp:411] fc8_flickr -> fc8_flickr
I0311 00:55:47.454232  2965 net.cpp:150] Setting up fc8_flickr
I0311 00:55:47.454296  2965 net.cpp:157] Top shape: 100 200 (20000)
I0311 00:55:47.454308  2965 net.cpp:165] Memory required for data: 686095600
I0311 00:55:47.454329  2965 layer_factory.hpp:77] Creating layer fc8_flickr_fc8_flickr_0_split
I0311 00:55:47.454351  2965 net.cpp:106] Creating Layer fc8_flickr_fc8_flickr_0_split
I0311 00:55:47.454366  2965 net.cpp:454] fc8_flickr_fc8_flickr_0_split <- fc8_flickr
I0311 00:55:47.454386  2965 net.cpp:411] fc8_flickr_fc8_flickr_0_split -> fc8_flickr_fc8_flickr_0_split_0
I0311 00:55:47.454418  2965 net.cpp:411] fc8_flickr_fc8_flickr_0_split -> fc8_flickr_fc8_flickr_0_split_1
I0311 00:55:47.454484  2965 net.cpp:411] fc8_flickr_fc8_flickr_0_split -> fc8_flickr_fc8_flickr_0_split_2
I0311 00:55:47.454568  2965 net.cpp:150] Setting up fc8_flickr_fc8_flickr_0_split
I0311 00:55:47.454592  2965 net.cpp:157] Top shape: 100 200 (20000)
I0311 00:55:47.454605  2965 net.cpp:157] Top shape: 100 200 (20000)
I0311 00:55:47.454617  2965 net.cpp:157] Top shape: 100 200 (20000)
I0311 00:55:47.454627  2965 net.cpp:165] Memory required for data: 686335600
I0311 00:55:47.454638  2965 layer_factory.hpp:77] Creating layer accuracy
I0311 00:55:47.454663  2965 net.cpp:106] Creating Layer accuracy
I0311 00:55:47.454681  2965 net.cpp:454] accuracy <- fc8_flickr_fc8_flickr_0_split_0
I0311 00:55:47.454694  2965 net.cpp:454] accuracy <- label_data_1_split_0
I0311 00:55:47.454709  2965 net.cpp:411] accuracy -> accuracy
…
