…
I0311 19:47:52.009109  9248 net.cpp:322] The NetState phase (0) differed from the phase (1) specified by a rule in layer accuracy_top_5
I0311 19:47:52.009335  9248 net.cpp:49] Initializing net from parameters: 
name: "FlickrStyleCaffeNet"
state {
  phase: TRAIN
}
layer {
  name: "data"
  type: "Data"
  top: "data"
  top: "label"
  include {
    phase: TRAIN
  }
  transform_param {
    mirror: true
    crop_size: 227
    mean_value: 104
    mean_value: 117
    mean_value: 123
  }
  data_param {
    source: "/data/tinyimage4_train_lmdb"
    batch_size: 150
    backend: LMDB
  }
}
layer {
  name: "conv1"
  type: "Convolution"
  bottom: "data"
  top: "conv1"
  param {
    lr_mult: 1
    decay_mult: 1
  }
  param {
    lr_mult: 2
    decay_mult: 0
  }
  convolution_param {
    num_output: 96
    kernel_size: 11
    stride: 4
    weight_filler {
      type: "gaussian"
      std: 0.01
    }
    bias_filler {
      type: "constant"
      value: 0
    }
  }
}
layer {
  name: "relu1"
  type: "ReLU"
  bottom: "conv1"
  top: "conv1"
}
layer {
  name: "pool1"
  type: "Pooling"
  bottom: "conv1"
  top: "pool1"
  pooling_param {
    pool: MAX
    kernel_size: 3
    stride: 2
  }
}
layer {
  name: "norm1"
  type: "LRN"
  bottom: "pool1"
  top: "norm1"
  lrn_param {
    local_size: 5
    alpha: 0.0001
    beta: 0.75
  }
}
layer {
  name: "conv2"
  type: "Convolution"
  bottom: "norm1"
  top: "conv2"
  param {
    lr_mult: 1
    decay_mult: 1
  }
  param {
    lr_mult: 2
    decay_mult: 0
  }
  convolution_param {
    num_output: 256
    pad: 2
    kernel_size: 5
    group: 2
    weight_filler {
      type: "gaussian"
      std: 0.01
    }
    bias_filler {
      type: "constant"
      value: 1
    }
  }
}
layer {
  name: "relu2"
  type: "ReLU"
  bottom: "conv2"
  top: "conv2"
}
layer {
  name: "pool2"
  type: "Pooling"
  bottom: "conv2"
  top: "pool2"
  pooling_param {
    pool: MAX
    kernel_size: 3
    stride: 2
  }
}
layer {
  name: "norm2"
  type: "LRN"
  bottom: "pool2"
  top: "norm2"
  lrn_param {
    local_size: 5
    alpha: 0.0001
    beta: 0.75
  }
}
layer {
  name: "conv3"
  type: "Convolution"
  bottom: "norm2"
  top: "conv3"
  param {
    lr_mult: 1
    decay_mult: 1
  }
  param {
    lr_mult: 2
    decay_mult: 0
  }
  convolution_param {
    num_output: 384
    pad: 1
    kernel_size: 3
    weight_filler {
      type: "gaussian"
      std: 0.01
    }
    bias_filler {
      type: "constant"
      value: 0
    }
  }
}
layer {
  name: "relu3"
  type: "ReLU"
  bottom: "conv3"
  top: "conv3"
}
layer {
  name: "conv4"
  type: "Convolution"
  bottom: "conv3"
  top: "conv4"
  param {
    lr_mult: 1
    decay_mult: 1
  }
  param {
    lr_mult: 2
    decay_mult: 0
  }
  convolution_param {
    num_output: 384
    pad: 1
    kernel_size: 3
    group: 2
    weight_filler {
      type: "gaussian"
      std: 0.01
    }
    bias_filler {
      type: "constant"
      value: 1
    }
  }
}
layer {
  name: "relu4"
  type: "ReLU"
  bottom: "conv4"
  top: "conv4"
}
layer {
  name: "conv5"
  type: "Convolution"
  bottom: "conv4"
  top: "conv5"
  param {
    lr_mult: 1
    decay_mult: 1
  }
  param {
    lr_mult: 2
    decay_mult: 0
  }
  convolution_param {
    num_output: 256
    pad: 1
    kernel_size: 3
    group: 2
    weight_filler {
      type: "gaussian"
      std: 0.01
    }
    bias_filler {
      type: "constant"
      value: 1
    }
  }
}
layer {
  name: "relu5"
  type: "ReLU"
  bottom: "conv5"
  top: "conv5"
}
layer {
  name: "pool5"
  type: "Pooling"
  bottom: "conv5"
  top: "pool5"
  pooling_param {
    pool: MAX
    kernel_size: 3
    stride: 2
  }
}
layer {
  name: "fc6"
  type: "InnerProduct"
  bottom: "pool5"
  top: "fc6"
  param {
    lr_mult: 1
    decay_mult: 1
  }
  param {
    lr_mult: 2
    decay_mult: 0
  }
  inner_product_param {
    num_output: 4096
    weight_filler {
      type: "gaussian"
      std: 0.005
    }
    bias_filler {
      type: "constant"
      value: 1
    }
  }
}
layer {
  name: "relu6"
  type: "ReLU"
  bottom: "fc6"
  top: "fc6"
}
layer {
  name: "drop6"
  type: "Dropout"
  bottom: "fc6"
  top: "fc6"
  dropout_param {
    dropout_ratio: 0.5
  }
}
layer {
  name: "fc7"
  type: "InnerProduct"
  bottom: "fc6"
  top: "fc7"
  param {
    lr_mult: 1
    decay_mult: 1
  }
  param {
    lr_mult: 2
    decay_mult: 0
  }
  inner_product_param {
    num_output: 4096
    weight_filler {
      type: "gaussian"
      std: 0.005
    }
    bias_filler {
      type: "constant"
      value: 1
    }
  }
}
layer {
  name: "relu7"
  type: "ReLU"
  bottom: "fc7"
  top: "fc7"
}
layer {
  name: "drop7"
  type: "Dropout"
  bottom: "fc7"
  top: "fc7"
  dropout_param {
    dropout_ratio: 0.5
  }
}
layer {
  name: "fc8_flickr"
  type: "InnerProduct"
  bottom: "fc7"
  top: "fc8_flickr"
  param {
    lr_mult: 10
    decay_mult: 1
  }
  param {
    lr_mult: 20
    decay_mult: 0
  }
  inner_product_param {
    num_output: 200
    weight_filler {
      type: "gaussian"
      std: 0.01
    }
    bias_filler {
      type: "constant"
      value: 0
    }
  }
}
layer {
  name: "loss"
  type: "SoftmaxWithLoss"
  bottom: "fc8_flickr"
  bottom: "label"
  top: "loss"
}
I0311 19:47:52.010668  9248 layer_factory.hpp:77] Creating layer data
I0311 19:47:52.011339  9248 net.cpp:106] Creating Layer data
I0311 19:47:52.011409  9248 net.cpp:411] data -> data
I0311 19:47:52.011472  9248 net.cpp:411] data -> label
I0311 19:47:52.013346  9254 db_lmdb.cpp:38] Opened lmdb /data/tinyimage4_train_lmdb
I0311 19:47:52.030124  9248 data_layer.cpp:41] output data size: 150,3,227,227
I0311 19:47:52.205487  9248 net.cpp:150] Setting up data
I0311 19:47:52.205555  9248 net.cpp:157] Top shape: 150 3 227 227 (23188050)
I0311 19:47:52.205570  9248 net.cpp:157] Top shape: 150 (150)
I0311 19:47:52.205580  9248 net.cpp:165] Memory required for data: 92752800
I0311 19:47:52.205600  9248 layer_factory.hpp:77] Creating layer conv1
I0311 19:47:52.205642  9248 net.cpp:106] Creating Layer conv1
I0311 19:47:52.205683  9248 net.cpp:454] conv1 <- data
I0311 19:47:52.205724  9248 net.cpp:411] conv1 -> conv1
I0311 19:47:52.256439  9255 blocking_queue.cpp:50] Waiting for data
I0311 19:47:52.345849  9248 net.cpp:150] Setting up conv1
I0311 19:47:52.345906  9248 net.cpp:157] Top shape: 150 96 55 55 (43560000)
I0311 19:47:52.345917  9248 net.cpp:165] Memory required for data: 266992800
I0311 19:47:52.345952  9248 layer_factory.hpp:77] Creating layer relu1
I0311 19:47:52.345978  9248 net.cpp:106] Creating Layer relu1
I0311 19:47:52.346014  9248 net.cpp:454] relu1 <- conv1
I0311 19:47:52.346032  9248 net.cpp:397] relu1 -> conv1 (in-place)
I0311 19:47:52.346231  9248 net.cpp:150] Setting up relu1
I0311 19:47:52.346259  9248 net.cpp:157] Top shape: 150 96 55 55 (43560000)
I0311 19:47:52.346271  9248 net.cpp:165] Memory required for data: 441232800
I0311 19:47:52.346282  9248 layer_factory.hpp:77] Creating layer pool1
I0311 19:47:52.346302  9248 net.cpp:106] Creating Layer pool1
I0311 19:47:52.346328  9248 net.cpp:454] pool1 <- conv1
I0311 19:47:52.346352  9248 net.cpp:411] pool1 -> pool1
I0311 19:47:52.346437  9248 net.cpp:150] Setting up pool1
I0311 19:47:52.346463  9248 net.cpp:157] Top shape: 150 96 27 27 (10497600)
I0311 19:47:52.346474  9248 net.cpp:165] Memory required for data: 483223200
I0311 19:47:52.346485  9248 layer_factory.hpp:77] Creating layer norm1
I0311 19:47:52.346509  9248 net.cpp:106] Creating Layer norm1
I0311 19:47:52.346566  9248 net.cpp:454] norm1 <- pool1
I0311 19:47:52.346587  9248 net.cpp:411] norm1 -> norm1
I0311 19:47:52.346911  9248 net.cpp:150] Setting up norm1
I0311 19:47:52.346940  9248 net.cpp:157] Top shape: 150 96 27 27 (10497600)
I0311 19:47:52.346953  9248 net.cpp:165] Memory required for data: 525213600
I0311 19:47:52.346964  9248 layer_factory.hpp:77] Creating layer conv2
I0311 19:47:52.346992  9248 net.cpp:106] Creating Layer conv2
I0311 19:47:52.347009  9248 net.cpp:454] conv2 <- norm1
I0311 19:47:52.347024  9248 net.cpp:411] conv2 -> conv2
I0311 19:47:52.360069  9248 net.cpp:150] Setting up conv2
I0311 19:47:52.360124  9248 net.cpp:157] Top shape: 150 256 27 27 (27993600)
I0311 19:47:52.360137  9248 net.cpp:165] Memory required for data: 637188000
I0311 19:47:52.360162  9248 layer_factory.hpp:77] Creating layer relu2
I0311 19:47:52.360188  9248 net.cpp:106] Creating Layer relu2
I0311 19:47:52.360218  9248 net.cpp:454] relu2 <- conv2
I0311 19:47:52.360244  9248 net.cpp:397] relu2 -> conv2 (in-place)
I0311 19:47:52.360512  9248 net.cpp:150] Setting up relu2
I0311 19:47:52.360540  9248 net.cpp:157] Top shape: 150 256 27 27 (27993600)
I0311 19:47:52.360563  9248 net.cpp:165] Memory required for data: 749162400
I0311 19:47:52.360574  9248 layer_factory.hpp:77] Creating layer pool2
I0311 19:47:52.360595  9248 net.cpp:106] Creating Layer pool2
I0311 19:47:52.360613  9248 net.cpp:454] pool2 <- conv2
I0311 19:47:52.360638  9248 net.cpp:411] pool2 -> pool2
I0311 19:47:52.360707  9248 net.cpp:150] Setting up pool2
I0311 19:47:52.360733  9248 net.cpp:157] Top shape: 150 256 13 13 (6489600)
I0311 19:47:52.360754  9248 net.cpp:165] Memory required for data: 775120800
I0311 19:47:52.360780  9248 layer_factory.hpp:77] Creating layer norm2
I0311 19:47:52.360805  9248 net.cpp:106] Creating Layer norm2
I0311 19:47:52.360821  9248 net.cpp:454] norm2 <- pool2
I0311 19:47:52.360836  9248 net.cpp:411] norm2 -> norm2
I0311 19:47:52.361033  9248 net.cpp:150] Setting up norm2
I0311 19:47:52.361069  9248 net.cpp:157] Top shape: 150 256 13 13 (6489600)
I0311 19:47:52.361084  9248 net.cpp:165] Memory required for data: 801079200
I0311 19:47:52.361095  9248 layer_factory.hpp:77] Creating layer conv3
I0311 19:47:52.361117  9248 net.cpp:106] Creating Layer conv3
I0311 19:47:52.361135  9248 net.cpp:454] conv3 <- norm2
I0311 19:47:52.361153  9248 net.cpp:411] conv3 -> conv3
I0311 19:47:52.392776  9248 net.cpp:150] Setting up conv3
I0311 19:47:52.392830  9248 net.cpp:157] Top shape: 150 384 13 13 (9734400)
I0311 19:47:52.392846  9248 net.cpp:165] Memory required for data: 840016800
I0311 19:47:52.392881  9248 layer_factory.hpp:77] Creating layer relu3
I0311 19:47:52.392904  9248 net.cpp:106] Creating Layer relu3
I0311 19:47:52.392920  9248 net.cpp:454] relu3 <- conv3
I0311 19:47:52.392943  9248 net.cpp:397] relu3 -> conv3 (in-place)
I0311 19:47:52.393199  9248 net.cpp:150] Setting up relu3
I0311 19:47:52.393227  9248 net.cpp:157] Top shape: 150 384 13 13 (9734400)
I0311 19:47:52.393240  9248 net.cpp:165] Memory required for data: 878954400
I0311 19:47:52.393250  9248 layer_factory.hpp:77] Creating layer conv4
I0311 19:47:52.393273  9248 net.cpp:106] Creating Layer conv4
I0311 19:47:52.393291  9248 net.cpp:454] conv4 <- conv3
I0311 19:47:52.393314  9248 net.cpp:411] conv4 -> conv4
I0311 19:47:52.417832  9248 net.cpp:150] Setting up conv4
I0311 19:47:52.417889  9248 net.cpp:157] Top shape: 150 384 13 13 (9734400)
I0311 19:47:52.417901  9248 net.cpp:165] Memory required for data: 917892000
I0311 19:47:52.417919  9248 layer_factory.hpp:77] Creating layer relu4
I0311 19:47:52.417938  9248 net.cpp:106] Creating Layer relu4
I0311 19:47:52.417953  9248 net.cpp:454] relu4 <- conv4
I0311 19:47:52.417974  9248 net.cpp:397] relu4 -> conv4 (in-place)
I0311 19:47:52.418283  9248 net.cpp:150] Setting up relu4
I0311 19:47:52.418314  9248 net.cpp:157] Top shape: 150 384 13 13 (9734400)
I0311 19:47:52.418325  9248 net.cpp:165] Memory required for data: 956829600
I0311 19:47:52.418337  9248 layer_factory.hpp:77] Creating layer conv5
I0311 19:47:52.418361  9248 net.cpp:106] Creating Layer conv5
I0311 19:47:52.418408  9248 net.cpp:454] conv5 <- conv4
I0311 19:47:52.418426  9248 net.cpp:411] conv5 -> conv5
I0311 19:47:52.435645  9248 net.cpp:150] Setting up conv5
I0311 19:47:52.435703  9248 net.cpp:157] Top shape: 150 256 13 13 (6489600)
I0311 19:47:52.435717  9248 net.cpp:165] Memory required for data: 982788000
I0311 19:47:52.435745  9248 layer_factory.hpp:77] Creating layer relu5
I0311 19:47:52.435766  9248 net.cpp:106] Creating Layer relu5
I0311 19:47:52.435778  9248 net.cpp:454] relu5 <- conv5
I0311 19:47:52.435793  9248 net.cpp:397] relu5 -> conv5 (in-place)
I0311 19:47:52.435997  9248 net.cpp:150] Setting up relu5
I0311 19:47:52.436030  9248 net.cpp:157] Top shape: 150 256 13 13 (6489600)
I0311 19:47:52.436043  9248 net.cpp:165] Memory required for data: 1008746400
I0311 19:47:52.436053  9248 layer_factory.hpp:77] Creating layer pool5
I0311 19:47:52.436074  9248 net.cpp:106] Creating Layer pool5
I0311 19:47:52.436086  9248 net.cpp:454] pool5 <- conv5
I0311 19:47:52.436100  9248 net.cpp:411] pool5 -> pool5
I0311 19:47:52.436166  9248 net.cpp:150] Setting up pool5
I0311 19:47:52.436190  9248 net.cpp:157] Top shape: 150 256 6 6 (1382400)
I0311 19:47:52.436202  9248 net.cpp:165] Memory required for data: 1014276000
I0311 19:47:52.436211  9248 layer_factory.hpp:77] Creating layer fc6
I0311 19:47:52.436239  9248 net.cpp:106] Creating Layer fc6
I0311 19:47:52.436256  9248 net.cpp:454] fc6 <- pool5
I0311 19:47:52.436271  9248 net.cpp:411] fc6 -> fc6
I0311 19:47:53.723502  9248 net.cpp:150] Setting up fc6
I0311 19:47:53.723562  9248 net.cpp:157] Top shape: 150 4096 (614400)
I0311 19:47:53.723574  9248 net.cpp:165] Memory required for data: 1016733600
I0311 19:47:53.723594  9248 layer_factory.hpp:77] Creating layer relu6
I0311 19:47:53.723615  9248 net.cpp:106] Creating Layer relu6
I0311 19:47:53.723635  9248 net.cpp:454] relu6 <- fc6
I0311 19:47:53.723660  9248 net.cpp:397] relu6 -> fc6 (in-place)
I0311 19:47:53.724112  9248 net.cpp:150] Setting up relu6
I0311 19:47:53.724143  9248 net.cpp:157] Top shape: 150 4096 (614400)
I0311 19:47:53.724153  9248 net.cpp:165] Memory required for data: 1019191200
I0311 19:47:53.724167  9248 layer_factory.hpp:77] Creating layer drop6
I0311 19:47:53.724207  9248 net.cpp:106] Creating Layer drop6
I0311 19:47:53.724242  9248 net.cpp:454] drop6 <- fc6
I0311 19:47:53.724273  9248 net.cpp:397] drop6 -> fc6 (in-place)
I0311 19:47:53.724351  9248 net.cpp:150] Setting up drop6
I0311 19:47:53.724380  9248 net.cpp:157] Top shape: 150 4096 (614400)
I0311 19:47:53.724391  9248 net.cpp:165] Memory required for data: 1021648800
I0311 19:47:53.724403  9248 layer_factory.hpp:77] Creating layer fc7
I0311 19:47:53.724419  9248 net.cpp:106] Creating Layer fc7
I0311 19:47:53.724436  9248 net.cpp:454] fc7 <- fc6
I0311 19:47:53.724453  9248 net.cpp:411] fc7 -> fc7
I0311 19:47:54.289409  9248 net.cpp:150] Setting up fc7
I0311 19:47:54.289471  9248 net.cpp:157] Top shape: 150 4096 (614400)
I0311 19:47:54.289484  9248 net.cpp:165] Memory required for data: 1024106400
I0311 19:47:54.289505  9248 layer_factory.hpp:77] Creating layer relu7
I0311 19:47:54.289523  9248 net.cpp:106] Creating Layer relu7
I0311 19:47:54.289538  9248 net.cpp:454] relu7 <- fc7
I0311 19:47:54.289554  9248 net.cpp:397] relu7 -> fc7 (in-place)
I0311 19:47:54.289830  9248 net.cpp:150] Setting up relu7
I0311 19:47:54.289865  9248 net.cpp:157] Top shape: 150 4096 (614400)
I0311 19:47:54.289877  9248 net.cpp:165] Memory required for data: 1026564000
I0311 19:47:54.289888  9248 layer_factory.hpp:77] Creating layer drop7
I0311 19:47:54.289911  9248 net.cpp:106] Creating Layer drop7
I0311 19:47:54.289952  9248 net.cpp:454] drop7 <- fc7
I0311 19:47:54.289983  9248 net.cpp:397] drop7 -> fc7 (in-place)
I0311 19:47:54.290050  9248 net.cpp:150] Setting up drop7
I0311 19:47:54.290088  9248 net.cpp:157] Top shape: 150 4096 (614400)
I0311 19:47:54.290112  9248 net.cpp:165] Memory required for data: 1029021600
I0311 19:47:54.290122  9248 layer_factory.hpp:77] Creating layer fc8_flickr
I0311 19:47:54.290145  9248 net.cpp:106] Creating Layer fc8_flickr
I0311 19:47:54.290195  9248 net.cpp:454] fc8_flickr <- fc7
I0311 19:47:54.290215  9248 net.cpp:411] fc8_flickr -> fc8_flickr
I0311 19:47:54.317910  9248 net.cpp:150] Setting up fc8_flickr
I0311 19:47:54.317968  9248 net.cpp:157] Top shape: 150 200 (30000)
I0311 19:47:54.317980  9248 net.cpp:165] Memory required for data: 1029141600
I0311 19:47:54.317997  9248 layer_factory.hpp:77] Creating layer loss
I0311 19:47:54.318029  9248 net.cpp:106] Creating Layer loss
I0311 19:47:54.318049  9248 net.cpp:454] loss <- fc8_flickr
I0311 19:47:54.318063  9248 net.cpp:454] loss <- label
I0311 19:47:54.318078  9248 net.cpp:411] loss -> loss
I0311 19:47:54.318114  9248 layer_factory.hpp:77] Creating layer loss
…
I0311 19:47:54.319985  9248 net.cpp:322] The NetState phase (1) differed from the phase (0) specified by a rule in layer data
I0311 19:47:54.320241  9248 net.cpp:49] Initializing net from parameters: 
name: "FlickrStyleCaffeNet"
state {
  phase: TEST
}
layer {
  name: "data"
  type: "Data"
  top: "data"
  top: "label"
  include {
    phase: TEST
  }
  transform_param {
    mirror: false
    crop_size: 227
    mean_value: 104
    mean_value: 117
    mean_value: 123
  }
  data_param {
    source: "/data/tinyimage4_val_lmdb"
    batch_size: 100
    backend: LMDB
  }
}
layer {
  name: "conv1"
  type: "Convolution"
  bottom: "data"
  top: "conv1"
  param {
    lr_mult: 1
    decay_mult: 1
  }
  param {
    lr_mult: 2
    decay_mult: 0
  }
  convolution_param {
    num_output: 96
    kernel_size: 11
    stride: 4
    weight_filler {
      type: "gaussian"
      std: 0.01
    }
    bias_filler {
      type: "constant"
      value: 0
    }
  }
}
layer {
  name: "relu1"
  type: "ReLU"
  bottom: "conv1"
  top: "conv1"
}
layer {
  name: "pool1"
  type: "Pooling"
  bottom: "conv1"
  top: "pool1"
  pooling_param {
    pool: MAX
    kernel_size: 3
    stride: 2
  }
}
layer {
  name: "norm1"
  type: "LRN"
  bottom: "pool1"
  top: "norm1"
  lrn_param {
    local_size: 5
    alpha: 0.0001
    beta: 0.75
  }
}
layer {
  name: "conv2"
  type: "Convolution"
  bottom: "norm1"
  top: "conv2"
  param {
    lr_mult: 1
    decay_mult: 1
  }
  param {
    lr_mult: 2
    decay_mult: 0
  }
  convolution_param {
    num_output: 256
    pad: 2
    kernel_size: 5
    group: 2
    weight_filler {
      type: "gaussian"
      std: 0.01
    }
    bias_filler {
      type: "constant"
      value: 1
    }
  }
}
layer {
  name: "relu2"
  type: "ReLU"
  bottom: "conv2"
  top: "conv2"
}
layer {
  name: "pool2"
  type: "Pooling"
  bottom: "conv2"
  top: "pool2"
  pooling_param {
    pool: MAX
    kernel_size: 3
    stride: 2
  }
}
layer {
  name: "norm2"
  type: "LRN"
  bottom: "pool2"
  top: "norm2"
  lrn_param {
    local_size: 5
    alpha: 0.0001
    beta: 0.75
  }
}
layer {
  name: "conv3"
  type: "Convolution"
  bottom: "norm2"
  top: "conv3"
  param {
    lr_mult: 1
    decay_mult: 1
  }
  param {
    lr_mult: 2
    decay_mult: 0
  }
  convolution_param {
    num_output: 384
    pad: 1
    kernel_size: 3
    weight_filler {
      type: "gaussian"
      std: 0.01
    }
    bias_filler {
      type: "constant"
      value: 0
    }
  }
}
layer {
  name: "relu3"
  type: "ReLU"
  bottom: "conv3"
  top: "conv3"
}
layer {
  name: "conv4"
  type: "Convolution"
  bottom: "conv3"
  top: "conv4"
  param {
    lr_mult: 1
    decay_mult: 1
  }
  param {
    lr_mult: 2
    decay_mult: 0
  }
  convolution_param {
    num_output: 384
    pad: 1
    kernel_size: 3
    group: 2
    weight_filler {
      type: "gaussian"
      std: 0.01
    }
    bias_filler {
      type: "constant"
      value: 1
    }
  }
}
layer {
  name: "relu4"
  type: "ReLU"
  bottom: "conv4"
  top: "conv4"
}
layer {
  name: "conv5"
  type: "Convolution"
  bottom: "conv4"
  top: "conv5"
  param {
    lr_mult: 1
    decay_mult: 1
  }
  param {
    lr_mult: 2
    decay_mult: 0
  }
  convolution_param {
    num_output: 256
    pad: 1
    kernel_size: 3
    group: 2
    weight_filler {
      type: "gaussian"
      std: 0.01
    }
    bias_filler {
      type: "constant"
      value: 1
    }
  }
}
layer {
  name: "relu5"
  type: "ReLU"
  bottom: "conv5"
  top: "conv5"
}
layer {
  name: "pool5"
  type: "Pooling"
  bottom: "conv5"
  top: "pool5"
  pooling_param {
    pool: MAX
    kernel_size: 3
    stride: 2
  }
}
layer {
  name: "fc6"
  type: "InnerProduct"
  bottom: "pool5"
  top: "fc6"
  param {
    lr_mult: 1
    decay_mult: 1
  }
  param {
    lr_mult: 2
    decay_mult: 0
  }
  inner_product_param {
    num_output: 4096
    weight_filler {
      type: "gaussian"
      std: 0.005
    }
    bias_filler {
      type: "constant"
      value: 1
    }
  }
}
layer {
  name: "relu6"
  type: "ReLU"
  bottom: "fc6"
  top: "fc6"
}
layer {
  name: "drop6"
  type: "Dropout"
  bottom: "fc6"
  top: "fc6"
  dropout_param {
    dropout_ratio: 0.5
  }
}
layer {
  name: "fc7"
  type: "InnerProduct"
  bottom: "fc6"
  top: "fc7"
  param {
    lr_mult: 1
    decay_mult: 1
  }
  param {
    lr_mult: 2
    decay_mult: 0
  }
  inner_product_param {
    num_output: 4096
    weight_filler {
      type: "gaussian"
      std: 0.005
    }
    bias_filler {
      type: "constant"
      value: 1
    }
  }
}
layer {
  name: "relu7"
  type: "ReLU"
  bottom: "fc7"
  top: "fc7"
}
layer {
  name: "drop7"
  type: "Dropout"
  bottom: "fc7"
  top: "fc7"
  dropout_param {
    dropout_ratio: 0.5
  }
}
layer {
  name: "fc8_flickr"
  type: "InnerProduct"
  bottom: "fc7"
  top: "fc8_flickr"
  param {
    lr_mult: 10
    decay_mult: 1
  }
  param {
    lr_mult: 20
    decay_mult: 0
  }
  inner_product_param {
    num_output: 200
    weight_filler {
      type: "gaussian"
      std: 0.01
    }
    bias_filler {
      type: "constant"
      value: 0
    }
  }
}
layer {
  name: "accuracy"
  type: "Accuracy"
  bottom: "fc8_flickr"
  bottom: "label"
  top: "accuracy"
  include {
    phase: TEST
  }
}
layer {
  name: "accuracy_top_5"
  type: "Accuracy"
  bottom: "fc8_flickr"
  bottom: "label"
  top: "accuracy_top_5"
  include {
    phase: TEST
  }
  accuracy_param {
    top_k: 5
  }
}
layer {
  name: "loss"
  type: "SoftmaxWithLoss"
  bottom: "fc8_flickr"
  bottom: "label"
  top: "loss"
}
I0311 19:47:54.321610  9248 layer_factory.hpp:77] Creating layer data
I0311 19:47:54.321770  9248 net.cpp:106] Creating Layer data
I0311 19:47:54.321794  9248 net.cpp:411] data -> data
I0311 19:47:54.321813  9248 net.cpp:411] data -> label
I0311 19:47:54.323592  9256 db_lmdb.cpp:38] Opened lmdb /data/tinyimage4_val_lmdb
I0311 19:47:54.328529  9248 data_layer.cpp:41] output data size: 100,3,227,227
I0311 19:47:54.442119  9248 net.cpp:150] Setting up data
I0311 19:47:54.442180  9248 net.cpp:157] Top shape: 100 3 227 227 (15458700)
I0311 19:47:54.442198  9248 net.cpp:157] Top shape: 100 (100)
I0311 19:47:54.442209  9248 net.cpp:165] Memory required for data: 61835200
I0311 19:47:54.442224  9248 layer_factory.hpp:77] Creating layer label_data_1_split
I0311 19:47:54.442248  9248 net.cpp:106] Creating Layer label_data_1_split
I0311 19:47:54.442261  9248 net.cpp:454] label_data_1_split <- label
I0311 19:47:54.442278  9248 net.cpp:411] label_data_1_split -> label_data_1_split_0
I0311 19:47:54.442297  9248 net.cpp:411] label_data_1_split -> label_data_1_split_1
I0311 19:47:54.442327  9248 net.cpp:411] label_data_1_split -> label_data_1_split_2
I0311 19:47:54.442412  9248 net.cpp:150] Setting up label_data_1_split
I0311 19:47:54.442435  9248 net.cpp:157] Top shape: 100 (100)
I0311 19:47:54.442447  9248 net.cpp:157] Top shape: 100 (100)
I0311 19:47:54.442459  9248 net.cpp:157] Top shape: 100 (100)
I0311 19:47:54.442468  9248 net.cpp:165] Memory required for data: 61836400
I0311 19:47:54.442478  9248 layer_factory.hpp:77] Creating layer conv1
I0311 19:47:54.442508  9248 net.cpp:106] Creating Layer conv1
I0311 19:47:54.442520  9248 net.cpp:454] conv1 <- data
I0311 19:47:54.442534  9248 net.cpp:411] conv1 -> conv1
I0311 19:47:54.451642  9248 net.cpp:150] Setting up conv1
I0311 19:47:54.451688  9248 net.cpp:157] Top shape: 100 96 55 55 (29040000)
I0311 19:47:54.451699  9248 net.cpp:165] Memory required for data: 177996400
I0311 19:47:54.451721  9248 layer_factory.hpp:77] Creating layer relu1
I0311 19:47:54.451738  9248 net.cpp:106] Creating Layer relu1
I0311 19:47:54.451750  9248 net.cpp:454] relu1 <- conv1
I0311 19:47:54.451763  9248 net.cpp:397] relu1 -> conv1 (in-place)
I0311 19:47:54.451928  9248 net.cpp:150] Setting up relu1
I0311 19:47:54.451964  9248 net.cpp:157] Top shape: 100 96 55 55 (29040000)
I0311 19:47:54.451988  9248 net.cpp:165] Memory required for data: 294156400
I0311 19:47:54.452000  9248 layer_factory.hpp:77] Creating layer pool1
I0311 19:47:54.452020  9248 net.cpp:106] Creating Layer pool1
I0311 19:47:54.452033  9248 net.cpp:454] pool1 <- conv1
I0311 19:47:54.452045  9248 net.cpp:411] pool1 -> pool1
I0311 19:47:54.452107  9248 net.cpp:150] Setting up pool1
I0311 19:47:54.452131  9248 net.cpp:157] Top shape: 100 96 27 27 (6998400)
I0311 19:47:54.452142  9248 net.cpp:165] Memory required for data: 322150000
I0311 19:47:54.452153  9248 layer_factory.hpp:77] Creating layer norm1
I0311 19:47:54.452173  9248 net.cpp:106] Creating Layer norm1
I0311 19:47:54.452190  9248 net.cpp:454] norm1 <- pool1
I0311 19:47:54.452203  9248 net.cpp:411] norm1 -> norm1
I0311 19:47:54.452512  9248 net.cpp:150] Setting up norm1
I0311 19:47:54.452546  9248 net.cpp:157] Top shape: 100 96 27 27 (6998400)
I0311 19:47:54.452565  9248 net.cpp:165] Memory required for data: 350143600
I0311 19:47:54.452577  9248 layer_factory.hpp:77] Creating layer conv2
I0311 19:47:54.452600  9248 net.cpp:106] Creating Layer conv2
I0311 19:47:54.452617  9248 net.cpp:454] conv2 <- norm1
I0311 19:47:54.452648  9248 net.cpp:411] conv2 -> conv2
I0311 19:47:54.466723  9248 net.cpp:150] Setting up conv2
I0311 19:47:54.466789  9248 net.cpp:157] Top shape: 100 256 27 27 (18662400)
I0311 19:47:54.466802  9248 net.cpp:165] Memory required for data: 424793200
I0311 19:47:54.466861  9248 layer_factory.hpp:77] Creating layer relu2
I0311 19:47:54.466886  9248 net.cpp:106] Creating Layer relu2
I0311 19:47:54.466900  9248 net.cpp:454] relu2 <- conv2
I0311 19:47:54.466915  9248 net.cpp:397] relu2 -> conv2 (in-place)
I0311 19:47:54.467198  9248 net.cpp:150] Setting up relu2
I0311 19:47:54.467227  9248 net.cpp:157] Top shape: 100 256 27 27 (18662400)
I0311 19:47:54.467244  9248 net.cpp:165] Memory required for data: 499442800
I0311 19:47:54.467258  9248 layer_factory.hpp:77] Creating layer pool2
I0311 19:47:54.467281  9248 net.cpp:106] Creating Layer pool2
I0311 19:47:54.467299  9248 net.cpp:454] pool2 <- conv2
I0311 19:47:54.467316  9248 net.cpp:411] pool2 -> pool2
I0311 19:47:54.467384  9248 net.cpp:150] Setting up pool2
I0311 19:47:54.467416  9248 net.cpp:157] Top shape: 100 256 13 13 (4326400)
I0311 19:47:54.467440  9248 net.cpp:165] Memory required for data: 516748400
I0311 19:47:54.467453  9248 layer_factory.hpp:77] Creating layer norm2
I0311 19:47:54.467471  9248 net.cpp:106] Creating Layer norm2
I0311 19:47:54.467489  9248 net.cpp:454] norm2 <- pool2
I0311 19:47:54.467502  9248 net.cpp:411] norm2 -> norm2
I0311 19:47:54.467711  9248 net.cpp:150] Setting up norm2
I0311 19:47:54.467741  9248 net.cpp:157] Top shape: 100 256 13 13 (4326400)
I0311 19:47:54.467754  9248 net.cpp:165] Memory required for data: 534054000
I0311 19:47:54.467764  9248 layer_factory.hpp:77] Creating layer conv3
I0311 19:47:54.467785  9248 net.cpp:106] Creating Layer conv3
I0311 19:47:54.467803  9248 net.cpp:454] conv3 <- norm2
I0311 19:47:54.467826  9248 net.cpp:411] conv3 -> conv3
I0311 19:47:54.503952  9248 net.cpp:150] Setting up conv3
I0311 19:47:54.504010  9248 net.cpp:157] Top shape: 100 384 13 13 (6489600)
I0311 19:47:54.504022  9248 net.cpp:165] Memory required for data: 560012400
I0311 19:47:54.504047  9248 layer_factory.hpp:77] Creating layer relu3
I0311 19:47:54.504066  9248 net.cpp:106] Creating Layer relu3
I0311 19:47:54.504078  9248 net.cpp:454] relu3 <- conv3
I0311 19:47:54.504092  9248 net.cpp:397] relu3 -> conv3 (in-place)
I0311 19:47:54.504354  9248 net.cpp:150] Setting up relu3
I0311 19:47:54.504384  9248 net.cpp:157] Top shape: 100 384 13 13 (6489600)
I0311 19:47:54.504395  9248 net.cpp:165] Memory required for data: 585970800
I0311 19:47:54.504405  9248 layer_factory.hpp:77] Creating layer conv4
I0311 19:47:54.504437  9248 net.cpp:106] Creating Layer conv4
I0311 19:47:54.504461  9248 net.cpp:454] conv4 <- conv3
I0311 19:47:54.504475  9248 net.cpp:411] conv4 -> conv4
I0311 19:47:54.532419  9248 net.cpp:150] Setting up conv4
I0311 19:47:54.532475  9248 net.cpp:157] Top shape: 100 384 13 13 (6489600)
I0311 19:47:54.532488  9248 net.cpp:165] Memory required for data: 611929200
I0311 19:47:54.532506  9248 layer_factory.hpp:77] Creating layer relu4
I0311 19:47:54.532526  9248 net.cpp:106] Creating Layer relu4
I0311 19:47:54.532537  9248 net.cpp:454] relu4 <- conv4
I0311 19:47:54.532552  9248 net.cpp:397] relu4 -> conv4 (in-place)
I0311 19:47:54.532850  9248 net.cpp:150] Setting up relu4
I0311 19:47:54.532881  9248 net.cpp:157] Top shape: 100 384 13 13 (6489600)
I0311 19:47:54.532892  9248 net.cpp:165] Memory required for data: 637887600
I0311 19:47:54.532903  9248 layer_factory.hpp:77] Creating layer conv5
I0311 19:47:54.532924  9248 net.cpp:106] Creating Layer conv5
I0311 19:47:54.532941  9248 net.cpp:454] conv5 <- conv4
I0311 19:47:54.532963  9248 net.cpp:411] conv5 -> conv5
I0311 19:47:54.552602  9248 net.cpp:150] Setting up conv5
I0311 19:47:54.552656  9248 net.cpp:157] Top shape: 100 256 13 13 (4326400)
I0311 19:47:54.552669  9248 net.cpp:165] Memory required for data: 655193200
I0311 19:47:54.552697  9248 layer_factory.hpp:77] Creating layer relu5
I0311 19:47:54.552717  9248 net.cpp:106] Creating Layer relu5
I0311 19:47:54.552733  9248 net.cpp:454] relu5 <- conv5
I0311 19:47:54.552762  9248 net.cpp:397] relu5 -> conv5 (in-place)
I0311 19:47:54.553102  9248 net.cpp:150] Setting up relu5
I0311 19:47:54.553133  9248 net.cpp:157] Top shape: 100 256 13 13 (4326400)
I0311 19:47:54.553211  9248 net.cpp:165] Memory required for data: 672498800
I0311 19:47:54.553231  9248 layer_factory.hpp:77] Creating layer pool5
I0311 19:47:54.553259  9248 net.cpp:106] Creating Layer pool5
I0311 19:47:54.553284  9248 net.cpp:454] pool5 <- conv5
I0311 19:47:54.553315  9248 net.cpp:411] pool5 -> pool5
I0311 19:47:54.553422  9248 net.cpp:150] Setting up pool5
I0311 19:47:54.553448  9248 net.cpp:157] Top shape: 100 256 6 6 (921600)
I0311 19:47:54.553459  9248 net.cpp:165] Memory required for data: 676185200
I0311 19:47:54.553470  9248 layer_factory.hpp:77] Creating layer fc6
I0311 19:47:54.553490  9248 net.cpp:106] Creating Layer fc6
I0311 19:47:54.553508  9248 net.cpp:454] fc6 <- pool5
I0311 19:47:54.553525  9248 net.cpp:411] fc6 -> fc6
I0311 19:47:55.825392  9248 net.cpp:150] Setting up fc6
I0311 19:47:55.825459  9248 net.cpp:157] Top shape: 100 4096 (409600)
I0311 19:47:55.825470  9248 net.cpp:165] Memory required for data: 677823600
I0311 19:47:55.825491  9248 layer_factory.hpp:77] Creating layer relu6
I0311 19:47:55.825515  9248 net.cpp:106] Creating Layer relu6
I0311 19:47:55.825527  9248 net.cpp:454] relu6 <- fc6
I0311 19:47:55.825542  9248 net.cpp:397] relu6 -> fc6 (in-place)
I0311 19:47:55.825793  9248 net.cpp:150] Setting up relu6
I0311 19:47:55.825824  9248 net.cpp:157] Top shape: 100 4096 (409600)
I0311 19:47:55.825845  9248 net.cpp:165] Memory required for data: 679462000
I0311 19:47:55.825866  9248 layer_factory.hpp:77] Creating layer drop6
I0311 19:47:55.825891  9248 net.cpp:106] Creating Layer drop6
I0311 19:47:55.825920  9248 net.cpp:454] drop6 <- fc6
I0311 19:47:55.825942  9248 net.cpp:397] drop6 -> fc6 (in-place)
I0311 19:47:55.825997  9248 net.cpp:150] Setting up drop6
I0311 19:47:55.826021  9248 net.cpp:157] Top shape: 100 4096 (409600)
I0311 19:47:55.826032  9248 net.cpp:165] Memory required for data: 681100400
I0311 19:47:55.826045  9248 layer_factory.hpp:77] Creating layer fc7
I0311 19:47:55.826061  9248 net.cpp:106] Creating Layer fc7
I0311 19:47:55.826079  9248 net.cpp:454] fc7 <- fc6
I0311 19:47:55.826098  9248 net.cpp:411] fc7 -> fc7
I0311 19:47:56.391912  9248 net.cpp:150] Setting up fc7
I0311 19:47:56.391974  9248 net.cpp:157] Top shape: 100 4096 (409600)
I0311 19:47:56.391986  9248 net.cpp:165] Memory required for data: 682738800
I0311 19:47:56.392005  9248 layer_factory.hpp:77] Creating layer relu7
I0311 19:47:56.392029  9248 net.cpp:106] Creating Layer relu7
I0311 19:47:56.392040  9248 net.cpp:454] relu7 <- fc7
I0311 19:47:56.392058  9248 net.cpp:397] relu7 -> fc7 (in-place)
I0311 19:47:56.392526  9248 net.cpp:150] Setting up relu7
I0311 19:47:56.392556  9248 net.cpp:157] Top shape: 100 4096 (409600)
I0311 19:47:56.392567  9248 net.cpp:165] Memory required for data: 684377200
I0311 19:47:56.392580  9248 layer_factory.hpp:77] Creating layer drop7
I0311 19:47:56.392606  9248 net.cpp:106] Creating Layer drop7
I0311 19:47:56.392637  9248 net.cpp:454] drop7 <- fc7
I0311 19:47:56.392671  9248 net.cpp:397] drop7 -> fc7 (in-place)
I0311 19:47:56.392750  9248 net.cpp:150] Setting up drop7
I0311 19:47:56.392787  9248 net.cpp:157] Top shape: 100 4096 (409600)
I0311 19:47:56.392806  9248 net.cpp:165] Memory required for data: 686015600
I0311 19:47:56.392817  9248 layer_factory.hpp:77] Creating layer fc8_flickr
I0311 19:47:56.392834  9248 net.cpp:106] Creating Layer fc8_flickr
I0311 19:47:56.392846  9248 net.cpp:454] fc8_flickr <- fc7
I0311 19:47:56.392860  9248 net.cpp:411] fc8_flickr -> fc8_flickr
I0311 19:47:56.420389  9248 net.cpp:150] Setting up fc8_flickr
I0311 19:47:56.420450  9248 net.cpp:157] Top shape: 100 200 (20000)
I0311 19:47:56.420467  9248 net.cpp:165] Memory required for data: 686095600
I0311 19:47:56.420486  9248 layer_factory.hpp:77] Creating layer fc8_flickr_fc8_flickr_0_split
I0311 19:47:56.420508  9248 net.cpp:106] Creating Layer fc8_flickr_fc8_flickr_0_split
I0311 19:47:56.420521  9248 net.cpp:454] fc8_flickr_fc8_flickr_0_split <- fc8_flickr
I0311 19:47:56.420539  9248 net.cpp:411] fc8_flickr_fc8_flickr_0_split -> fc8_flickr_fc8_flickr_0_split_0
I0311 19:47:56.420600  9248 net.cpp:411] fc8_flickr_fc8_flickr_0_split -> fc8_flickr_fc8_flickr_0_split_1
I0311 19:47:56.420616  9248 net.cpp:411] fc8_flickr_fc8_flickr_0_split -> fc8_flickr_fc8_flickr_0_split_2
I0311 19:47:56.420691  9248 net.cpp:150] Setting up fc8_flickr_fc8_flickr_0_split
I0311 19:47:56.420714  9248 net.cpp:157] Top shape: 100 200 (20000)
I0311 19:47:56.420727  9248 net.cpp:157] Top shape: 100 200 (20000)
I0311 19:47:56.420738  9248 net.cpp:157] Top shape: 100 200 (20000)
I0311 19:47:56.420747  9248 net.cpp:165] Memory required for data: 686335600
I0311 19:47:56.420758  9248 layer_factory.hpp:77] Creating layer accuracy
I0311 19:47:56.420780  9248 net.cpp:106] Creating Layer accuracy
I0311 19:47:56.420799  9248 net.cpp:454] accuracy <- fc8_flickr_fc8_flickr_0_split_0
I0311 19:47:56.420811  9248 net.cpp:454] accuracy <- label_data_1_split_0
I0311 19:47:56.420825  9248 net.cpp:411] accuracy -> accuracy
…
